module attributes {llvm.data_layout = "e-m:e-p270:32:32-p271:32:32-p272:64:64-i64:64-i128:128-f80:128-n8:16:32:64-S128", llvm.target_triple = "x86_64-unknown-linux-gnu", "onnx-mlir.symbol-postfix" = "model-mn.mlir"} {
  func.func @main_graph(%arg0: tensor<?x?xi64> {onnx.dim_params = "0:batch_size,1:sequence_length", onnx.name = "input_ids"}, %arg1: tensor<?x?xi64> {onnx.dim_params = "0:batch_size,1:total_sequence_length", onnx.name = "attention_mask"}, %arg2: tensor<?x?xi64> {onnx.dim_params = "0:batch_size,1:sequence_length", onnx.name = "position_ids"}, %arg3: tensor<?x8x?x128xf32> {onnx.dim_params = "0:batch_size,2:past_sequence_length", onnx.name = "past_key_values.0.key"}, %arg4: tensor<?x8x?x128xf32> {onnx.dim_params = "0:batch_size,2:past_sequence_length", onnx.name = "past_key_values.0.value"}, %arg5: tensor<?x8x?x128xf32> {onnx.dim_params = "0:batch_size,2:past_sequence_length", onnx.name = "past_key_values.1.key"}, %arg6: tensor<?x8x?x128xf32> {onnx.dim_params = "0:batch_size,2:past_sequence_length", onnx.name = "past_key_values.1.value"}, %arg7: tensor<?x8x?x128xf32> {onnx.dim_params = "0:batch_size,2:past_sequence_length", onnx.name = "past_key_values.2.key"}, %arg8: tensor<?x8x?x128xf32> {onnx.dim_params = "0:batch_size,2:past_sequence_length", onnx.name = "past_key_values.2.value"}, %arg9: tensor<?x8x?x128xf32> {onnx.dim_params = "0:batch_size,2:past_sequence_length", onnx.name = "past_key_values.3.key"}, %arg10: tensor<?x8x?x128xf32> {onnx.dim_params = "0:batch_size,2:past_sequence_length", onnx.name = "past_key_values.3.value"}, %arg11: tensor<?x8x?x128xf32> {onnx.dim_params = "0:batch_size,2:past_sequence_length", onnx.name = "past_key_values.4.key"}, %arg12: tensor<?x8x?x128xf32> {onnx.dim_params = "0:batch_size,2:past_sequence_length", onnx.name = "past_key_values.4.value"}, %arg13: tensor<?x8x?x128xf32> {onnx.dim_params = "0:batch_size,2:past_sequence_length", onnx.name = "past_key_values.5.key"}, %arg14: tensor<?x8x?x128xf32> {onnx.dim_params = "0:batch_size,2:past_sequence_length", onnx.name = "past_key_values.5.value"}, %arg15: tensor<?x8x?x128xf32> {onnx.dim_params = "0:batch_size,2:past_sequence_length", onnx.name = "past_key_values.6.key"}, %arg16: tensor<?x8x?x128xf32> {onnx.dim_params = "0:batch_size,2:past_sequence_length", onnx.name = "past_key_values.6.value"}, %arg17: tensor<?x8x?x128xf32> {onnx.dim_params = "0:batch_size,2:past_sequence_length", onnx.name = "past_key_values.7.key"}, %arg18: tensor<?x8x?x128xf32> {onnx.dim_params = "0:batch_size,2:past_sequence_length", onnx.name = "past_key_values.7.value"}, %arg19: tensor<?x8x?x128xf32> {onnx.dim_params = "0:batch_size,2:past_sequence_length", onnx.name = "past_key_values.8.key"}, %arg20: tensor<?x8x?x128xf32> {onnx.dim_params = "0:batch_size,2:past_sequence_length", onnx.name = "past_key_values.8.value"}, %arg21: tensor<?x8x?x128xf32> {onnx.dim_params = "0:batch_size,2:past_sequence_length", onnx.name = "past_key_values.9.key"}, %arg22: tensor<?x8x?x128xf32> {onnx.dim_params = "0:batch_size,2:past_sequence_length", onnx.name = "past_key_values.9.value"}, %arg23: tensor<?x8x?x128xf32> {onnx.dim_params = "0:batch_size,2:past_sequence_length", onnx.name = "past_key_values.10.key"}, %arg24: tensor<?x8x?x128xf32> {onnx.dim_params = "0:batch_size,2:past_sequence_length", onnx.name = "past_key_values.10.value"}, %arg25: tensor<?x8x?x128xf32> {onnx.dim_params = "0:batch_size,2:past_sequence_length", onnx.name = "past_key_values.11.key"}, %arg26: tensor<?x8x?x128xf32> {onnx.dim_params = "0:batch_size,2:past_sequence_length", onnx.name = "past_key_values.11.value"}, %arg27: tensor<?x8x?x128xf32> {onnx.dim_params = "0:batch_size,2:past_sequence_length", onnx.name = "past_key_values.12.key"}, %arg28: tensor<?x8x?x128xf32> {onnx.dim_params = "0:batch_size,2:past_sequence_length", onnx.name = "past_key_values.12.value"}, %arg29: tensor<?x8x?x128xf32> {onnx.dim_params = "0:batch_size,2:past_sequence_length", onnx.name = "past_key_values.13.key"}, %arg30: tensor<?x8x?x128xf32> {onnx.dim_params = "0:batch_size,2:past_sequence_length", onnx.name = "past_key_values.13.value"}, %arg31: tensor<?x8x?x128xf32> {onnx.dim_params = "0:batch_size,2:past_sequence_length", onnx.name = "past_key_values.14.key"}, %arg32: tensor<?x8x?x128xf32> {onnx.dim_params = "0:batch_size,2:past_sequence_length", onnx.name = "past_key_values.14.value"}, %arg33: tensor<?x8x?x128xf32> {onnx.dim_params = "0:batch_size,2:past_sequence_length", onnx.name = "past_key_values.15.key"}, %arg34: tensor<?x8x?x128xf32> {onnx.dim_params = "0:batch_size,2:past_sequence_length", onnx.name = "past_key_values.15.value"}, %arg35: tensor<?x8x?x128xf32> {onnx.dim_params = "0:batch_size,2:past_sequence_length", onnx.name = "past_key_values.16.key"}, %arg36: tensor<?x8x?x128xf32> {onnx.dim_params = "0:batch_size,2:past_sequence_length", onnx.name = "past_key_values.16.value"}, %arg37: tensor<?x8x?x128xf32> {onnx.dim_params = "0:batch_size,2:past_sequence_length", onnx.name = "past_key_values.17.key"}, %arg38: tensor<?x8x?x128xf32> {onnx.dim_params = "0:batch_size,2:past_sequence_length", onnx.name = "past_key_values.17.value"}, %arg39: tensor<?x8x?x128xf32> {onnx.dim_params = "0:batch_size,2:past_sequence_length", onnx.name = "past_key_values.18.key"}, %arg40: tensor<?x8x?x128xf32> {onnx.dim_params = "0:batch_size,2:past_sequence_length", onnx.name = "past_key_values.18.value"}, %arg41: tensor<?x8x?x128xf32> {onnx.dim_params = "0:batch_size,2:past_sequence_length", onnx.name = "past_key_values.19.key"}, %arg42: tensor<?x8x?x128xf32> {onnx.dim_params = "0:batch_size,2:past_sequence_length", onnx.name = "past_key_values.19.value"}, %arg43: tensor<?x8x?x128xf32> {onnx.dim_params = "0:batch_size,2:past_sequence_length", onnx.name = "past_key_values.20.key"}, %arg44: tensor<?x8x?x128xf32> {onnx.dim_params = "0:batch_size,2:past_sequence_length", onnx.name = "past_key_values.20.value"}, %arg45: tensor<?x8x?x128xf32> {onnx.dim_params = "0:batch_size,2:past_sequence_length", onnx.name = "past_key_values.21.key"}, %arg46: tensor<?x8x?x128xf32> {onnx.dim_params = "0:batch_size,2:past_sequence_length", onnx.name = "past_key_values.21.value"}, %arg47: tensor<?x8x?x128xf32> {onnx.dim_params = "0:batch_size,2:past_sequence_length", onnx.name = "past_key_values.22.key"}, %arg48: tensor<?x8x?x128xf32> {onnx.dim_params = "0:batch_size,2:past_sequence_length", onnx.name = "past_key_values.22.value"}, %arg49: tensor<?x8x?x128xf32> {onnx.dim_params = "0:batch_size,2:past_sequence_length", onnx.name = "past_key_values.23.key"}, %arg50: tensor<?x8x?x128xf32> {onnx.dim_params = "0:batch_size,2:past_sequence_length", onnx.name = "past_key_values.23.value"}, %arg51: tensor<?x8x?x128xf32> {onnx.dim_params = "0:batch_size,2:past_sequence_length", onnx.name = "past_key_values.24.key"}, %arg52: tensor<?x8x?x128xf32> {onnx.dim_params = "0:batch_size,2:past_sequence_length", onnx.name = "past_key_values.24.value"}, %arg53: tensor<?x8x?x128xf32> {onnx.dim_params = "0:batch_size,2:past_sequence_length", onnx.name = "past_key_values.25.key"}, %arg54: tensor<?x8x?x128xf32> {onnx.dim_params = "0:batch_size,2:past_sequence_length", onnx.name = "past_key_values.25.value"}, %arg55: tensor<?x8x?x128xf32> {onnx.dim_params = "0:batch_size,2:past_sequence_length", onnx.name = "past_key_values.26.key"}, %arg56: tensor<?x8x?x128xf32> {onnx.dim_params = "0:batch_size,2:past_sequence_length", onnx.name = "past_key_values.26.value"}, %arg57: tensor<?x8x?x128xf32> {onnx.dim_params = "0:batch_size,2:past_sequence_length", onnx.name = "past_key_values.27.key"}, %arg58: tensor<?x8x?x128xf32> {onnx.dim_params = "0:batch_size,2:past_sequence_length", onnx.name = "past_key_values.27.value"}) -> (tensor<?x?x151936xf32> {onnx.dim_params = "0:batch_size,1:sequence_length", onnx.name = "logits"}, tensor<?x8x?x128xf32> {onnx.dim_params = "0:batch_size,2:past_sequence_length", onnx.name = "present.0.key"}, tensor<?x8x?x128xf32> {onnx.dim_params = "0:batch_size,2:past_sequence_length", onnx.name = "present.0.value"}, tensor<?x8x?x128xf32> {onnx.dim_params = "0:batch_size,2:past_sequence_length", onnx.name = "present.1.key"}, tensor<?x8x?x128xf32> {onnx.dim_params = "0:batch_size,2:past_sequence_length", onnx.name = "present.1.value"}, tensor<?x8x?x128xf32> {onnx.dim_params = "0:batch_size,2:past_sequence_length", onnx.name = "present.2.key"}, tensor<?x8x?x128xf32> {onnx.dim_params = "0:batch_size,2:past_sequence_length", onnx.name = "present.2.value"}, tensor<?x8x?x128xf32> {onnx.dim_params = "0:batch_size,2:past_sequence_length", onnx.name = "present.3.key"}, tensor<?x8x?x128xf32> {onnx.dim_params = "0:batch_size,2:past_sequence_length", onnx.name = "present.3.value"}, tensor<?x8x?x128xf32> {onnx.dim_params = "0:batch_size,2:past_sequence_length", onnx.name = "present.4.key"}, tensor<?x8x?x128xf32> {onnx.dim_params = "0:batch_size,2:past_sequence_length", onnx.name = "present.4.value"}, tensor<?x8x?x128xf32> {onnx.dim_params = "0:batch_size,2:past_sequence_length", onnx.name = "present.5.key"}, tensor<?x8x?x128xf32> {onnx.dim_params = "0:batch_size,2:past_sequence_length", onnx.name = "present.5.value"}, tensor<?x8x?x128xf32> {onnx.dim_params = "0:batch_size,2:past_sequence_length", onnx.name = "present.6.key"}, tensor<?x8x?x128xf32> {onnx.dim_params = "0:batch_size,2:past_sequence_length", onnx.name = "present.6.value"}, tensor<?x8x?x128xf32> {onnx.dim_params = "0:batch_size,2:past_sequence_length", onnx.name = "present.7.key"}, tensor<?x8x?x128xf32> {onnx.dim_params = "0:batch_size,2:past_sequence_length", onnx.name = "present.7.value"}, tensor<?x8x?x128xf32> {onnx.dim_params = "0:batch_size,2:past_sequence_length", onnx.name = "present.8.key"}, tensor<?x8x?x128xf32> {onnx.dim_params = "0:batch_size,2:past_sequence_length", onnx.name = "present.8.value"}, tensor<?x8x?x128xf32> {onnx.dim_params = "0:batch_size,2:past_sequence_length", onnx.name = "present.9.key"}, tensor<?x8x?x128xf32> {onnx.dim_params = "0:batch_size,2:past_sequence_length", onnx.name = "present.9.value"}, tensor<?x8x?x128xf32> {onnx.dim_params = "0:batch_size,2:past_sequence_length", onnx.name = "present.10.key"}, tensor<?x8x?x128xf32> {onnx.dim_params = "0:batch_size,2:past_sequence_length", onnx.name = "present.10.value"}, tensor<?x8x?x128xf32> {onnx.dim_params = "0:batch_size,2:past_sequence_length", onnx.name = "present.11.key"}, tensor<?x8x?x128xf32> {onnx.dim_params = "0:batch_size,2:past_sequence_length", onnx.name = "present.11.value"}, tensor<?x8x?x128xf32> {onnx.dim_params = "0:batch_size,2:past_sequence_length", onnx.name = "present.12.key"}, tensor<?x8x?x128xf32> {onnx.dim_params = "0:batch_size,2:past_sequence_length", onnx.name = "present.12.value"}, tensor<?x8x?x128xf32> {onnx.dim_params = "0:batch_size,2:past_sequence_length", onnx.name = "present.13.key"}, tensor<?x8x?x128xf32> {onnx.dim_params = "0:batch_size,2:past_sequence_length", onnx.name = "present.13.value"}, tensor<?x8x?x128xf32> {onnx.dim_params = "0:batch_size,2:past_sequence_length", onnx.name = "present.14.key"}, tensor<?x8x?x128xf32> {onnx.dim_params = "0:batch_size,2:past_sequence_length", onnx.name = "present.14.value"}, tensor<?x8x?x128xf32> {onnx.dim_params = "0:batch_size,2:past_sequence_length", onnx.name = "present.15.key"}, tensor<?x8x?x128xf32> {onnx.dim_params = "0:batch_size,2:past_sequence_length", onnx.name = "present.15.value"}, tensor<?x8x?x128xf32> {onnx.dim_params = "0:batch_size,2:past_sequence_length", onnx.name = "present.16.key"}, tensor<?x8x?x128xf32> {onnx.dim_params = "0:batch_size,2:past_sequence_length", onnx.name = "present.16.value"}, tensor<?x8x?x128xf32> {onnx.dim_params = "0:batch_size,2:past_sequence_length", onnx.name = "present.17.key"}, tensor<?x8x?x128xf32> {onnx.dim_params = "0:batch_size,2:past_sequence_length", onnx.name = "present.17.value"}, tensor<?x8x?x128xf32> {onnx.dim_params = "0:batch_size,2:past_sequence_length", onnx.name = "present.18.key"}, tensor<?x8x?x128xf32> {onnx.dim_params = "0:batch_size,2:past_sequence_length", onnx.name = "present.18.value"}, tensor<?x8x?x128xf32> {onnx.dim_params = "0:batch_size,2:past_sequence_length", onnx.name = "present.19.key"}, tensor<?x8x?x128xf32> {onnx.dim_params = "0:batch_size,2:past_sequence_length", onnx.name = "present.19.value"}, tensor<?x8x?x128xf32> {onnx.dim_params = "0:batch_size,2:past_sequence_length", onnx.name = "present.20.key"}, tensor<?x8x?x128xf32> {onnx.dim_params = "0:batch_size,2:past_sequence_length", onnx.name = "present.20.value"}, tensor<?x8x?x128xf32> {onnx.dim_params = "0:batch_size,2:past_sequence_length", onnx.name = "present.21.key"}, tensor<?x8x?x128xf32> {onnx.dim_params = "0:batch_size,2:past_sequence_length", onnx.name = "present.21.value"}, tensor<?x8x?x128xf32> {onnx.dim_params = "0:batch_size,2:past_sequence_length", onnx.name = "present.22.key"}, tensor<?x8x?x128xf32> {onnx.dim_params = "0:batch_size,2:past_sequence_length", onnx.name = "present.22.value"}, tensor<?x8x?x128xf32> {onnx.dim_params = "0:batch_size,2:past_sequence_length", onnx.name = "present.23.key"}, tensor<?x8x?x128xf32> {onnx.dim_params = "0:batch_size,2:past_sequence_length", onnx.name = "present.23.value"}, tensor<?x8x?x128xf32> {onnx.dim_params = "0:batch_size,2:past_sequence_length", onnx.name = "present.24.key"}, tensor<?x8x?x128xf32> {onnx.dim_params = "0:batch_size,2:past_sequence_length", onnx.name = "present.24.value"}, tensor<?x8x?x128xf32> {onnx.dim_params = "0:batch_size,2:past_sequence_length", onnx.name = "present.25.key"}, tensor<?x8x?x128xf32> {onnx.dim_params = "0:batch_size,2:past_sequence_length", onnx.name = "present.25.value"}, tensor<?x8x?x128xf32> {onnx.dim_params = "0:batch_size,2:past_sequence_length", onnx.name = "present.26.key"}, tensor<?x8x?x128xf32> {onnx.dim_params = "0:batch_size,2:past_sequence_length", onnx.name = "present.26.value"}, tensor<?x8x?x128xf32> {onnx.dim_params = "0:batch_size,2:past_sequence_length", onnx.name = "present.27.key"}, tensor<?x8x?x128xf32> {onnx.dim_params = "0:batch_size,2:past_sequence_length", onnx.name = "present.27.value"}) {
    %0 = onnx.Constant dense<0> : tensor<1xi64>
    %1 = onnx.Constant dense<-1> : tensor<1xi64>
    %2 = onnx.Constant dense_resource<__elided__> : tensor<1024x151936xui8>
    %3 = "onnx.NoValue"() {onnx_node_name = "onnx.NoValue_0", value} : () -> none
    %4 = onnx.Constant dense<[0, -1, 1024]> : tensor<3xi64>
    %5 = onnx.Constant dense<[0, -1, 2048]> : tensor<3xi64>
    %6 = onnx.Constant dense<[0, -1, 128]> : tensor<3xi64>
    %7 = onnx.Constant dense<1> : tensor<1xi64>
    %8 = onnx.Constant dense<-1> : tensor<1xi64>
    %9 = onnx.Constant dense_resource<__elided__> : tensor<1024xf32>
    %10 = onnx.Constant dense_resource<__elided__> : tensor<128xf32>
    %11 = onnx.Constant dense_resource<__elided__> : tensor<128xf32>
    %12 = onnx.Constant dense_resource<__elided__> : tensor<40960x64xf32>
    %13 = onnx.Constant dense_resource<__elided__> : tensor<40960x64xf32>
    %14 = onnx.Constant dense_resource<__elided__> : tensor<1024xf32>
    %15 = onnx.Constant dense_resource<__elided__> : tensor<1024xf32>
    %16 = onnx.Constant dense_resource<__elided__> : tensor<128xf32>
    %17 = onnx.Constant dense_resource<__elided__> : tensor<128xf32>
    %18 = onnx.Constant dense_resource<__elided__> : tensor<1024xf32>
    %19 = onnx.Constant dense_resource<__elided__> : tensor<1024xf32>
    %20 = onnx.Constant dense_resource<__elided__> : tensor<128xf32>
    %21 = onnx.Constant dense_resource<__elided__> : tensor<128xf32>
    %22 = onnx.Constant dense_resource<__elided__> : tensor<1024xf32>
    %23 = onnx.Constant dense_resource<__elided__> : tensor<1024xf32>
    %24 = onnx.Constant dense_resource<__elided__> : tensor<128xf32>
    %25 = onnx.Constant dense_resource<__elided__> : tensor<128xf32>
    %26 = onnx.Constant dense_resource<__elided__> : tensor<1024xf32>
    %27 = onnx.Constant dense_resource<__elided__> : tensor<1024xf32>
    %28 = onnx.Constant dense_resource<__elided__> : tensor<128xf32>
    %29 = onnx.Constant dense_resource<__elided__> : tensor<128xf32>
    %30 = onnx.Constant dense_resource<__elided__> : tensor<1024xf32>
    %31 = onnx.Constant dense_resource<__elided__> : tensor<1024xf32>
    %32 = onnx.Constant dense_resource<__elided__> : tensor<128xf32>
    %33 = onnx.Constant dense_resource<__elided__> : tensor<128xf32>
    %34 = onnx.Constant dense_resource<__elided__> : tensor<1024xf32>
    %35 = onnx.Constant dense_resource<__elided__> : tensor<1024xf32>
    %36 = onnx.Constant dense_resource<__elided__> : tensor<128xf32>
    %37 = onnx.Constant dense_resource<__elided__> : tensor<128xf32>
    %38 = onnx.Constant dense_resource<__elided__> : tensor<1024xf32>
    %39 = onnx.Constant dense_resource<__elided__> : tensor<1024xf32>
    %40 = onnx.Constant dense_resource<__elided__> : tensor<128xf32>
    %41 = onnx.Constant dense_resource<__elided__> : tensor<128xf32>
    %42 = onnx.Constant dense_resource<__elided__> : tensor<1024xf32>
    %43 = onnx.Constant dense_resource<__elided__> : tensor<1024xf32>
    %44 = onnx.Constant dense_resource<__elided__> : tensor<128xf32>
    %45 = onnx.Constant dense_resource<__elided__> : tensor<128xf32>
    %46 = onnx.Constant dense_resource<__elided__> : tensor<1024xf32>
    %47 = onnx.Constant dense_resource<__elided__> : tensor<1024xf32>
    %48 = onnx.Constant dense_resource<__elided__> : tensor<128xf32>
    %49 = onnx.Constant dense_resource<__elided__> : tensor<128xf32>
    %50 = onnx.Constant dense_resource<__elided__> : tensor<1024xf32>
    %51 = onnx.Constant dense_resource<__elided__> : tensor<1024xf32>
    %52 = onnx.Constant dense_resource<__elided__> : tensor<128xf32>
    %53 = onnx.Constant dense_resource<__elided__> : tensor<128xf32>
    %54 = onnx.Constant dense_resource<__elided__> : tensor<1024xf32>
    %55 = onnx.Constant dense_resource<__elided__> : tensor<1024xf32>
    %56 = onnx.Constant dense_resource<__elided__> : tensor<128xf32>
    %57 = onnx.Constant dense_resource<__elided__> : tensor<128xf32>
    %58 = onnx.Constant dense_resource<__elided__> : tensor<1024xf32>
    %59 = onnx.Constant dense_resource<__elided__> : tensor<1024xf32>
    %60 = onnx.Constant dense_resource<__elided__> : tensor<128xf32>
    %61 = onnx.Constant dense_resource<__elided__> : tensor<128xf32>
    %62 = onnx.Constant dense_resource<__elided__> : tensor<1024xf32>
    %63 = onnx.Constant dense_resource<__elided__> : tensor<1024xf32>
    %64 = onnx.Constant dense_resource<__elided__> : tensor<128xf32>
    %65 = onnx.Constant dense_resource<__elided__> : tensor<128xf32>
    %66 = onnx.Constant dense_resource<__elided__> : tensor<1024xf32>
    %67 = onnx.Constant dense_resource<__elided__> : tensor<1024xf32>
    %68 = onnx.Constant dense_resource<__elided__> : tensor<128xf32>
    %69 = onnx.Constant dense_resource<__elided__> : tensor<128xf32>
    %70 = onnx.Constant dense_resource<__elided__> : tensor<1024xf32>
    %71 = onnx.Constant dense_resource<__elided__> : tensor<1024xf32>
    %72 = onnx.Constant dense_resource<__elided__> : tensor<128xf32>
    %73 = onnx.Constant dense_resource<__elided__> : tensor<128xf32>
    %74 = onnx.Constant dense_resource<__elided__> : tensor<1024xf32>
    %75 = onnx.Constant dense_resource<__elided__> : tensor<1024xf32>
    %76 = onnx.Constant dense_resource<__elided__> : tensor<128xf32>
    %77 = onnx.Constant dense_resource<__elided__> : tensor<128xf32>
    %78 = onnx.Constant dense_resource<__elided__> : tensor<1024xf32>
    %79 = onnx.Constant dense_resource<__elided__> : tensor<1024xf32>
    %80 = onnx.Constant dense_resource<__elided__> : tensor<128xf32>
    %81 = onnx.Constant dense_resource<__elided__> : tensor<128xf32>
    %82 = onnx.Constant dense_resource<__elided__> : tensor<1024xf32>
    %83 = onnx.Constant dense_resource<__elided__> : tensor<1024xf32>
    %84 = onnx.Constant dense_resource<__elided__> : tensor<128xf32>
    %85 = onnx.Constant dense_resource<__elided__> : tensor<128xf32>
    %86 = onnx.Constant dense_resource<__elided__> : tensor<1024xf32>
    %87 = onnx.Constant dense_resource<__elided__> : tensor<1024xf32>
    %88 = onnx.Constant dense_resource<__elided__> : tensor<128xf32>
    %89 = onnx.Constant dense_resource<__elided__> : tensor<128xf32>
    %90 = onnx.Constant dense_resource<__elided__> : tensor<1024xf32>
    %91 = onnx.Constant dense_resource<__elided__> : tensor<1024xf32>
    %92 = onnx.Constant dense_resource<__elided__> : tensor<128xf32>
    %93 = onnx.Constant dense_resource<__elided__> : tensor<128xf32>
    %94 = onnx.Constant dense_resource<__elided__> : tensor<1024xf32>
    %95 = onnx.Constant dense_resource<__elided__> : tensor<1024xf32>
    %96 = onnx.Constant dense_resource<__elided__> : tensor<128xf32>
    %97 = onnx.Constant dense_resource<__elided__> : tensor<128xf32>
    %98 = onnx.Constant dense_resource<__elided__> : tensor<1024xf32>
    %99 = onnx.Constant dense_resource<__elided__> : tensor<1024xf32>
    %100 = onnx.Constant dense_resource<__elided__> : tensor<128xf32>
    %101 = onnx.Constant dense_resource<__elided__> : tensor<128xf32>
    %102 = onnx.Constant dense_resource<__elided__> : tensor<1024xf32>
    %103 = onnx.Constant dense_resource<__elided__> : tensor<1024xf32>
    %104 = onnx.Constant dense_resource<__elided__> : tensor<128xf32>
    %105 = onnx.Constant dense_resource<__elided__> : tensor<128xf32>
    %106 = onnx.Constant dense_resource<__elided__> : tensor<1024xf32>
    %107 = onnx.Constant dense_resource<__elided__> : tensor<1024xf32>
    %108 = onnx.Constant dense_resource<__elided__> : tensor<128xf32>
    %109 = onnx.Constant dense_resource<__elided__> : tensor<128xf32>
    %110 = onnx.Constant dense_resource<__elided__> : tensor<1024xf32>
    %111 = onnx.Constant dense_resource<__elided__> : tensor<1024xf32>
    %112 = onnx.Constant dense_resource<__elided__> : tensor<128xf32>
    %113 = onnx.Constant dense_resource<__elided__> : tensor<128xf32>
    %114 = onnx.Constant dense_resource<__elided__> : tensor<1024xf32>
    %115 = onnx.Constant dense_resource<__elided__> : tensor<1024xf32>
    %116 = onnx.Constant dense_resource<__elided__> : tensor<128xf32>
    %117 = onnx.Constant dense_resource<__elided__> : tensor<128xf32>
    %118 = onnx.Constant dense_resource<__elided__> : tensor<1024xf32>
    %119 = onnx.Constant dense_resource<__elided__> : tensor<1024xf32>
    %120 = onnx.Constant dense_resource<__elided__> : tensor<128xf32>
    %121 = onnx.Constant dense_resource<__elided__> : tensor<128xf32>
    %122 = onnx.Constant dense_resource<__elided__> : tensor<1024xf32>
    %123 = onnx.Constant dense_resource<__elided__> : tensor<1024xf32>
    %124 = onnx.Constant dense<0.00213311892> : tensor<f32>
    %125 = onnx.Constant dense<149> : tensor<ui8>
    %126 = onnx.Constant dense_resource<__elided__> : tensor<151936x1024xui8>
    %127 = onnx.Constant dense<0.00507504912> : tensor<f32>
    %128 = onnx.Constant dense<0> : tensor<i8>
    %129 = onnx.Constant dense_resource<__elided__> : tensor<1024x2048xi8>
    %130 = onnx.Constant dense<0.00341412402> : tensor<f32>
    %131 = onnx.Constant dense<0> : tensor<i8>
    %132 = onnx.Constant dense_resource<__elided__> : tensor<1024x1024xi8>
    %133 = onnx.Constant dense<0.00136103597> : tensor<f32>
    %134 = onnx.Constant dense<0> : tensor<i8>
    %135 = onnx.Constant dense_resource<__elided__> : tensor<1024x1024xi8>
    %136 = onnx.Constant dense<0.00332185044> : tensor<f32>
    %137 = onnx.Constant dense<0> : tensor<i8>
    %138 = onnx.Constant dense_resource<__elided__> : tensor<2048x1024xi8>
    %139 = onnx.Constant dense<0.00307578733> : tensor<f32>
    %140 = onnx.Constant dense<0> : tensor<i8>
    %141 = onnx.Constant dense_resource<__elided__> : tensor<1024x3072xi8>
    %142 = onnx.Constant dense<0.00295275589> : tensor<f32>
    %143 = onnx.Constant dense<0> : tensor<i8>
    %144 = onnx.Constant dense_resource<__elided__> : tensor<1024x3072xi8>
    %145 = onnx.Constant dense<0.00329109258> : tensor<f32>
    %146 = onnx.Constant dense<0> : tensor<i8>
    %147 = onnx.Constant dense_resource<__elided__> : tensor<3072x1024xi8>
    %148 = onnx.Constant dense<0.00504429126> : tensor<f32>
    %149 = onnx.Constant dense<0> : tensor<i8>
    %150 = onnx.Constant dense_resource<__elided__> : tensor<1024x2048xi8>
    %151 = onnx.Constant dense<0.00281434553> : tensor<f32>
    %152 = onnx.Constant dense<0> : tensor<i8>
    %153 = onnx.Constant dense_resource<__elided__> : tensor<1024x1024xi8>
    %154 = onnx.Constant dense<0.00158403045> : tensor<f32>
    %155 = onnx.Constant dense<0> : tensor<i8>
    %156 = onnx.Constant dense_resource<__elided__> : tensor<1024x1024xi8>
    %157 = onnx.Constant dense<0.00226070383> : tensor<f32>
    %158 = onnx.Constant dense<0> : tensor<i8>
    %159 = onnx.Constant dense_resource<__elided__> : tensor<2048x1024xi8>
    %160 = onnx.Constant dense<0.00342950295> : tensor<f32>
    %161 = onnx.Constant dense<0> : tensor<i8>
    %162 = onnx.Constant dense_resource<__elided__> : tensor<1024x3072xi8>
    %163 = onnx.Constant dense<0.00232221955> : tensor<f32>
    %164 = onnx.Constant dense<0> : tensor<i8>
    %165 = onnx.Constant dense_resource<__elided__> : tensor<1024x3072xi8>
    %166 = onnx.Constant dense<0.00295275589> : tensor<f32>
    %167 = onnx.Constant dense<0> : tensor<i8>
    %168 = onnx.Constant dense_resource<__elided__> : tensor<3072x1024xi8>
    %169 = onnx.Constant dense<0.0040600393> : tensor<f32>
    %170 = onnx.Constant dense<0> : tensor<i8>
    %171 = onnx.Constant dense_resource<__elided__> : tensor<1024x2048xi8>
    %172 = onnx.Constant dense<0.00203001965> : tensor<f32>
    %173 = onnx.Constant dense<0> : tensor<i8>
    %174 = onnx.Constant dense_resource<__elided__> : tensor<1024x1024xi8>
    %175 = onnx.Constant dense<0.00143793062> : tensor<f32>
    %176 = onnx.Constant dense<0> : tensor<i8>
    %177 = onnx.Constant dense_resource<__elided__> : tensor<1024x1024xi8>
    %178 = onnx.Constant dense<2.460630e-03> : tensor<f32>
    %179 = onnx.Constant dense<0> : tensor<i8>
    %180 = onnx.Constant dense_resource<__elided__> : tensor<2048x1024xi8>
    %181 = onnx.Constant dense<0.003198819> : tensor<f32>
    %182 = onnx.Constant dense<0> : tensor<i8>
    %183 = onnx.Constant dense_resource<__elided__> : tensor<1024x3072xi8>
    %184 = onnx.Constant dense<0.00418307073> : tensor<f32>
    %185 = onnx.Constant dense<0> : tensor<i8>
    %186 = onnx.Constant dense_resource<__elided__> : tensor<1024x3072xi8>
    %187 = onnx.Constant dense<0.00458292337> : tensor<f32>
    %188 = onnx.Constant dense<0> : tensor<i8>
    %189 = onnx.Constant dense_resource<__elided__> : tensor<3072x1024xi8>
    %190 = onnx.Constant dense<0.00336798723> : tensor<f32>
    %191 = onnx.Constant dense<0> : tensor<i8>
    %192 = onnx.Constant dense_resource<__elided__> : tensor<1024x2048xi8>
    %193 = onnx.Constant dense<4.336860e-03> : tensor<f32>
    %194 = onnx.Constant dense<0> : tensor<i8>
    %195 = onnx.Constant dense_resource<__elided__> : tensor<1024x1024xi8>
    %196 = onnx.Constant dense<0.00302965054> : tensor<f32>
    %197 = onnx.Constant dense<0> : tensor<i8>
    %198 = onnx.Constant dense_resource<__elided__> : tensor<1024x1024xi8>
    %199 = onnx.Constant dense<0.00227608276> : tensor<f32>
    %200 = onnx.Constant dense<0> : tensor<i8>
    %201 = onnx.Constant dense_resource<__elided__> : tensor<2048x1024xi8>
    %202 = onnx.Constant dense<0.00376783963> : tensor<f32>
    %203 = onnx.Constant dense<0> : tensor<i8>
    %204 = onnx.Constant dense_resource<__elided__> : tensor<1024x3072xi8>
    %205 = onnx.Constant dense<0.0023529774> : tensor<f32>
    %206 = onnx.Constant dense<0> : tensor<i8>
    %207 = onnx.Constant dense_resource<__elided__> : tensor<1024x3072xi8>
    %208 = onnx.Constant dense<0.00309116626> : tensor<f32>
    %209 = onnx.Constant dense<0> : tensor<i8>
    %210 = onnx.Constant dense_resource<__elided__> : tensor<3072x1024xi8>
    %211 = onnx.Constant dense<0.00427534431> : tensor<f32>
    %212 = onnx.Constant dense<0> : tensor<i8>
    %213 = onnx.Constant dense_resource<__elided__> : tensor<1024x2048xi8>
    %214 = onnx.Constant dense<0.00296813482> : tensor<f32>
    %215 = onnx.Constant dense<0> : tensor<i8>
    %216 = onnx.Constant dense_resource<__elided__> : tensor<1024x1024xi8>
    %217 = onnx.Constant dense<0.00160709897> : tensor<f32>
    %218 = onnx.Constant dense<0> : tensor<i8>
    %219 = onnx.Constant dense_resource<__elided__> : tensor<1024x1024xi8>
    %220 = onnx.Constant dense<0.00286048232> : tensor<f32>
    %221 = onnx.Constant dense<0> : tensor<i8>
    %222 = onnx.Constant dense_resource<__elided__> : tensor<2048x1024xi8>
    %223 = onnx.Constant dense<0.00327571365> : tensor<f32>
    %224 = onnx.Constant dense<0> : tensor<i8>
    %225 = onnx.Constant dense_resource<__elided__> : tensor<1024x3072xi8>
    %226 = onnx.Constant dense<0.00209153537> : tensor<f32>
    %227 = onnx.Constant dense<0> : tensor<i8>
    %228 = onnx.Constant dense_resource<__elided__> : tensor<1024x3072xi8>
    %229 = onnx.Constant dense<0.0030604084> : tensor<f32>
    %230 = onnx.Constant dense<0> : tensor<i8>
    %231 = onnx.Constant dense_resource<__elided__> : tensor<3072x1024xi8>
    %232 = onnx.Constant dense<0.0033526083> : tensor<f32>
    %233 = onnx.Constant dense<0> : tensor<i8>
    %234 = onnx.Constant dense_resource<__elided__> : tensor<1024x2048xi8>
    %235 = onnx.Constant dense<3.183440e-03> : tensor<f32>
    %236 = onnx.Constant dense<0> : tensor<i8>
    %237 = onnx.Constant dense_resource<__elided__> : tensor<1024x1024xi8>
    %238 = onnx.Constant dense<0.00163785683> : tensor<f32>
    %239 = onnx.Constant dense<0> : tensor<i8>
    %240 = onnx.Constant dense_resource<__elided__> : tensor<1024x1024xi8>
    %241 = onnx.Constant dense<0.00467519695> : tensor<f32>
    %242 = onnx.Constant dense<0> : tensor<i8>
    %243 = onnx.Constant dense_resource<__elided__> : tensor<2048x1024xi8>
    %244 = onnx.Constant dense<4.490650e-03> : tensor<f32>
    %245 = onnx.Constant dense<0> : tensor<i8>
    %246 = onnx.Constant dense_resource<__elided__> : tensor<1024x3072xi8>
    %247 = onnx.Constant dense<0.00292199804> : tensor<f32>
    %248 = onnx.Constant dense<0> : tensor<i8>
    %249 = onnx.Constant dense_resource<__elided__> : tensor<1024x3072xi8>
    %250 = onnx.Constant dense<0.00326033472> : tensor<f32>
    %251 = onnx.Constant dense<0> : tensor<i8>
    %252 = onnx.Constant dense_resource<__elided__> : tensor<3072x1024xi8>
    %253 = onnx.Constant dense<0.00341412402> : tensor<f32>
    %254 = onnx.Constant dense<0> : tensor<i8>
    %255 = onnx.Constant dense_resource<__elided__> : tensor<1024x2048xi8>
    %256 = onnx.Constant dense<0.00396776572> : tensor<f32>
    %257 = onnx.Constant dense<0> : tensor<i8>
    %258 = onnx.Constant dense_resource<__elided__> : tensor<1024x1024xi8>
    %259 = onnx.Constant dense<0.00129952014> : tensor<f32>
    %260 = onnx.Constant dense<0> : tensor<i8>
    %261 = onnx.Constant dense_resource<__elided__> : tensor<1024x1024xi8>
    %262 = onnx.Constant dense<0.00282972446> : tensor<f32>
    %263 = onnx.Constant dense<0> : tensor<i8>
    %264 = onnx.Constant dense_resource<__elided__> : tensor<2048x1024xi8>
    %265 = onnx.Constant dense<0.00244525098> : tensor<f32>
    %266 = onnx.Constant dense<0> : tensor<i8>
    %267 = onnx.Constant dense_resource<__elided__> : tensor<1024x3072xi8>
    %268 = onnx.Constant dense<0.00221456704> : tensor<f32>
    %269 = onnx.Constant dense<0> : tensor<i8>
    %270 = onnx.Constant dense_resource<__elided__> : tensor<1024x3072xi8>
    %271 = onnx.Constant dense<0.00556717534> : tensor<f32>
    %272 = onnx.Constant dense<0> : tensor<i8>
    %273 = onnx.Constant dense_resource<__elided__> : tensor<3072x1024xi8>
    %274 = onnx.Constant dense<0.00312192412> : tensor<f32>
    %275 = onnx.Constant dense<0> : tensor<i8>
    %276 = onnx.Constant dense_resource<__elided__> : tensor<1024x2048xi8>
    %277 = onnx.Constant dense<0.00213767216> : tensor<f32>
    %278 = onnx.Constant dense<0> : tensor<i8>
    %279 = onnx.Constant dense_resource<__elided__> : tensor<1024x1024xi8>
    %280 = onnx.Constant dense<0.00399852358> : tensor<f32>
    %281 = onnx.Constant dense<0> : tensor<i8>
    %282 = onnx.Constant dense_resource<__elided__> : tensor<1024x1024xi8>
    %283 = onnx.Constant dense<0.00262979814> : tensor<f32>
    %284 = onnx.Constant dense<0> : tensor<i8>
    %285 = onnx.Constant dense_resource<__elided__> : tensor<2048x1024xi8>
    %286 = onnx.Constant dense<0.00259904028> : tensor<f32>
    %287 = onnx.Constant dense<0> : tensor<i8>
    %288 = onnx.Constant dense_resource<__elided__> : tensor<1024x3072xi8>
    %289 = onnx.Constant dense<0.00227608276> : tensor<f32>
    %290 = onnx.Constant dense<0> : tensor<i8>
    %291 = onnx.Constant dense_resource<__elided__> : tensor<1024x3072xi8>
    %292 = onnx.Constant dense<4.490650e-03> : tensor<f32>
    %293 = onnx.Constant dense<0> : tensor<i8>
    %294 = onnx.Constant dense_resource<__elided__> : tensor<3072x1024xi8>
    %295 = onnx.Constant dense<0.00264517707> : tensor<f32>
    %296 = onnx.Constant dense<0> : tensor<i8>
    %297 = onnx.Constant dense_resource<__elided__> : tensor<1024x2048xi8>
    %298 = onnx.Constant dense<0.00529035414> : tensor<f32>
    %299 = onnx.Constant dense<0> : tensor<i8>
    %300 = onnx.Constant dense_resource<__elided__> : tensor<1024x1024xi8>
    %301 = onnx.Constant dense<0.00156865153> : tensor<f32>
    %302 = onnx.Constant dense<0> : tensor<i8>
    %303 = onnx.Constant dense_resource<__elided__> : tensor<1024x1024xi8>
    %304 = onnx.Constant dense<0.00267593493> : tensor<f32>
    %305 = onnx.Constant dense<0> : tensor<i8>
    %306 = onnx.Constant dense_resource<__elided__> : tensor<2048x1024xi8>
    %307 = onnx.Constant dense<0.00648991158> : tensor<f32>
    %308 = onnx.Constant dense<0> : tensor<i8>
    %309 = onnx.Constant dense_resource<__elided__> : tensor<1024x3072xi8>
    %310 = onnx.Constant dense<0.00339874509> : tensor<f32>
    %311 = onnx.Constant dense<0> : tensor<i8>
    %312 = onnx.Constant dense_resource<__elided__> : tensor<1024x3072xi8>
    %313 = onnx.Constant dense<0.00296813482> : tensor<f32>
    %314 = onnx.Constant dense<0> : tensor<i8>
    %315 = onnx.Constant dense_resource<__elided__> : tensor<3072x1024xi8>
    %316 = onnx.Constant dense<0.00281434553> : tensor<f32>
    %317 = onnx.Constant dense<0> : tensor<i8>
    %318 = onnx.Constant dense_resource<__elided__> : tensor<1024x2048xi8>
    %319 = onnx.Constant dense<0.00421382859> : tensor<f32>
    %320 = onnx.Constant dense<0> : tensor<i8>
    %321 = onnx.Constant dense_resource<__elided__> : tensor<1024x1024xi8>
    %322 = onnx.Constant dense<0.00275282981> : tensor<f32>
    %323 = onnx.Constant dense<0> : tensor<i8>
    %324 = onnx.Constant dense_resource<__elided__> : tensor<1024x1024xi8>
    %325 = onnx.Constant dense<0.00276820874> : tensor<f32>
    %326 = onnx.Constant dense<0> : tensor<i8>
    %327 = onnx.Constant dense_resource<__elided__> : tensor<2048x1024xi8>
    %328 = onnx.Constant dense<0.00355253438> : tensor<f32>
    %329 = onnx.Constant dense<0> : tensor<i8>
    %330 = onnx.Constant dense_resource<__elided__> : tensor<1024x3072xi8>
    %331 = onnx.Constant dense<0.00198388286> : tensor<f32>
    %332 = onnx.Constant dense<0> : tensor<i8>
    %333 = onnx.Constant dense_resource<__elided__> : tensor<1024x3072xi8>
    %334 = onnx.Constant dense<3.183440e-03> : tensor<f32>
    %335 = onnx.Constant dense<0> : tensor<i8>
    %336 = onnx.Constant dense_resource<__elided__> : tensor<3072x1024xi8>
    %337 = onnx.Constant dense<0.00273745088> : tensor<f32>
    %338 = onnx.Constant dense<0> : tensor<i8>
    %339 = onnx.Constant dense_resource<__elided__> : tensor<1024x2048xi8>
    %340 = onnx.Constant dense<0.00203001965> : tensor<f32>
    %341 = onnx.Constant dense<0> : tensor<i8>
    %342 = onnx.Constant dense_resource<__elided__> : tensor<1024x1024xi8>
    %343 = onnx.Constant dense<0.0013072096> : tensor<f32>
    %344 = onnx.Constant dense<0> : tensor<i8>
    %345 = onnx.Constant dense_resource<__elided__> : tensor<1024x1024xi8>
    %346 = onnx.Constant dense<0.00253752456> : tensor<f32>
    %347 = onnx.Constant dense<0> : tensor<i8>
    %348 = onnx.Constant dense_resource<__elided__> : tensor<2048x1024xi8>
    %349 = onnx.Constant dense<0.00412155502> : tensor<f32>
    %350 = onnx.Constant dense<0> : tensor<i8>
    %351 = onnx.Constant dense_resource<__elided__> : tensor<1024x3072xi8>
    %352 = onnx.Constant dense<0.00341412402> : tensor<f32>
    %353 = onnx.Constant dense<0> : tensor<i8>
    %354 = onnx.Constant dense_resource<__elided__> : tensor<1024x3072xi8>
    %355 = onnx.Constant dense<0.00304502947> : tensor<f32>
    %356 = onnx.Constant dense<0> : tensor<i8>
    %357 = onnx.Constant dense_resource<__elided__> : tensor<3072x1024xi8>
    %358 = onnx.Constant dense<0.0035063976> : tensor<f32>
    %359 = onnx.Constant dense<0> : tensor<i8>
    %360 = onnx.Constant dense_resource<__elided__> : tensor<1024x2048xi8>
    %361 = onnx.Constant dense<0.00295275589> : tensor<f32>
    %362 = onnx.Constant dense<0> : tensor<i8>
    %363 = onnx.Constant dense_resource<__elided__> : tensor<1024x1024xi8>
    %364 = onnx.Constant dense<0.00169168308> : tensor<f32>
    %365 = onnx.Constant dense<0> : tensor<i8>
    %366 = onnx.Constant dense_resource<__elided__> : tensor<1024x1024xi8>
    %367 = onnx.Constant dense<0.00310654519> : tensor<f32>
    %368 = onnx.Constant dense<0> : tensor<i8>
    %369 = onnx.Constant dense_resource<__elided__> : tensor<2048x1024xi8>
    %370 = onnx.Constant dense<0.00399852358> : tensor<f32>
    %371 = onnx.Constant dense<0> : tensor<i8>
    %372 = onnx.Constant dense_resource<__elided__> : tensor<1024x3072xi8>
    %373 = onnx.Constant dense<0.00229146169> : tensor<f32>
    %374 = onnx.Constant dense<0> : tensor<i8>
    %375 = onnx.Constant dense_resource<__elided__> : tensor<1024x3072xi8>
    %376 = onnx.Constant dense<3.183440e-03> : tensor<f32>
    %377 = onnx.Constant dense<0> : tensor<i8>
    %378 = onnx.Constant dense_resource<__elided__> : tensor<3072x1024xi8>
    %379 = onnx.Constant dense<0.00290661911> : tensor<f32>
    %380 = onnx.Constant dense<0> : tensor<i8>
    %381 = onnx.Constant dense_resource<__elided__> : tensor<1024x2048xi8>
    %382 = onnx.Constant dense<0.00293737696> : tensor<f32>
    %383 = onnx.Constant dense<0> : tensor<i8>
    %384 = onnx.Constant dense_resource<__elided__> : tensor<1024x1024xi8>
    %385 = onnx.Constant dense<0.00123031496> : tensor<f32>
    %386 = onnx.Constant dense<0> : tensor<i8>
    %387 = onnx.Constant dense_resource<__elided__> : tensor<1024x1024xi8>
    %388 = onnx.Constant dense<0.00226070383> : tensor<f32>
    %389 = onnx.Constant dense<0> : tensor<i8>
    %390 = onnx.Constant dense_resource<__elided__> : tensor<2048x1024xi8>
    %391 = onnx.Constant dense<0.0025067667> : tensor<f32>
    %392 = onnx.Constant dense<0> : tensor<i8>
    %393 = onnx.Constant dense_resource<__elided__> : tensor<1024x3072xi8>
    %394 = onnx.Constant dense<0.00227608276> : tensor<f32>
    %395 = onnx.Constant dense<0> : tensor<i8>
    %396 = onnx.Constant dense_resource<__elided__> : tensor<1024x3072xi8>
    %397 = onnx.Constant dense<0.00384473428> : tensor<f32>
    %398 = onnx.Constant dense<0> : tensor<i8>
    %399 = onnx.Constant dense_resource<__elided__> : tensor<3072x1024xi8>
    %400 = onnx.Constant dense<0.00364480796> : tensor<f32>
    %401 = onnx.Constant dense<0> : tensor<i8>
    %402 = onnx.Constant dense_resource<__elided__> : tensor<1024x2048xi8>
    %403 = onnx.Constant dense<0.0023529774> : tensor<f32>
    %404 = onnx.Constant dense<0> : tensor<i8>
    %405 = onnx.Constant dense_resource<__elided__> : tensor<1024x1024xi8>
    %406 = onnx.Constant dense<0.00121493603> : tensor<f32>
    %407 = onnx.Constant dense<0> : tensor<i8>
    %408 = onnx.Constant dense_resource<__elided__> : tensor<1024x1024xi8>
    %409 = onnx.Constant dense<0.00196850393> : tensor<f32>
    %410 = onnx.Constant dense<0> : tensor<i8>
    %411 = onnx.Constant dense_resource<__elided__> : tensor<2048x1024xi8>
    %412 = onnx.Constant dense<0.00402928144> : tensor<f32>
    %413 = onnx.Constant dense<0> : tensor<i8>
    %414 = onnx.Constant dense_resource<__elided__> : tensor<1024x3072xi8>
    %415 = onnx.Constant dense<0.00189929875> : tensor<f32>
    %416 = onnx.Constant dense<0> : tensor<i8>
    %417 = onnx.Constant dense_resource<__elided__> : tensor<1024x3072xi8>
    %418 = onnx.Constant dense<0.00366018689> : tensor<f32>
    %419 = onnx.Constant dense<0> : tensor<i8>
    %420 = onnx.Constant dense_resource<__elided__> : tensor<3072x1024xi8>
    %421 = onnx.Constant dense<0.00273745088> : tensor<f32>
    %422 = onnx.Constant dense<0> : tensor<i8>
    %423 = onnx.Constant dense_resource<__elided__> : tensor<1024x2048xi8>
    %424 = onnx.Constant dense<0.00270669302> : tensor<f32>
    %425 = onnx.Constant dense<0> : tensor<i8>
    %426 = onnx.Constant dense_resource<__elided__> : tensor<1024x1024xi8>
    %427 = onnx.Constant dense<0.0011995571> : tensor<f32>
    %428 = onnx.Constant dense<0> : tensor<i8>
    %429 = onnx.Constant dense_resource<__elided__> : tensor<1024x1024xi8>
    %430 = onnx.Constant dense<0.00219918811> : tensor<f32>
    %431 = onnx.Constant dense<0> : tensor<i8>
    %432 = onnx.Constant dense_resource<__elided__> : tensor<2048x1024xi8>
    %433 = onnx.Constant dense<0.00342950295> : tensor<f32>
    %434 = onnx.Constant dense<0> : tensor<i8>
    %435 = onnx.Constant dense_resource<__elided__> : tensor<1024x3072xi8>
    %436 = onnx.Constant dense<0.00264517707> : tensor<f32>
    %437 = onnx.Constant dense<0> : tensor<i8>
    %438 = onnx.Constant dense_resource<__elided__> : tensor<1024x3072xi8>
    %439 = onnx.Constant dense<0.00273745088> : tensor<f32>
    %440 = onnx.Constant dense<0> : tensor<i8>
    %441 = onnx.Constant dense_resource<__elided__> : tensor<3072x1024xi8>
    %442 = onnx.Constant dense<0.00364480796> : tensor<f32>
    %443 = onnx.Constant dense<0> : tensor<i8>
    %444 = onnx.Constant dense_resource<__elided__> : tensor<1024x2048xi8>
    %445 = onnx.Constant dense<0.00209153537> : tensor<f32>
    %446 = onnx.Constant dense<0> : tensor<i8>
    %447 = onnx.Constant dense_resource<__elided__> : tensor<1024x1024xi8>
    %448 = onnx.Constant dense<0.00198388286> : tensor<f32>
    %449 = onnx.Constant dense<0> : tensor<i8>
    %450 = onnx.Constant dense_resource<__elided__> : tensor<1024x1024xi8>
    %451 = onnx.Constant dense<0.00253752456> : tensor<f32>
    %452 = onnx.Constant dense<0> : tensor<i8>
    %453 = onnx.Constant dense_resource<__elided__> : tensor<2048x1024xi8>
    %454 = onnx.Constant dense<0.00418307073> : tensor<f32>
    %455 = onnx.Constant dense<0> : tensor<i8>
    %456 = onnx.Constant dense_resource<__elided__> : tensor<1024x3072xi8>
    %457 = onnx.Constant dense<0.00253752456> : tensor<f32>
    %458 = onnx.Constant dense<0> : tensor<i8>
    %459 = onnx.Constant dense_resource<__elided__> : tensor<1024x3072xi8>
    %460 = onnx.Constant dense<0.00310654519> : tensor<f32>
    %461 = onnx.Constant dense<0> : tensor<i8>
    %462 = onnx.Constant dense_resource<__elided__> : tensor<3072x1024xi8>
    %463 = onnx.Constant dense<0.00346026081> : tensor<f32>
    %464 = onnx.Constant dense<0> : tensor<i8>
    %465 = onnx.Constant dense_resource<__elided__> : tensor<1024x2048xi8>
    %466 = onnx.Constant dense<0.00652066944> : tensor<f32>
    %467 = onnx.Constant dense<0> : tensor<i8>
    %468 = onnx.Constant dense_resource<__elided__> : tensor<1024x1024xi8>
    %469 = onnx.Constant dense<0.00126876228> : tensor<f32>
    %470 = onnx.Constant dense<0> : tensor<i8>
    %471 = onnx.Constant dense_resource<__elided__> : tensor<1024x1024xi8>
    %472 = onnx.Constant dense<0.00267593493> : tensor<f32>
    %473 = onnx.Constant dense<0> : tensor<i8>
    %474 = onnx.Constant dense_resource<__elided__> : tensor<2048x1024xi8>
    %475 = onnx.Constant dense<3.183440e-03> : tensor<f32>
    %476 = onnx.Constant dense<0> : tensor<i8>
    %477 = onnx.Constant dense_resource<__elided__> : tensor<1024x3072xi8>
    %478 = onnx.Constant dense<3.183440e-03> : tensor<f32>
    %479 = onnx.Constant dense<0> : tensor<i8>
    %480 = onnx.Constant dense_resource<__elided__> : tensor<1024x3072xi8>
    %481 = onnx.Constant dense<0.00376783963> : tensor<f32>
    %482 = onnx.Constant dense<0> : tensor<i8>
    %483 = onnx.Constant dense_resource<__elided__> : tensor<3072x1024xi8>
    %484 = onnx.Constant dense<0.00275282981> : tensor<f32>
    %485 = onnx.Constant dense<0> : tensor<i8>
    %486 = onnx.Constant dense_resource<__elided__> : tensor<1024x2048xi8>
    %487 = onnx.Constant dense<0.00201464072> : tensor<f32>
    %488 = onnx.Constant dense<0> : tensor<i8>
    %489 = onnx.Constant dense_resource<__elided__> : tensor<1024x1024xi8>
    %490 = onnx.Constant dense<0.00154558313> : tensor<f32>
    %491 = onnx.Constant dense<0> : tensor<i8>
    %492 = onnx.Constant dense_resource<__elided__> : tensor<1024x1024xi8>
    %493 = onnx.Constant dense<0.0021069143> : tensor<f32>
    %494 = onnx.Constant dense<0> : tensor<i8>
    %495 = onnx.Constant dense_resource<__elided__> : tensor<2048x1024xi8>
    %496 = onnx.Constant dense<0.00307578733> : tensor<f32>
    %497 = onnx.Constant dense<0> : tensor<i8>
    %498 = onnx.Constant dense_resource<__elided__> : tensor<1024x3072xi8>
    %499 = onnx.Constant dense<0.00232221955> : tensor<f32>
    %500 = onnx.Constant dense<0> : tensor<i8>
    %501 = onnx.Constant dense_resource<__elided__> : tensor<1024x3072xi8>
    %502 = onnx.Constant dense<0.00293737696> : tensor<f32>
    %503 = onnx.Constant dense<0> : tensor<i8>
    %504 = onnx.Constant dense_resource<__elided__> : tensor<3072x1024xi8>
    %505 = onnx.Constant dense<0.00327571365> : tensor<f32>
    %506 = onnx.Constant dense<0> : tensor<i8>
    %507 = onnx.Constant dense_resource<__elided__> : tensor<1024x2048xi8>
    %508 = onnx.Constant dense<0.00312192412> : tensor<f32>
    %509 = onnx.Constant dense<0> : tensor<i8>
    %510 = onnx.Constant dense_resource<__elided__> : tensor<1024x1024xi8>
    %511 = onnx.Constant dense<0.0013764149> : tensor<f32>
    %512 = onnx.Constant dense<0> : tensor<i8>
    %513 = onnx.Constant dense_resource<__elided__> : tensor<1024x1024xi8>
    %514 = onnx.Constant dense<0.00199926179> : tensor<f32>
    %515 = onnx.Constant dense<0> : tensor<i8>
    %516 = onnx.Constant dense_resource<__elided__> : tensor<2048x1024xi8>
    %517 = onnx.Constant dense<0.00473671267> : tensor<f32>
    %518 = onnx.Constant dense<0> : tensor<i8>
    %519 = onnx.Constant dense_resource<__elided__> : tensor<1024x3072xi8>
    %520 = onnx.Constant dense<0.00252214563> : tensor<f32>
    %521 = onnx.Constant dense<0> : tensor<i8>
    %522 = onnx.Constant dense_resource<__elided__> : tensor<1024x3072xi8>
    %523 = onnx.Constant dense<0.00356791331> : tensor<f32>
    %524 = onnx.Constant dense<0> : tensor<i8>
    %525 = onnx.Constant dense_resource<__elided__> : tensor<3072x1024xi8>
    %526 = onnx.Constant dense<3.183440e-03> : tensor<f32>
    %527 = onnx.Constant dense<0> : tensor<i8>
    %528 = onnx.Constant dense_resource<__elided__> : tensor<1024x2048xi8>
    %529 = onnx.Constant dense<0.00324495579> : tensor<f32>
    %530 = onnx.Constant dense<0> : tensor<i8>
    %531 = onnx.Constant dense_resource<__elided__> : tensor<1024x1024xi8>
    %532 = onnx.Constant dense<0.0015994095> : tensor<f32>
    %533 = onnx.Constant dense<0> : tensor<i8>
    %534 = onnx.Constant dense_resource<__elided__> : tensor<1024x1024xi8>
    %535 = onnx.Constant dense<0.0022453249> : tensor<f32>
    %536 = onnx.Constant dense<0> : tensor<i8>
    %537 = onnx.Constant dense_resource<__elided__> : tensor<2048x1024xi8>
    %538 = onnx.Constant dense<0.00342950295> : tensor<f32>
    %539 = onnx.Constant dense<0> : tensor<i8>
    %540 = onnx.Constant dense_resource<__elided__> : tensor<1024x3072xi8>
    %541 = onnx.Constant dense<0.00473671267> : tensor<f32>
    %542 = onnx.Constant dense<0> : tensor<i8>
    %543 = onnx.Constant dense_resource<__elided__> : tensor<1024x3072xi8>
    %544 = onnx.Constant dense<0.0033526083> : tensor<f32>
    %545 = onnx.Constant dense<0> : tensor<i8>
    %546 = onnx.Constant dense_resource<__elided__> : tensor<3072x1024xi8>
    %547 = onnx.Constant dense<0.00346026081> : tensor<f32>
    %548 = onnx.Constant dense<0> : tensor<i8>
    %549 = onnx.Constant dense_resource<__elided__> : tensor<1024x2048xi8>
    %550 = onnx.Constant dense<0.0025067667> : tensor<f32>
    %551 = onnx.Constant dense<0> : tensor<i8>
    %552 = onnx.Constant dense_resource<__elided__> : tensor<1024x1024xi8>
    %553 = onnx.Constant dense<0.00212229323> : tensor<f32>
    %554 = onnx.Constant dense<0> : tensor<i8>
    %555 = onnx.Constant dense_resource<__elided__> : tensor<1024x1024xi8>
    %556 = onnx.Constant dense<0.00281434553> : tensor<f32>
    %557 = onnx.Constant dense<0> : tensor<i8>
    %558 = onnx.Constant dense_resource<__elided__> : tensor<2048x1024xi8>
    %559 = onnx.Constant dense<0.00470595481> : tensor<f32>
    %560 = onnx.Constant dense<0> : tensor<i8>
    %561 = onnx.Constant dense_resource<__elided__> : tensor<1024x3072xi8>
    %562 = onnx.Constant dense<0.00379859749> : tensor<f32>
    %563 = onnx.Constant dense<0> : tensor<i8>
    %564 = onnx.Constant dense_resource<__elided__> : tensor<1024x3072xi8>
    %565 = onnx.Constant dense<0.00421382859> : tensor<f32>
    %566 = onnx.Constant dense<0> : tensor<i8>
    %567 = onnx.Constant dense_resource<__elided__> : tensor<3072x1024xi8>
    %568 = onnx.Constant dense<0.00316806091> : tensor<f32>
    %569 = onnx.Constant dense<0> : tensor<i8>
    %570 = onnx.Constant dense_resource<__elided__> : tensor<1024x2048xi8>
    %571 = onnx.Constant dense<0.00495201768> : tensor<f32>
    %572 = onnx.Constant dense<0> : tensor<i8>
    %573 = onnx.Constant dense_resource<__elided__> : tensor<1024x1024xi8>
    %574 = onnx.Constant dense<0.00203001965> : tensor<f32>
    %575 = onnx.Constant dense<0> : tensor<i8>
    %576 = onnx.Constant dense_resource<__elided__> : tensor<1024x1024xi8>
    %577 = onnx.Constant dense<0.00239911419> : tensor<f32>
    %578 = onnx.Constant dense<0> : tensor<i8>
    %579 = onnx.Constant dense_resource<__elided__> : tensor<2048x1024xi8>
    %580 = onnx.Constant dense<0.00485974411> : tensor<f32>
    %581 = onnx.Constant dense<0> : tensor<i8>
    %582 = onnx.Constant dense_resource<__elided__> : tensor<1024x3072xi8>
    %583 = onnx.Constant dense<4.921260e-03> : tensor<f32>
    %584 = onnx.Constant dense<0> : tensor<i8>
    %585 = onnx.Constant dense_resource<__elided__> : tensor<1024x3072xi8>
    %586 = onnx.Constant dense<0.00473671267> : tensor<f32>
    %587 = onnx.Constant dense<0> : tensor<i8>
    %588 = onnx.Constant dense_resource<__elided__> : tensor<3072x1024xi8>
    %589 = onnx.Constant dense<0.00270669302> : tensor<f32>
    %590 = onnx.Constant dense<0> : tensor<i8>
    %591 = onnx.Constant dense_resource<__elided__> : tensor<1024x2048xi8>
    %592 = onnx.Constant dense<0.00232221955> : tensor<f32>
    %593 = onnx.Constant dense<0> : tensor<i8>
    %594 = onnx.Constant dense_resource<__elided__> : tensor<1024x1024xi8>
    %595 = onnx.Constant dense<0.00191467768> : tensor<f32>
    %596 = onnx.Constant dense<0> : tensor<i8>
    %597 = onnx.Constant dense_resource<__elided__> : tensor<1024x1024xi8>
    %598 = onnx.Constant dense<0.00256828242> : tensor<f32>
    %599 = onnx.Constant dense<0> : tensor<i8>
    %600 = onnx.Constant dense_resource<__elided__> : tensor<2048x1024xi8>
    %601 = onnx.Constant dense<5.351870e-03> : tensor<f32>
    %602 = onnx.Constant dense<0> : tensor<i8>
    %603 = onnx.Constant dense_resource<__elided__> : tensor<1024x3072xi8>
    %604 = onnx.Constant dense<4.921260e-03> : tensor<f32>
    %605 = onnx.Constant dense<0> : tensor<i8>
    %606 = onnx.Constant dense_resource<__elided__> : tensor<1024x3072xi8>
    %607 = onnx.Constant dense<0.0050135334> : tensor<f32>
    %608 = onnx.Constant dense<0> : tensor<i8>
    %609 = onnx.Constant dense_resource<__elided__> : tensor<3072x1024xi8>
    %610 = onnx.Constant dense<0.00301427161> : tensor<f32>
    %611 = onnx.Constant dense<0> : tensor<i8>
    %612 = onnx.Constant dense_resource<__elided__> : tensor<1024x2048xi8>
    %613 = onnx.Constant dense<0.00221456704> : tensor<f32>
    %614 = onnx.Constant dense<0> : tensor<i8>
    %615 = onnx.Constant dense_resource<__elided__> : tensor<1024x1024xi8>
    %616 = onnx.Constant dense<0.00233759847> : tensor<f32>
    %617 = onnx.Constant dense<0> : tensor<i8>
    %618 = onnx.Constant dense_resource<__elided__> : tensor<1024x1024xi8>
    %619 = onnx.Constant dense<2.168430e-03> : tensor<f32>
    %620 = onnx.Constant dense<0> : tensor<i8>
    %621 = onnx.Constant dense_resource<__elided__> : tensor<2048x1024xi8>
    %622 = onnx.Constant dense<0.00396776572> : tensor<f32>
    %623 = onnx.Constant dense<0> : tensor<i8>
    %624 = onnx.Constant dense_resource<__elided__> : tensor<1024x3072xi8>
    %625 = onnx.Constant dense<0.00569020677> : tensor<f32>
    %626 = onnx.Constant dense<0> : tensor<i8>
    %627 = onnx.Constant dense_resource<__elided__> : tensor<1024x3072xi8>
    %628 = onnx.Constant dense<0.00556717534> : tensor<f32>
    %629 = onnx.Constant dense<0> : tensor<i8>
    %630 = onnx.Constant dense_resource<__elided__> : tensor<3072x1024xi8>
    %631 = onnx.Constant dense<0.00346026081> : tensor<f32>
    %632 = onnx.Constant dense<0> : tensor<i8>
    %633 = onnx.Constant dense_resource<__elided__> : tensor<1024x2048xi8>
    %634 = onnx.Constant dense<0.00193005661> : tensor<f32>
    %635 = onnx.Constant dense<0> : tensor<i8>
    %636 = onnx.Constant dense_resource<__elided__> : tensor<1024x1024xi8>
    %637 = onnx.Constant dense<0.0015994095> : tensor<f32>
    %638 = onnx.Constant dense<0> : tensor<i8>
    %639 = onnx.Constant dense_resource<__elided__> : tensor<1024x1024xi8>
    %640 = onnx.Constant dense<0.00196850393> : tensor<f32>
    %641 = onnx.Constant dense<0> : tensor<i8>
    %642 = onnx.Constant dense_resource<__elided__> : tensor<2048x1024xi8>
    %643 = onnx.Constant dense<0.00479822839> : tensor<f32>
    %644 = onnx.Constant dense<0> : tensor<i8>
    %645 = onnx.Constant dense_resource<__elided__> : tensor<1024x3072xi8>
    %646 = onnx.Constant dense<3.614050e-03> : tensor<f32>
    %647 = onnx.Constant dense<0> : tensor<i8>
    %648 = onnx.Constant dense_resource<__elided__> : tensor<1024x3072xi8>
    %649 = onnx.Constant dense<0.00381397642> : tensor<f32>
    %650 = onnx.Constant dense<0> : tensor<i8>
    %651 = onnx.Constant dense_resource<__elided__> : tensor<3072x1024xi8>
    %652 = onnx.Constant dense<0.00310654519> : tensor<f32>
    %653 = onnx.Constant dense<0> : tensor<i8>
    %654 = onnx.Constant dense_resource<__elided__> : tensor<1024x2048xi8>
    %655 = onnx.Constant dense<1.591720e-03> : tensor<f32>
    %656 = onnx.Constant dense<0> : tensor<i8>
    %657 = onnx.Constant dense_resource<__elided__> : tensor<1024x1024xi8>
    %658 = onnx.Constant dense<0.0017301304> : tensor<f32>
    %659 = onnx.Constant dense<0> : tensor<i8>
    %660 = onnx.Constant dense_resource<__elided__> : tensor<1024x1024xi8>
    %661 = onnx.Constant dense<0.00186854089> : tensor<f32>
    %662 = onnx.Constant dense<0> : tensor<i8>
    %663 = onnx.Constant dense_resource<__elided__> : tensor<2048x1024xi8>
    %664 = onnx.Constant dense<0.00399852358> : tensor<f32>
    %665 = onnx.Constant dense<0> : tensor<i8>
    %666 = onnx.Constant dense_resource<__elided__> : tensor<1024x3072xi8>
    %667 = onnx.Constant dense<5.351870e-03> : tensor<f32>
    %668 = onnx.Constant dense<0> : tensor<i8>
    %669 = onnx.Constant dense_resource<__elided__> : tensor<1024x3072xi8>
    %670 = onnx.Constant dense<0.00479822839> : tensor<f32>
    %671 = onnx.Constant dense<0> : tensor<i8>
    %672 = onnx.Constant dense_resource<__elided__> : tensor<3072x1024xi8>
    %673 = onnx.Constant dense<0.00270669302> : tensor<f32>
    %674 = onnx.Constant dense<0> : tensor<i8>
    %675 = onnx.Constant dense_resource<__elided__> : tensor<1024x2048xi8>
    %676 = onnx.Constant dense<0.00187623035> : tensor<f32>
    %677 = onnx.Constant dense<0> : tensor<i8>
    %678 = onnx.Constant dense_resource<__elided__> : tensor<1024x1024xi8>
    %679 = onnx.Constant dense<0.00150713581> : tensor<f32>
    %680 = onnx.Constant dense<0> : tensor<i8>
    %681 = onnx.Constant dense_resource<__elided__> : tensor<1024x1024xi8>
    %682 = onnx.Constant dense<0.00312192412> : tensor<f32>
    %683 = onnx.Constant dense<0> : tensor<i8>
    %684 = onnx.Constant dense_resource<__elided__> : tensor<2048x1024xi8>
    %685 = onnx.Constant dense<0.00836614146> : tensor<f32>
    %686 = onnx.Constant dense<0> : tensor<i8>
    %687 = onnx.Constant dense_resource<__elided__> : tensor<1024x3072xi8>
    %688 = onnx.Constant dense<8.673720e-03> : tensor<f32>
    %689 = onnx.Constant dense<0> : tensor<i8>
    %690 = onnx.Constant dense_resource<__elided__> : tensor<1024x3072xi8>
    %691 = onnx.Constant dense<0.00504429126> : tensor<f32>
    %692 = onnx.Constant dense<0> : tensor<i8>
    %693 = onnx.Constant dense_resource<__elided__> : tensor<3072x1024xi8>
    %694 = onnx.Constant dense<0.00336798723> : tensor<f32>
    %695 = onnx.Constant dense<0> : tensor<i8>
    %696 = onnx.Constant dense_resource<__elided__> : tensor<1024x2048xi8>
    %697 = onnx.Constant dense<0.00538262818> : tensor<f32>
    %698 = onnx.Constant dense<0> : tensor<i8>
    %699 = onnx.Constant dense_resource<__elided__> : tensor<1024x1024xi8>
    %700 = onnx.Constant dense<0.00206077751> : tensor<f32>
    %701 = onnx.Constant dense<0> : tensor<i8>
    %702 = onnx.Constant dense_resource<__elided__> : tensor<1024x1024xi8>
    %703 = onnx.Constant dense<0.00239911419> : tensor<f32>
    %704 = onnx.Constant dense<0> : tensor<i8>
    %705 = onnx.Constant dense_resource<__elided__> : tensor<2048x1024xi8>
    %706 = onnx.Constant dense<0.00910433102> : tensor<f32>
    %707 = onnx.Constant dense<0> : tensor<i8>
    %708 = onnx.Constant dense_resource<__elided__> : tensor<1024x3072xi8>
    %709 = onnx.Constant dense<0.00971948821> : tensor<f32>
    %710 = onnx.Constant dense<0> : tensor<i8>
    %711 = onnx.Constant dense_resource<__elided__> : tensor<1024x3072xi8>
    %712 = onnx.Constant dense<0.00436761789> : tensor<f32>
    %713 = onnx.Constant dense<0> : tensor<i8>
    %714 = onnx.Constant dense_resource<__elided__> : tensor<3072x1024xi8>
    %715 = "onnx.Dim"(%arg0) {axis = 1 : si64, onnx_node_name = "/model/pos_ids_reformat/Shape_1"} : (tensor<?x?xi64>) -> tensor<1xi64>
    %716 = "onnx.Dim"(%arg1) {axis = 1 : si64, onnx_node_name = "/model/attn_mask_reformat/attn_mask_subgraph/Shape_2"} : (tensor<?x?xi64>) -> tensor<1xi64>
    %717 = "onnx.Gather"(%126, %arg0) {axis = 0 : si64, onnx_node_name = "/model/embed_tokens/Gather"} : (tensor<151936x1024xui8>, tensor<?x?xi64>) -> tensor<?x?x1024xui8>
    %718 = "onnx.ReduceSum"(%arg1, %7) {keepdims = 1 : si64, noop_with_empty_axes = 0 : si64, onnx_node_name = "/model/attn_mask_reformat/attn_mask_subgraph/ReduceSum"} : (tensor<?x?xi64>, tensor<1xi64>) -> tensor<?x1xi64>
    %719 = "onnx.Squeeze"(%716, %0) {onnx_node_name = "/model/attn_mask_reformat/attn_mask_subgraph/Gather_3"} : (tensor<1xi64>, tensor<1xi64>) -> tensor<i64>
    %720 = "onnx.DequantizeLinear"(%717, %124, %125) {axis = 1 : si64, onnx_node_name = "/model/embed_tokens/Gather/output_0_DequantizeLinear"} : (tensor<?x?x1024xui8>, tensor<f32>, tensor<ui8>) -> tensor<?x?x1024xf32>
    %721 = "onnx.Custom"(%720, %9) {axis = -1 : si64, domain_name = "", epsilon = 9.99999997E-7 : f32, function_name = "SimplifiedLayerNormalization", onnx_node_name = "/model/layers.0/input_layernorm/LayerNorm", stash_type = 1 : si64} : (tensor<?x?x1024xf32>, tensor<1024xf32>) -> tensor<?x?x1024xf32>
    %722 = "onnx.Add"(%718, %1) {onnx_node_name = "/model/attn_mask_reformat/attn_mask_subgraph/Sub-/model/constant_nodes/TensorProto.INT64/1D/1_4"} : (tensor<?x1xi64>, tensor<1xi64>) -> tensor<?x1xi64>
    %723 = "onnx.Cast"(%719) {onnx_node_name = "/model/attn_mask_reformat/attn_mask_subgraph/Gather/Cast", saturate = 1 : si64, to = i32} : (tensor<i64>) -> tensor<i32>
    %y, %y_scale, %y_zero_point = "onnx.DynamicQuantizeLinear"(%721) {onnx_node_name = "/model/layers.0/input_layernorm/output_0_QuantizeLinear"} : (tensor<?x?x1024xf32>) -> (tensor<?x?x1024xui8>, tensor<f32>, tensor<ui8>)
    %724 = "onnx.MatMulInteger"(%y, %129, %y_zero_point, %128) {onnx_node_name = "/model/layers.0/attn/q_proj/MatMul_quant"} : (tensor<?x?x1024xui8>, tensor<1024x2048xi8>, tensor<ui8>, tensor<i8>) -> tensor<?x?x2048xi32>
    %725 = "onnx.Cast"(%724) {onnx_node_name = "/model/layers.0/attn/q_proj/MatMul/output_0_output_quantized_cast", saturate = 1 : si64, to = f32} : (tensor<?x?x2048xi32>) -> tensor<?x?x2048xf32>
    %726 = "onnx.Mul"(%y_scale, %127) {onnx_node_name = "/model/layers.0/attn/q_proj/MatMul_quant_scales_mul"} : (tensor<f32>, tensor<f32>) -> tensor<f32>
    %727 = "onnx.Mul"(%725, %726) {onnx_node_name = "/model/layers.0/attn/q_proj/MatMul_quant_output_scale_mul"} : (tensor<?x?x2048xf32>, tensor<f32>) -> tensor<?x?x2048xf32>
    %728 = "onnx.MatMulInteger"(%y, %132, %y_zero_point, %131) {onnx_node_name = "/model/layers.0/attn/k_proj/MatMul_quant"} : (tensor<?x?x1024xui8>, tensor<1024x1024xi8>, tensor<ui8>, tensor<i8>) -> tensor<?x?x1024xi32>
    %729 = "onnx.Cast"(%728) {onnx_node_name = "/model/layers.0/attn/k_proj/MatMul/output_0_output_quantized_cast", saturate = 1 : si64, to = f32} : (tensor<?x?x1024xi32>) -> tensor<?x?x1024xf32>
    %730 = "onnx.Mul"(%y_scale, %130) {onnx_node_name = "/model/layers.0/attn/k_proj/MatMul_quant_scales_mul"} : (tensor<f32>, tensor<f32>) -> tensor<f32>
    %731 = "onnx.Mul"(%729, %730) {onnx_node_name = "/model/layers.0/attn/k_proj/MatMul_quant_output_scale_mul"} : (tensor<?x?x1024xf32>, tensor<f32>) -> tensor<?x?x1024xf32>
    %732 = "onnx.MatMulInteger"(%y, %135, %y_zero_point, %134) {onnx_node_name = "/model/layers.0/attn/v_proj/MatMul_quant"} : (tensor<?x?x1024xui8>, tensor<1024x1024xi8>, tensor<ui8>, tensor<i8>) -> tensor<?x?x1024xi32>
    %733 = "onnx.Cast"(%732) {onnx_node_name = "/model/layers.0/attn/v_proj/MatMul/output_0_output_quantized_cast", saturate = 1 : si64, to = f32} : (tensor<?x?x1024xi32>) -> tensor<?x?x1024xf32>
    %734 = "onnx.Mul"(%y_scale, %133) {onnx_node_name = "/model/layers.0/attn/v_proj/MatMul_quant_scales_mul"} : (tensor<f32>, tensor<f32>) -> tensor<f32>
    %735 = "onnx.Mul"(%733, %734) {onnx_node_name = "/model/layers.0/attn/v_proj/MatMul_quant_output_scale_mul"} : (tensor<?x?x1024xf32>, tensor<f32>) -> tensor<?x?x1024xf32>
    %736 = "onnx.Concat"(%8, %715) {axis = 0 : si64, onnx_node_name = "/model/pos_ids_reformat/Concat"} : (tensor<1xi64>, tensor<1xi64>) -> tensor<2xi64>
    %737 = "onnx.Cast"(%722) {onnx_node_name = "/model/attn_mask_reformat/attn_mask_subgraph/Sub/Cast", saturate = 1 : si64, to = i32} : (tensor<?x1xi64>) -> tensor<?x1xi32>
    %738 = "onnx.Reshape"(%727, %6) {allowzero = 0 : si64, onnx_node_name = "/model/layers.0/attn/q_norm/Reshape_1"} : (tensor<?x?x2048xf32>, tensor<3xi64>) -> tensor<?x?x128xf32>
    %739 = "onnx.Reshape"(%731, %6) {allowzero = 0 : si64, onnx_node_name = "/model/layers.0/attn/k_norm/Reshape_1"} : (tensor<?x?x1024xf32>, tensor<3xi64>) -> tensor<?x?x128xf32>
    %740 = "onnx.Reshape"(%arg2, %736) {allowzero = 0 : si64, onnx_node_name = "/model/pos_ids_reformat/Reshape"} : (tensor<?x?xi64>, tensor<2xi64>) -> tensor<?x?xi64>
    %741 = "onnx.Custom"(%738, %10) {axis = -1 : si64, domain_name = "", epsilon = 9.99999997E-7 : f32, function_name = "SimplifiedLayerNormalization", onnx_node_name = "/model/layers.0/attn/q_norm/SimplifiedLayerNormalization", stash_type = 1 : si64} : (tensor<?x?x128xf32>, tensor<128xf32>) -> tensor<?x?x128xf32>
    %742 = "onnx.Custom"(%739, %11) {axis = -1 : si64, domain_name = "", epsilon = 9.99999997E-7 : f32, function_name = "SimplifiedLayerNormalization", onnx_node_name = "/model/layers.0/attn/k_norm/SimplifiedLayerNormalization", stash_type = 1 : si64} : (tensor<?x?x128xf32>, tensor<128xf32>) -> tensor<?x?x128xf32>
    %743 = "onnx.Reshape"(%741, %5) {allowzero = 0 : si64, onnx_node_name = "/model/layers.0/attn/q_norm/Reshape_2"} : (tensor<?x?x128xf32>, tensor<3xi64>) -> tensor<?x?x2048xf32>
    %744 = "onnx.Reshape"(%742, %4) {allowzero = 0 : si64, onnx_node_name = "/model/layers.0/attn/k_norm/Reshape_2"} : (tensor<?x?x128xf32>, tensor<3xi64>) -> tensor<?x?x1024xf32>
    %745 = "onnx.Custom"(%743, %740, %12, %13) {domain_name = "com.microsoft", function_name = "RotaryEmbedding", interleaved = 0 : si64, num_heads = 0 : si64, onnx_node_name = "/model/layers.0/attn/q_rotary/RotaryEmbedding", rotary_embedding_dim = 0 : si64} : (tensor<?x?x2048xf32>, tensor<?x?xi64>, tensor<40960x64xf32>, tensor<40960x64xf32>) -> tensor<?x?x2048xf32>
    %746 = "onnx.Custom"(%744, %740, %12, %13) {domain_name = "com.microsoft", function_name = "RotaryEmbedding", interleaved = 0 : si64, num_heads = 0 : si64, onnx_node_name = "/model/layers.0/attn/k_rotary/RotaryEmbedding", rotary_embedding_dim = 0 : si64} : (tensor<?x?x1024xf32>, tensor<?x?xi64>, tensor<40960x64xf32>, tensor<40960x64xf32>) -> tensor<?x?x1024xf32>
    %747:3 = "onnx.Custom"(%745, %746, %735, %arg3, %arg4, %737, %723, %3, %3) {do_rotary = 0 : si64, domain_name = "com.microsoft", function_name = "GroupQueryAttention", kv_num_heads = 8 : si64, num_heads = 16 : si64, onnx_node_name = "/model/layers.0/attn/GroupQueryAttention", rotary_interleaved = 0 : si64, scale = 0.0883883461 : f32, softcap = 0.000000e+00 : f32} : (tensor<?x?x2048xf32>, tensor<?x?x1024xf32>, tensor<?x?x1024xf32>, tensor<?x8x?x128xf32>, tensor<?x8x?x128xf32>, tensor<?x1xi32>, tensor<i32>, none, none) -> (tensor<?x?x2048xf32>, tensor<?x8x?x128xf32>, tensor<?x8x?x128xf32>)
    %y_0, %y_scale_1, %y_zero_point_2 = "onnx.DynamicQuantizeLinear"(%747#0) {onnx_node_name = "/model/layers.0/attn/GroupQueryAttention/output_0_QuantizeLinear"} : (tensor<?x?x2048xf32>) -> (tensor<?x?x2048xui8>, tensor<f32>, tensor<ui8>)
    %748 = "onnx.MatMulInteger"(%y_0, %138, %y_zero_point_2, %137) {onnx_node_name = "/model/layers.0/attn/o_proj/MatMul_quant"} : (tensor<?x?x2048xui8>, tensor<2048x1024xi8>, tensor<ui8>, tensor<i8>) -> tensor<?x?x1024xi32>
    %749 = "onnx.Cast"(%748) {onnx_node_name = "/model/layers.0/attn/o_proj/MatMul/output_0_output_quantized_cast", saturate = 1 : si64, to = f32} : (tensor<?x?x1024xi32>) -> tensor<?x?x1024xf32>
    %750 = "onnx.Mul"(%y_scale_1, %136) {onnx_node_name = "/model/layers.0/attn/o_proj/MatMul_quant_scales_mul"} : (tensor<f32>, tensor<f32>) -> tensor<f32>
    %751 = "onnx.Mul"(%749, %750) {onnx_node_name = "/model/layers.0/attn/o_proj/MatMul_quant_output_scale_mul"} : (tensor<?x?x1024xf32>, tensor<f32>) -> tensor<?x?x1024xf32>
    %752:4 = "onnx.Custom"(%720, %751, %14) {domain_name = "com.microsoft", epsilon = 9.99999997E-7 : f32, function_name = "SkipSimplifiedLayerNormalization", onnx_node_name = "/model/layers.0/post_attention_layernorm/SkipLayerNorm"} : (tensor<?x?x1024xf32>, tensor<?x?x1024xf32>, tensor<1024xf32>) -> (tensor<?x?x1024xf32>, none, none, tensor<?x?x1024xf32>)
    %y_3, %y_scale_4, %y_zero_point_5 = "onnx.DynamicQuantizeLinear"(%752#0) {onnx_node_name = "/model/layers.0/post_attention_layernorm/output_0_QuantizeLinear"} : (tensor<?x?x1024xf32>) -> (tensor<?x?x1024xui8>, tensor<f32>, tensor<ui8>)
    %753 = "onnx.MatMulInteger"(%y_3, %141, %y_zero_point_5, %140) {onnx_node_name = "/model/layers.0/mlp/gate_proj/MatMul_quant"} : (tensor<?x?x1024xui8>, tensor<1024x3072xi8>, tensor<ui8>, tensor<i8>) -> tensor<?x?x3072xi32>
    %754 = "onnx.Cast"(%753) {onnx_node_name = "/model/layers.0/mlp/gate_proj/MatMul/output_0_output_quantized_cast", saturate = 1 : si64, to = f32} : (tensor<?x?x3072xi32>) -> tensor<?x?x3072xf32>
    %755 = "onnx.Mul"(%y_scale_4, %139) {onnx_node_name = "/model/layers.0/mlp/gate_proj/MatMul_quant_scales_mul"} : (tensor<f32>, tensor<f32>) -> tensor<f32>
    %756 = "onnx.Mul"(%754, %755) {onnx_node_name = "/model/layers.0/mlp/gate_proj/MatMul_quant_output_scale_mul"} : (tensor<?x?x3072xf32>, tensor<f32>) -> tensor<?x?x3072xf32>
    %757 = "onnx.MatMulInteger"(%y_3, %144, %y_zero_point_5, %143) {onnx_node_name = "/model/layers.0/mlp/up_proj/MatMul_quant"} : (tensor<?x?x1024xui8>, tensor<1024x3072xi8>, tensor<ui8>, tensor<i8>) -> tensor<?x?x3072xi32>
    %758 = "onnx.Cast"(%757) {onnx_node_name = "/model/layers.0/mlp/up_proj/MatMul/output_0_output_quantized_cast", saturate = 1 : si64, to = f32} : (tensor<?x?x3072xi32>) -> tensor<?x?x3072xf32>
    %759 = "onnx.Mul"(%y_scale_4, %142) {onnx_node_name = "/model/layers.0/mlp/up_proj/MatMul_quant_scales_mul"} : (tensor<f32>, tensor<f32>) -> tensor<f32>
    %760 = "onnx.Mul"(%758, %759) {onnx_node_name = "/model/layers.0/mlp/up_proj/MatMul_quant_output_scale_mul"} : (tensor<?x?x3072xf32>, tensor<f32>) -> tensor<?x?x3072xf32>
    %761 = "onnx.Sigmoid"(%756) {onnx_node_name = "/model/layers.0/mlp/act_fn/Sigmoid"} : (tensor<?x?x3072xf32>) -> tensor<?x?x3072xf32>
    %762 = "onnx.Mul"(%756, %761) {onnx_node_name = "/model/layers.0/mlp/act_fn/Mul"} : (tensor<?x?x3072xf32>, tensor<?x?x3072xf32>) -> tensor<?x?x3072xf32>
    %763 = "onnx.Mul"(%762, %760) {onnx_node_name = "/model/layers.0/mlp/Mul"} : (tensor<?x?x3072xf32>, tensor<?x?x3072xf32>) -> tensor<?x?x3072xf32>
    %y_6, %y_scale_7, %y_zero_point_8 = "onnx.DynamicQuantizeLinear"(%763) {onnx_node_name = "/model/layers.0/mlp/Mul/output_0_QuantizeLinear"} : (tensor<?x?x3072xf32>) -> (tensor<?x?x3072xui8>, tensor<f32>, tensor<ui8>)
    %764 = "onnx.MatMulInteger"(%y_6, %147, %y_zero_point_8, %146) {onnx_node_name = "/model/layers.0/mlp/down_proj/MatMul_quant"} : (tensor<?x?x3072xui8>, tensor<3072x1024xi8>, tensor<ui8>, tensor<i8>) -> tensor<?x?x1024xi32>
    %765 = "onnx.Cast"(%764) {onnx_node_name = "/model/layers.0/mlp/down_proj/MatMul/output_0_output_quantized_cast", saturate = 1 : si64, to = f32} : (tensor<?x?x1024xi32>) -> tensor<?x?x1024xf32>
    %766 = "onnx.Mul"(%y_scale_7, %145) {onnx_node_name = "/model/layers.0/mlp/down_proj/MatMul_quant_scales_mul"} : (tensor<f32>, tensor<f32>) -> tensor<f32>
    %767 = "onnx.Mul"(%765, %766) {onnx_node_name = "/model/layers.0/mlp/down_proj/MatMul_quant_output_scale_mul"} : (tensor<?x?x1024xf32>, tensor<f32>) -> tensor<?x?x1024xf32>
    %768:4 = "onnx.Custom"(%752#3, %767, %15) {domain_name = "com.microsoft", epsilon = 9.99999997E-7 : f32, function_name = "SkipSimplifiedLayerNormalization", onnx_node_name = "/model/layers.1/input_layernorm/SkipLayerNorm"} : (tensor<?x?x1024xf32>, tensor<?x?x1024xf32>, tensor<1024xf32>) -> (tensor<?x?x1024xf32>, none, none, tensor<?x?x1024xf32>)
    %y_9, %y_scale_10, %y_zero_point_11 = "onnx.DynamicQuantizeLinear"(%768#0) {onnx_node_name = "/model/layers.1/input_layernorm/output_0_QuantizeLinear"} : (tensor<?x?x1024xf32>) -> (tensor<?x?x1024xui8>, tensor<f32>, tensor<ui8>)
    %769 = "onnx.MatMulInteger"(%y_9, %150, %y_zero_point_11, %149) {onnx_node_name = "/model/layers.1/attn/q_proj/MatMul_quant"} : (tensor<?x?x1024xui8>, tensor<1024x2048xi8>, tensor<ui8>, tensor<i8>) -> tensor<?x?x2048xi32>
    %770 = "onnx.Cast"(%769) {onnx_node_name = "/model/layers.1/attn/q_proj/MatMul/output_0_output_quantized_cast", saturate = 1 : si64, to = f32} : (tensor<?x?x2048xi32>) -> tensor<?x?x2048xf32>
    %771 = "onnx.Mul"(%y_scale_10, %148) {onnx_node_name = "/model/layers.1/attn/q_proj/MatMul_quant_scales_mul"} : (tensor<f32>, tensor<f32>) -> tensor<f32>
    %772 = "onnx.Mul"(%770, %771) {onnx_node_name = "/model/layers.1/attn/q_proj/MatMul_quant_output_scale_mul"} : (tensor<?x?x2048xf32>, tensor<f32>) -> tensor<?x?x2048xf32>
    %773 = "onnx.MatMulInteger"(%y_9, %153, %y_zero_point_11, %152) {onnx_node_name = "/model/layers.1/attn/k_proj/MatMul_quant"} : (tensor<?x?x1024xui8>, tensor<1024x1024xi8>, tensor<ui8>, tensor<i8>) -> tensor<?x?x1024xi32>
    %774 = "onnx.Cast"(%773) {onnx_node_name = "/model/layers.1/attn/k_proj/MatMul/output_0_output_quantized_cast", saturate = 1 : si64, to = f32} : (tensor<?x?x1024xi32>) -> tensor<?x?x1024xf32>
    %775 = "onnx.Mul"(%y_scale_10, %151) {onnx_node_name = "/model/layers.1/attn/k_proj/MatMul_quant_scales_mul"} : (tensor<f32>, tensor<f32>) -> tensor<f32>
    %776 = "onnx.Mul"(%774, %775) {onnx_node_name = "/model/layers.1/attn/k_proj/MatMul_quant_output_scale_mul"} : (tensor<?x?x1024xf32>, tensor<f32>) -> tensor<?x?x1024xf32>
    %777 = "onnx.MatMulInteger"(%y_9, %156, %y_zero_point_11, %155) {onnx_node_name = "/model/layers.1/attn/v_proj/MatMul_quant"} : (tensor<?x?x1024xui8>, tensor<1024x1024xi8>, tensor<ui8>, tensor<i8>) -> tensor<?x?x1024xi32>
    %778 = "onnx.Cast"(%777) {onnx_node_name = "/model/layers.1/attn/v_proj/MatMul/output_0_output_quantized_cast", saturate = 1 : si64, to = f32} : (tensor<?x?x1024xi32>) -> tensor<?x?x1024xf32>
    %779 = "onnx.Mul"(%y_scale_10, %154) {onnx_node_name = "/model/layers.1/attn/v_proj/MatMul_quant_scales_mul"} : (tensor<f32>, tensor<f32>) -> tensor<f32>
    %780 = "onnx.Mul"(%778, %779) {onnx_node_name = "/model/layers.1/attn/v_proj/MatMul_quant_output_scale_mul"} : (tensor<?x?x1024xf32>, tensor<f32>) -> tensor<?x?x1024xf32>
    %781 = "onnx.Reshape"(%772, %6) {allowzero = 0 : si64, onnx_node_name = "/model/layers.1/attn/q_norm/Reshape_1"} : (tensor<?x?x2048xf32>, tensor<3xi64>) -> tensor<?x?x128xf32>
    %782 = "onnx.Reshape"(%776, %6) {allowzero = 0 : si64, onnx_node_name = "/model/layers.1/attn/k_norm/Reshape_1"} : (tensor<?x?x1024xf32>, tensor<3xi64>) -> tensor<?x?x128xf32>
    %783 = "onnx.Custom"(%781, %16) {axis = -1 : si64, domain_name = "", epsilon = 9.99999997E-7 : f32, function_name = "SimplifiedLayerNormalization", onnx_node_name = "/model/layers.1/attn/q_norm/SimplifiedLayerNormalization", stash_type = 1 : si64} : (tensor<?x?x128xf32>, tensor<128xf32>) -> tensor<?x?x128xf32>
    %784 = "onnx.Custom"(%782, %17) {axis = -1 : si64, domain_name = "", epsilon = 9.99999997E-7 : f32, function_name = "SimplifiedLayerNormalization", onnx_node_name = "/model/layers.1/attn/k_norm/SimplifiedLayerNormalization", stash_type = 1 : si64} : (tensor<?x?x128xf32>, tensor<128xf32>) -> tensor<?x?x128xf32>
    %785 = "onnx.Reshape"(%783, %5) {allowzero = 0 : si64, onnx_node_name = "/model/layers.1/attn/q_norm/Reshape_2"} : (tensor<?x?x128xf32>, tensor<3xi64>) -> tensor<?x?x2048xf32>
    %786 = "onnx.Reshape"(%784, %4) {allowzero = 0 : si64, onnx_node_name = "/model/layers.1/attn/k_norm/Reshape_2"} : (tensor<?x?x128xf32>, tensor<3xi64>) -> tensor<?x?x1024xf32>
    %787 = "onnx.Custom"(%785, %740, %12, %13) {domain_name = "com.microsoft", function_name = "RotaryEmbedding", interleaved = 0 : si64, num_heads = 0 : si64, onnx_node_name = "/model/layers.1/attn/q_rotary/RotaryEmbedding", rotary_embedding_dim = 0 : si64} : (tensor<?x?x2048xf32>, tensor<?x?xi64>, tensor<40960x64xf32>, tensor<40960x64xf32>) -> tensor<?x?x2048xf32>
    %788 = "onnx.Custom"(%786, %740, %12, %13) {domain_name = "com.microsoft", function_name = "RotaryEmbedding", interleaved = 0 : si64, num_heads = 0 : si64, onnx_node_name = "/model/layers.1/attn/k_rotary/RotaryEmbedding", rotary_embedding_dim = 0 : si64} : (tensor<?x?x1024xf32>, tensor<?x?xi64>, tensor<40960x64xf32>, tensor<40960x64xf32>) -> tensor<?x?x1024xf32>
    %789:3 = "onnx.Custom"(%787, %788, %780, %arg5, %arg6, %737, %723, %3, %3) {do_rotary = 0 : si64, domain_name = "com.microsoft", function_name = "GroupQueryAttention", kv_num_heads = 8 : si64, num_heads = 16 : si64, onnx_node_name = "/model/layers.1/attn/GroupQueryAttention", rotary_interleaved = 0 : si64, scale = 0.0883883461 : f32, softcap = 0.000000e+00 : f32} : (tensor<?x?x2048xf32>, tensor<?x?x1024xf32>, tensor<?x?x1024xf32>, tensor<?x8x?x128xf32>, tensor<?x8x?x128xf32>, tensor<?x1xi32>, tensor<i32>, none, none) -> (tensor<?x?x2048xf32>, tensor<?x8x?x128xf32>, tensor<?x8x?x128xf32>)
    %y_12, %y_scale_13, %y_zero_point_14 = "onnx.DynamicQuantizeLinear"(%789#0) {onnx_node_name = "/model/layers.1/attn/GroupQueryAttention/output_0_QuantizeLinear"} : (tensor<?x?x2048xf32>) -> (tensor<?x?x2048xui8>, tensor<f32>, tensor<ui8>)
    %790 = "onnx.MatMulInteger"(%y_12, %159, %y_zero_point_14, %158) {onnx_node_name = "/model/layers.1/attn/o_proj/MatMul_quant"} : (tensor<?x?x2048xui8>, tensor<2048x1024xi8>, tensor<ui8>, tensor<i8>) -> tensor<?x?x1024xi32>
    %791 = "onnx.Cast"(%790) {onnx_node_name = "/model/layers.1/attn/o_proj/MatMul/output_0_output_quantized_cast", saturate = 1 : si64, to = f32} : (tensor<?x?x1024xi32>) -> tensor<?x?x1024xf32>
    %792 = "onnx.Mul"(%y_scale_13, %157) {onnx_node_name = "/model/layers.1/attn/o_proj/MatMul_quant_scales_mul"} : (tensor<f32>, tensor<f32>) -> tensor<f32>
    %793 = "onnx.Mul"(%791, %792) {onnx_node_name = "/model/layers.1/attn/o_proj/MatMul_quant_output_scale_mul"} : (tensor<?x?x1024xf32>, tensor<f32>) -> tensor<?x?x1024xf32>
    %794:4 = "onnx.Custom"(%768#3, %793, %18) {domain_name = "com.microsoft", epsilon = 9.99999997E-7 : f32, function_name = "SkipSimplifiedLayerNormalization", onnx_node_name = "/model/layers.1/post_attention_layernorm/SkipLayerNorm"} : (tensor<?x?x1024xf32>, tensor<?x?x1024xf32>, tensor<1024xf32>) -> (tensor<?x?x1024xf32>, none, none, tensor<?x?x1024xf32>)
    %y_15, %y_scale_16, %y_zero_point_17 = "onnx.DynamicQuantizeLinear"(%794#0) {onnx_node_name = "/model/layers.1/post_attention_layernorm/output_0_QuantizeLinear"} : (tensor<?x?x1024xf32>) -> (tensor<?x?x1024xui8>, tensor<f32>, tensor<ui8>)
    %795 = "onnx.MatMulInteger"(%y_15, %162, %y_zero_point_17, %161) {onnx_node_name = "/model/layers.1/mlp/gate_proj/MatMul_quant"} : (tensor<?x?x1024xui8>, tensor<1024x3072xi8>, tensor<ui8>, tensor<i8>) -> tensor<?x?x3072xi32>
    %796 = "onnx.Cast"(%795) {onnx_node_name = "/model/layers.1/mlp/gate_proj/MatMul/output_0_output_quantized_cast", saturate = 1 : si64, to = f32} : (tensor<?x?x3072xi32>) -> tensor<?x?x3072xf32>
    %797 = "onnx.Mul"(%y_scale_16, %160) {onnx_node_name = "/model/layers.1/mlp/gate_proj/MatMul_quant_scales_mul"} : (tensor<f32>, tensor<f32>) -> tensor<f32>
    %798 = "onnx.Mul"(%796, %797) {onnx_node_name = "/model/layers.1/mlp/gate_proj/MatMul_quant_output_scale_mul"} : (tensor<?x?x3072xf32>, tensor<f32>) -> tensor<?x?x3072xf32>
    %799 = "onnx.MatMulInteger"(%y_15, %165, %y_zero_point_17, %164) {onnx_node_name = "/model/layers.1/mlp/up_proj/MatMul_quant"} : (tensor<?x?x1024xui8>, tensor<1024x3072xi8>, tensor<ui8>, tensor<i8>) -> tensor<?x?x3072xi32>
    %800 = "onnx.Cast"(%799) {onnx_node_name = "/model/layers.1/mlp/up_proj/MatMul/output_0_output_quantized_cast", saturate = 1 : si64, to = f32} : (tensor<?x?x3072xi32>) -> tensor<?x?x3072xf32>
    %801 = "onnx.Mul"(%y_scale_16, %163) {onnx_node_name = "/model/layers.1/mlp/up_proj/MatMul_quant_scales_mul"} : (tensor<f32>, tensor<f32>) -> tensor<f32>
    %802 = "onnx.Mul"(%800, %801) {onnx_node_name = "/model/layers.1/mlp/up_proj/MatMul_quant_output_scale_mul"} : (tensor<?x?x3072xf32>, tensor<f32>) -> tensor<?x?x3072xf32>
    %803 = "onnx.Sigmoid"(%798) {onnx_node_name = "/model/layers.1/mlp/act_fn/Sigmoid"} : (tensor<?x?x3072xf32>) -> tensor<?x?x3072xf32>
    %804 = "onnx.Mul"(%798, %803) {onnx_node_name = "/model/layers.1/mlp/act_fn/Mul"} : (tensor<?x?x3072xf32>, tensor<?x?x3072xf32>) -> tensor<?x?x3072xf32>
    %805 = "onnx.Mul"(%804, %802) {onnx_node_name = "/model/layers.1/mlp/Mul"} : (tensor<?x?x3072xf32>, tensor<?x?x3072xf32>) -> tensor<?x?x3072xf32>
    %y_18, %y_scale_19, %y_zero_point_20 = "onnx.DynamicQuantizeLinear"(%805) {onnx_node_name = "/model/layers.1/mlp/Mul/output_0_QuantizeLinear"} : (tensor<?x?x3072xf32>) -> (tensor<?x?x3072xui8>, tensor<f32>, tensor<ui8>)
    %806 = "onnx.MatMulInteger"(%y_18, %168, %y_zero_point_20, %167) {onnx_node_name = "/model/layers.1/mlp/down_proj/MatMul_quant"} : (tensor<?x?x3072xui8>, tensor<3072x1024xi8>, tensor<ui8>, tensor<i8>) -> tensor<?x?x1024xi32>
    %807 = "onnx.Cast"(%806) {onnx_node_name = "/model/layers.1/mlp/down_proj/MatMul/output_0_output_quantized_cast", saturate = 1 : si64, to = f32} : (tensor<?x?x1024xi32>) -> tensor<?x?x1024xf32>
    %808 = "onnx.Mul"(%y_scale_19, %166) {onnx_node_name = "/model/layers.1/mlp/down_proj/MatMul_quant_scales_mul"} : (tensor<f32>, tensor<f32>) -> tensor<f32>
    %809 = "onnx.Mul"(%807, %808) {onnx_node_name = "/model/layers.1/mlp/down_proj/MatMul_quant_output_scale_mul"} : (tensor<?x?x1024xf32>, tensor<f32>) -> tensor<?x?x1024xf32>
    %810:4 = "onnx.Custom"(%794#3, %809, %19) {domain_name = "com.microsoft", epsilon = 9.99999997E-7 : f32, function_name = "SkipSimplifiedLayerNormalization", onnx_node_name = "/model/layers.2/input_layernorm/SkipLayerNorm"} : (tensor<?x?x1024xf32>, tensor<?x?x1024xf32>, tensor<1024xf32>) -> (tensor<?x?x1024xf32>, none, none, tensor<?x?x1024xf32>)
    %y_21, %y_scale_22, %y_zero_point_23 = "onnx.DynamicQuantizeLinear"(%810#0) {onnx_node_name = "/model/layers.2/input_layernorm/output_0_QuantizeLinear"} : (tensor<?x?x1024xf32>) -> (tensor<?x?x1024xui8>, tensor<f32>, tensor<ui8>)
    %811 = "onnx.MatMulInteger"(%y_21, %171, %y_zero_point_23, %170) {onnx_node_name = "/model/layers.2/attn/q_proj/MatMul_quant"} : (tensor<?x?x1024xui8>, tensor<1024x2048xi8>, tensor<ui8>, tensor<i8>) -> tensor<?x?x2048xi32>
    %812 = "onnx.Cast"(%811) {onnx_node_name = "/model/layers.2/attn/q_proj/MatMul/output_0_output_quantized_cast", saturate = 1 : si64, to = f32} : (tensor<?x?x2048xi32>) -> tensor<?x?x2048xf32>
    %813 = "onnx.Mul"(%y_scale_22, %169) {onnx_node_name = "/model/layers.2/attn/q_proj/MatMul_quant_scales_mul"} : (tensor<f32>, tensor<f32>) -> tensor<f32>
    %814 = "onnx.Mul"(%812, %813) {onnx_node_name = "/model/layers.2/attn/q_proj/MatMul_quant_output_scale_mul"} : (tensor<?x?x2048xf32>, tensor<f32>) -> tensor<?x?x2048xf32>
    %815 = "onnx.MatMulInteger"(%y_21, %174, %y_zero_point_23, %173) {onnx_node_name = "/model/layers.2/attn/k_proj/MatMul_quant"} : (tensor<?x?x1024xui8>, tensor<1024x1024xi8>, tensor<ui8>, tensor<i8>) -> tensor<?x?x1024xi32>
    %816 = "onnx.Cast"(%815) {onnx_node_name = "/model/layers.2/attn/k_proj/MatMul/output_0_output_quantized_cast", saturate = 1 : si64, to = f32} : (tensor<?x?x1024xi32>) -> tensor<?x?x1024xf32>
    %817 = "onnx.Mul"(%y_scale_22, %172) {onnx_node_name = "/model/layers.2/attn/k_proj/MatMul_quant_scales_mul"} : (tensor<f32>, tensor<f32>) -> tensor<f32>
    %818 = "onnx.Mul"(%816, %817) {onnx_node_name = "/model/layers.2/attn/k_proj/MatMul_quant_output_scale_mul"} : (tensor<?x?x1024xf32>, tensor<f32>) -> tensor<?x?x1024xf32>
    %819 = "onnx.MatMulInteger"(%y_21, %177, %y_zero_point_23, %176) {onnx_node_name = "/model/layers.2/attn/v_proj/MatMul_quant"} : (tensor<?x?x1024xui8>, tensor<1024x1024xi8>, tensor<ui8>, tensor<i8>) -> tensor<?x?x1024xi32>
    %820 = "onnx.Cast"(%819) {onnx_node_name = "/model/layers.2/attn/v_proj/MatMul/output_0_output_quantized_cast", saturate = 1 : si64, to = f32} : (tensor<?x?x1024xi32>) -> tensor<?x?x1024xf32>
    %821 = "onnx.Mul"(%y_scale_22, %175) {onnx_node_name = "/model/layers.2/attn/v_proj/MatMul_quant_scales_mul"} : (tensor<f32>, tensor<f32>) -> tensor<f32>
    %822 = "onnx.Mul"(%820, %821) {onnx_node_name = "/model/layers.2/attn/v_proj/MatMul_quant_output_scale_mul"} : (tensor<?x?x1024xf32>, tensor<f32>) -> tensor<?x?x1024xf32>
    %823 = "onnx.Reshape"(%814, %6) {allowzero = 0 : si64, onnx_node_name = "/model/layers.2/attn/q_norm/Reshape_1"} : (tensor<?x?x2048xf32>, tensor<3xi64>) -> tensor<?x?x128xf32>
    %824 = "onnx.Reshape"(%818, %6) {allowzero = 0 : si64, onnx_node_name = "/model/layers.2/attn/k_norm/Reshape_1"} : (tensor<?x?x1024xf32>, tensor<3xi64>) -> tensor<?x?x128xf32>
    %825 = "onnx.Custom"(%823, %20) {axis = -1 : si64, domain_name = "", epsilon = 9.99999997E-7 : f32, function_name = "SimplifiedLayerNormalization", onnx_node_name = "/model/layers.2/attn/q_norm/SimplifiedLayerNormalization", stash_type = 1 : si64} : (tensor<?x?x128xf32>, tensor<128xf32>) -> tensor<?x?x128xf32>
    %826 = "onnx.Custom"(%824, %21) {axis = -1 : si64, domain_name = "", epsilon = 9.99999997E-7 : f32, function_name = "SimplifiedLayerNormalization", onnx_node_name = "/model/layers.2/attn/k_norm/SimplifiedLayerNormalization", stash_type = 1 : si64} : (tensor<?x?x128xf32>, tensor<128xf32>) -> tensor<?x?x128xf32>
    %827 = "onnx.Reshape"(%825, %5) {allowzero = 0 : si64, onnx_node_name = "/model/layers.2/attn/q_norm/Reshape_2"} : (tensor<?x?x128xf32>, tensor<3xi64>) -> tensor<?x?x2048xf32>
    %828 = "onnx.Reshape"(%826, %4) {allowzero = 0 : si64, onnx_node_name = "/model/layers.2/attn/k_norm/Reshape_2"} : (tensor<?x?x128xf32>, tensor<3xi64>) -> tensor<?x?x1024xf32>
    %829 = "onnx.Custom"(%827, %740, %12, %13) {domain_name = "com.microsoft", function_name = "RotaryEmbedding", interleaved = 0 : si64, num_heads = 0 : si64, onnx_node_name = "/model/layers.2/attn/q_rotary/RotaryEmbedding", rotary_embedding_dim = 0 : si64} : (tensor<?x?x2048xf32>, tensor<?x?xi64>, tensor<40960x64xf32>, tensor<40960x64xf32>) -> tensor<?x?x2048xf32>
    %830 = "onnx.Custom"(%828, %740, %12, %13) {domain_name = "com.microsoft", function_name = "RotaryEmbedding", interleaved = 0 : si64, num_heads = 0 : si64, onnx_node_name = "/model/layers.2/attn/k_rotary/RotaryEmbedding", rotary_embedding_dim = 0 : si64} : (tensor<?x?x1024xf32>, tensor<?x?xi64>, tensor<40960x64xf32>, tensor<40960x64xf32>) -> tensor<?x?x1024xf32>
    %831:3 = "onnx.Custom"(%829, %830, %822, %arg7, %arg8, %737, %723, %3, %3) {do_rotary = 0 : si64, domain_name = "com.microsoft", function_name = "GroupQueryAttention", kv_num_heads = 8 : si64, num_heads = 16 : si64, onnx_node_name = "/model/layers.2/attn/GroupQueryAttention", rotary_interleaved = 0 : si64, scale = 0.0883883461 : f32, softcap = 0.000000e+00 : f32} : (tensor<?x?x2048xf32>, tensor<?x?x1024xf32>, tensor<?x?x1024xf32>, tensor<?x8x?x128xf32>, tensor<?x8x?x128xf32>, tensor<?x1xi32>, tensor<i32>, none, none) -> (tensor<?x?x2048xf32>, tensor<?x8x?x128xf32>, tensor<?x8x?x128xf32>)
    %y_24, %y_scale_25, %y_zero_point_26 = "onnx.DynamicQuantizeLinear"(%831#0) {onnx_node_name = "/model/layers.2/attn/GroupQueryAttention/output_0_QuantizeLinear"} : (tensor<?x?x2048xf32>) -> (tensor<?x?x2048xui8>, tensor<f32>, tensor<ui8>)
    %832 = "onnx.MatMulInteger"(%y_24, %180, %y_zero_point_26, %179) {onnx_node_name = "/model/layers.2/attn/o_proj/MatMul_quant"} : (tensor<?x?x2048xui8>, tensor<2048x1024xi8>, tensor<ui8>, tensor<i8>) -> tensor<?x?x1024xi32>
    %833 = "onnx.Cast"(%832) {onnx_node_name = "/model/layers.2/attn/o_proj/MatMul/output_0_output_quantized_cast", saturate = 1 : si64, to = f32} : (tensor<?x?x1024xi32>) -> tensor<?x?x1024xf32>
    %834 = "onnx.Mul"(%y_scale_25, %178) {onnx_node_name = "/model/layers.2/attn/o_proj/MatMul_quant_scales_mul"} : (tensor<f32>, tensor<f32>) -> tensor<f32>
    %835 = "onnx.Mul"(%833, %834) {onnx_node_name = "/model/layers.2/attn/o_proj/MatMul_quant_output_scale_mul"} : (tensor<?x?x1024xf32>, tensor<f32>) -> tensor<?x?x1024xf32>
    %836:4 = "onnx.Custom"(%810#3, %835, %22) {domain_name = "com.microsoft", epsilon = 9.99999997E-7 : f32, function_name = "SkipSimplifiedLayerNormalization", onnx_node_name = "/model/layers.2/post_attention_layernorm/SkipLayerNorm"} : (tensor<?x?x1024xf32>, tensor<?x?x1024xf32>, tensor<1024xf32>) -> (tensor<?x?x1024xf32>, none, none, tensor<?x?x1024xf32>)
    %y_27, %y_scale_28, %y_zero_point_29 = "onnx.DynamicQuantizeLinear"(%836#0) {onnx_node_name = "/model/layers.2/post_attention_layernorm/output_0_QuantizeLinear"} : (tensor<?x?x1024xf32>) -> (tensor<?x?x1024xui8>, tensor<f32>, tensor<ui8>)
    %837 = "onnx.MatMulInteger"(%y_27, %183, %y_zero_point_29, %182) {onnx_node_name = "/model/layers.2/mlp/gate_proj/MatMul_quant"} : (tensor<?x?x1024xui8>, tensor<1024x3072xi8>, tensor<ui8>, tensor<i8>) -> tensor<?x?x3072xi32>
    %838 = "onnx.Cast"(%837) {onnx_node_name = "/model/layers.2/mlp/gate_proj/MatMul/output_0_output_quantized_cast", saturate = 1 : si64, to = f32} : (tensor<?x?x3072xi32>) -> tensor<?x?x3072xf32>
    %839 = "onnx.Mul"(%y_scale_28, %181) {onnx_node_name = "/model/layers.2/mlp/gate_proj/MatMul_quant_scales_mul"} : (tensor<f32>, tensor<f32>) -> tensor<f32>
    %840 = "onnx.Mul"(%838, %839) {onnx_node_name = "/model/layers.2/mlp/gate_proj/MatMul_quant_output_scale_mul"} : (tensor<?x?x3072xf32>, tensor<f32>) -> tensor<?x?x3072xf32>
    %841 = "onnx.MatMulInteger"(%y_27, %186, %y_zero_point_29, %185) {onnx_node_name = "/model/layers.2/mlp/up_proj/MatMul_quant"} : (tensor<?x?x1024xui8>, tensor<1024x3072xi8>, tensor<ui8>, tensor<i8>) -> tensor<?x?x3072xi32>
    %842 = "onnx.Cast"(%841) {onnx_node_name = "/model/layers.2/mlp/up_proj/MatMul/output_0_output_quantized_cast", saturate = 1 : si64, to = f32} : (tensor<?x?x3072xi32>) -> tensor<?x?x3072xf32>
    %843 = "onnx.Mul"(%y_scale_28, %184) {onnx_node_name = "/model/layers.2/mlp/up_proj/MatMul_quant_scales_mul"} : (tensor<f32>, tensor<f32>) -> tensor<f32>
    %844 = "onnx.Mul"(%842, %843) {onnx_node_name = "/model/layers.2/mlp/up_proj/MatMul_quant_output_scale_mul"} : (tensor<?x?x3072xf32>, tensor<f32>) -> tensor<?x?x3072xf32>
    %845 = "onnx.Sigmoid"(%840) {onnx_node_name = "/model/layers.2/mlp/act_fn/Sigmoid"} : (tensor<?x?x3072xf32>) -> tensor<?x?x3072xf32>
    %846 = "onnx.Mul"(%840, %845) {onnx_node_name = "/model/layers.2/mlp/act_fn/Mul"} : (tensor<?x?x3072xf32>, tensor<?x?x3072xf32>) -> tensor<?x?x3072xf32>
    %847 = "onnx.Mul"(%846, %844) {onnx_node_name = "/model/layers.2/mlp/Mul"} : (tensor<?x?x3072xf32>, tensor<?x?x3072xf32>) -> tensor<?x?x3072xf32>
    %y_30, %y_scale_31, %y_zero_point_32 = "onnx.DynamicQuantizeLinear"(%847) {onnx_node_name = "/model/layers.2/mlp/Mul/output_0_QuantizeLinear"} : (tensor<?x?x3072xf32>) -> (tensor<?x?x3072xui8>, tensor<f32>, tensor<ui8>)
    %848 = "onnx.MatMulInteger"(%y_30, %189, %y_zero_point_32, %188) {onnx_node_name = "/model/layers.2/mlp/down_proj/MatMul_quant"} : (tensor<?x?x3072xui8>, tensor<3072x1024xi8>, tensor<ui8>, tensor<i8>) -> tensor<?x?x1024xi32>
    %849 = "onnx.Cast"(%848) {onnx_node_name = "/model/layers.2/mlp/down_proj/MatMul/output_0_output_quantized_cast", saturate = 1 : si64, to = f32} : (tensor<?x?x1024xi32>) -> tensor<?x?x1024xf32>
    %850 = "onnx.Mul"(%y_scale_31, %187) {onnx_node_name = "/model/layers.2/mlp/down_proj/MatMul_quant_scales_mul"} : (tensor<f32>, tensor<f32>) -> tensor<f32>
    %851 = "onnx.Mul"(%849, %850) {onnx_node_name = "/model/layers.2/mlp/down_proj/MatMul_quant_output_scale_mul"} : (tensor<?x?x1024xf32>, tensor<f32>) -> tensor<?x?x1024xf32>
    %852:4 = "onnx.Custom"(%836#3, %851, %23) {domain_name = "com.microsoft", epsilon = 9.99999997E-7 : f32, function_name = "SkipSimplifiedLayerNormalization", onnx_node_name = "/model/layers.3/input_layernorm/SkipLayerNorm"} : (tensor<?x?x1024xf32>, tensor<?x?x1024xf32>, tensor<1024xf32>) -> (tensor<?x?x1024xf32>, none, none, tensor<?x?x1024xf32>)
    %y_33, %y_scale_34, %y_zero_point_35 = "onnx.DynamicQuantizeLinear"(%852#0) {onnx_node_name = "/model/layers.3/input_layernorm/output_0_QuantizeLinear"} : (tensor<?x?x1024xf32>) -> (tensor<?x?x1024xui8>, tensor<f32>, tensor<ui8>)
    %853 = "onnx.MatMulInteger"(%y_33, %192, %y_zero_point_35, %191) {onnx_node_name = "/model/layers.3/attn/q_proj/MatMul_quant"} : (tensor<?x?x1024xui8>, tensor<1024x2048xi8>, tensor<ui8>, tensor<i8>) -> tensor<?x?x2048xi32>
    %854 = "onnx.Cast"(%853) {onnx_node_name = "/model/layers.3/attn/q_proj/MatMul/output_0_output_quantized_cast", saturate = 1 : si64, to = f32} : (tensor<?x?x2048xi32>) -> tensor<?x?x2048xf32>
    %855 = "onnx.Mul"(%y_scale_34, %190) {onnx_node_name = "/model/layers.3/attn/q_proj/MatMul_quant_scales_mul"} : (tensor<f32>, tensor<f32>) -> tensor<f32>
    %856 = "onnx.Mul"(%854, %855) {onnx_node_name = "/model/layers.3/attn/q_proj/MatMul_quant_output_scale_mul"} : (tensor<?x?x2048xf32>, tensor<f32>) -> tensor<?x?x2048xf32>
    %857 = "onnx.MatMulInteger"(%y_33, %195, %y_zero_point_35, %194) {onnx_node_name = "/model/layers.3/attn/k_proj/MatMul_quant"} : (tensor<?x?x1024xui8>, tensor<1024x1024xi8>, tensor<ui8>, tensor<i8>) -> tensor<?x?x1024xi32>
    %858 = "onnx.Cast"(%857) {onnx_node_name = "/model/layers.3/attn/k_proj/MatMul/output_0_output_quantized_cast", saturate = 1 : si64, to = f32} : (tensor<?x?x1024xi32>) -> tensor<?x?x1024xf32>
    %859 = "onnx.Mul"(%y_scale_34, %193) {onnx_node_name = "/model/layers.3/attn/k_proj/MatMul_quant_scales_mul"} : (tensor<f32>, tensor<f32>) -> tensor<f32>
    %860 = "onnx.Mul"(%858, %859) {onnx_node_name = "/model/layers.3/attn/k_proj/MatMul_quant_output_scale_mul"} : (tensor<?x?x1024xf32>, tensor<f32>) -> tensor<?x?x1024xf32>
    %861 = "onnx.MatMulInteger"(%y_33, %198, %y_zero_point_35, %197) {onnx_node_name = "/model/layers.3/attn/v_proj/MatMul_quant"} : (tensor<?x?x1024xui8>, tensor<1024x1024xi8>, tensor<ui8>, tensor<i8>) -> tensor<?x?x1024xi32>
    %862 = "onnx.Cast"(%861) {onnx_node_name = "/model/layers.3/attn/v_proj/MatMul/output_0_output_quantized_cast", saturate = 1 : si64, to = f32} : (tensor<?x?x1024xi32>) -> tensor<?x?x1024xf32>
    %863 = "onnx.Mul"(%y_scale_34, %196) {onnx_node_name = "/model/layers.3/attn/v_proj/MatMul_quant_scales_mul"} : (tensor<f32>, tensor<f32>) -> tensor<f32>
    %864 = "onnx.Mul"(%862, %863) {onnx_node_name = "/model/layers.3/attn/v_proj/MatMul_quant_output_scale_mul"} : (tensor<?x?x1024xf32>, tensor<f32>) -> tensor<?x?x1024xf32>
    %865 = "onnx.Reshape"(%856, %6) {allowzero = 0 : si64, onnx_node_name = "/model/layers.3/attn/q_norm/Reshape_1"} : (tensor<?x?x2048xf32>, tensor<3xi64>) -> tensor<?x?x128xf32>
    %866 = "onnx.Reshape"(%860, %6) {allowzero = 0 : si64, onnx_node_name = "/model/layers.3/attn/k_norm/Reshape_1"} : (tensor<?x?x1024xf32>, tensor<3xi64>) -> tensor<?x?x128xf32>
    %867 = "onnx.Custom"(%865, %24) {axis = -1 : si64, domain_name = "", epsilon = 9.99999997E-7 : f32, function_name = "SimplifiedLayerNormalization", onnx_node_name = "/model/layers.3/attn/q_norm/SimplifiedLayerNormalization", stash_type = 1 : si64} : (tensor<?x?x128xf32>, tensor<128xf32>) -> tensor<?x?x128xf32>
    %868 = "onnx.Custom"(%866, %25) {axis = -1 : si64, domain_name = "", epsilon = 9.99999997E-7 : f32, function_name = "SimplifiedLayerNormalization", onnx_node_name = "/model/layers.3/attn/k_norm/SimplifiedLayerNormalization", stash_type = 1 : si64} : (tensor<?x?x128xf32>, tensor<128xf32>) -> tensor<?x?x128xf32>
    %869 = "onnx.Reshape"(%867, %5) {allowzero = 0 : si64, onnx_node_name = "/model/layers.3/attn/q_norm/Reshape_2"} : (tensor<?x?x128xf32>, tensor<3xi64>) -> tensor<?x?x2048xf32>
    %870 = "onnx.Reshape"(%868, %4) {allowzero = 0 : si64, onnx_node_name = "/model/layers.3/attn/k_norm/Reshape_2"} : (tensor<?x?x128xf32>, tensor<3xi64>) -> tensor<?x?x1024xf32>
    %871 = "onnx.Custom"(%869, %740, %12, %13) {domain_name = "com.microsoft", function_name = "RotaryEmbedding", interleaved = 0 : si64, num_heads = 0 : si64, onnx_node_name = "/model/layers.3/attn/q_rotary/RotaryEmbedding", rotary_embedding_dim = 0 : si64} : (tensor<?x?x2048xf32>, tensor<?x?xi64>, tensor<40960x64xf32>, tensor<40960x64xf32>) -> tensor<?x?x2048xf32>
    %872 = "onnx.Custom"(%870, %740, %12, %13) {domain_name = "com.microsoft", function_name = "RotaryEmbedding", interleaved = 0 : si64, num_heads = 0 : si64, onnx_node_name = "/model/layers.3/attn/k_rotary/RotaryEmbedding", rotary_embedding_dim = 0 : si64} : (tensor<?x?x1024xf32>, tensor<?x?xi64>, tensor<40960x64xf32>, tensor<40960x64xf32>) -> tensor<?x?x1024xf32>
    %873:3 = "onnx.Custom"(%871, %872, %864, %arg9, %arg10, %737, %723, %3, %3) {do_rotary = 0 : si64, domain_name = "com.microsoft", function_name = "GroupQueryAttention", kv_num_heads = 8 : si64, num_heads = 16 : si64, onnx_node_name = "/model/layers.3/attn/GroupQueryAttention", rotary_interleaved = 0 : si64, scale = 0.0883883461 : f32, softcap = 0.000000e+00 : f32} : (tensor<?x?x2048xf32>, tensor<?x?x1024xf32>, tensor<?x?x1024xf32>, tensor<?x8x?x128xf32>, tensor<?x8x?x128xf32>, tensor<?x1xi32>, tensor<i32>, none, none) -> (tensor<?x?x2048xf32>, tensor<?x8x?x128xf32>, tensor<?x8x?x128xf32>)
    %y_36, %y_scale_37, %y_zero_point_38 = "onnx.DynamicQuantizeLinear"(%873#0) {onnx_node_name = "/model/layers.3/attn/GroupQueryAttention/output_0_QuantizeLinear"} : (tensor<?x?x2048xf32>) -> (tensor<?x?x2048xui8>, tensor<f32>, tensor<ui8>)
    %874 = "onnx.MatMulInteger"(%y_36, %201, %y_zero_point_38, %200) {onnx_node_name = "/model/layers.3/attn/o_proj/MatMul_quant"} : (tensor<?x?x2048xui8>, tensor<2048x1024xi8>, tensor<ui8>, tensor<i8>) -> tensor<?x?x1024xi32>
    %875 = "onnx.Cast"(%874) {onnx_node_name = "/model/layers.3/attn/o_proj/MatMul/output_0_output_quantized_cast", saturate = 1 : si64, to = f32} : (tensor<?x?x1024xi32>) -> tensor<?x?x1024xf32>
    %876 = "onnx.Mul"(%y_scale_37, %199) {onnx_node_name = "/model/layers.3/attn/o_proj/MatMul_quant_scales_mul"} : (tensor<f32>, tensor<f32>) -> tensor<f32>
    %877 = "onnx.Mul"(%875, %876) {onnx_node_name = "/model/layers.3/attn/o_proj/MatMul_quant_output_scale_mul"} : (tensor<?x?x1024xf32>, tensor<f32>) -> tensor<?x?x1024xf32>
    %878:4 = "onnx.Custom"(%852#3, %877, %26) {domain_name = "com.microsoft", epsilon = 9.99999997E-7 : f32, function_name = "SkipSimplifiedLayerNormalization", onnx_node_name = "/model/layers.3/post_attention_layernorm/SkipLayerNorm"} : (tensor<?x?x1024xf32>, tensor<?x?x1024xf32>, tensor<1024xf32>) -> (tensor<?x?x1024xf32>, none, none, tensor<?x?x1024xf32>)
    %y_39, %y_scale_40, %y_zero_point_41 = "onnx.DynamicQuantizeLinear"(%878#0) {onnx_node_name = "/model/layers.3/post_attention_layernorm/output_0_QuantizeLinear"} : (tensor<?x?x1024xf32>) -> (tensor<?x?x1024xui8>, tensor<f32>, tensor<ui8>)
    %879 = "onnx.MatMulInteger"(%y_39, %204, %y_zero_point_41, %203) {onnx_node_name = "/model/layers.3/mlp/gate_proj/MatMul_quant"} : (tensor<?x?x1024xui8>, tensor<1024x3072xi8>, tensor<ui8>, tensor<i8>) -> tensor<?x?x3072xi32>
    %880 = "onnx.Cast"(%879) {onnx_node_name = "/model/layers.3/mlp/gate_proj/MatMul/output_0_output_quantized_cast", saturate = 1 : si64, to = f32} : (tensor<?x?x3072xi32>) -> tensor<?x?x3072xf32>
    %881 = "onnx.Mul"(%y_scale_40, %202) {onnx_node_name = "/model/layers.3/mlp/gate_proj/MatMul_quant_scales_mul"} : (tensor<f32>, tensor<f32>) -> tensor<f32>
    %882 = "onnx.Mul"(%880, %881) {onnx_node_name = "/model/layers.3/mlp/gate_proj/MatMul_quant_output_scale_mul"} : (tensor<?x?x3072xf32>, tensor<f32>) -> tensor<?x?x3072xf32>
    %883 = "onnx.MatMulInteger"(%y_39, %207, %y_zero_point_41, %206) {onnx_node_name = "/model/layers.3/mlp/up_proj/MatMul_quant"} : (tensor<?x?x1024xui8>, tensor<1024x3072xi8>, tensor<ui8>, tensor<i8>) -> tensor<?x?x3072xi32>
    %884 = "onnx.Cast"(%883) {onnx_node_name = "/model/layers.3/mlp/up_proj/MatMul/output_0_output_quantized_cast", saturate = 1 : si64, to = f32} : (tensor<?x?x3072xi32>) -> tensor<?x?x3072xf32>
    %885 = "onnx.Mul"(%y_scale_40, %205) {onnx_node_name = "/model/layers.3/mlp/up_proj/MatMul_quant_scales_mul"} : (tensor<f32>, tensor<f32>) -> tensor<f32>
    %886 = "onnx.Mul"(%884, %885) {onnx_node_name = "/model/layers.3/mlp/up_proj/MatMul_quant_output_scale_mul"} : (tensor<?x?x3072xf32>, tensor<f32>) -> tensor<?x?x3072xf32>
    %887 = "onnx.Sigmoid"(%882) {onnx_node_name = "/model/layers.3/mlp/act_fn/Sigmoid"} : (tensor<?x?x3072xf32>) -> tensor<?x?x3072xf32>
    %888 = "onnx.Mul"(%882, %887) {onnx_node_name = "/model/layers.3/mlp/act_fn/Mul"} : (tensor<?x?x3072xf32>, tensor<?x?x3072xf32>) -> tensor<?x?x3072xf32>
    %889 = "onnx.Mul"(%888, %886) {onnx_node_name = "/model/layers.3/mlp/Mul"} : (tensor<?x?x3072xf32>, tensor<?x?x3072xf32>) -> tensor<?x?x3072xf32>
    %y_42, %y_scale_43, %y_zero_point_44 = "onnx.DynamicQuantizeLinear"(%889) {onnx_node_name = "/model/layers.3/mlp/Mul/output_0_QuantizeLinear"} : (tensor<?x?x3072xf32>) -> (tensor<?x?x3072xui8>, tensor<f32>, tensor<ui8>)
    %890 = "onnx.MatMulInteger"(%y_42, %210, %y_zero_point_44, %209) {onnx_node_name = "/model/layers.3/mlp/down_proj/MatMul_quant"} : (tensor<?x?x3072xui8>, tensor<3072x1024xi8>, tensor<ui8>, tensor<i8>) -> tensor<?x?x1024xi32>
    %891 = "onnx.Cast"(%890) {onnx_node_name = "/model/layers.3/mlp/down_proj/MatMul/output_0_output_quantized_cast", saturate = 1 : si64, to = f32} : (tensor<?x?x1024xi32>) -> tensor<?x?x1024xf32>
    %892 = "onnx.Mul"(%y_scale_43, %208) {onnx_node_name = "/model/layers.3/mlp/down_proj/MatMul_quant_scales_mul"} : (tensor<f32>, tensor<f32>) -> tensor<f32>
    %893 = "onnx.Mul"(%891, %892) {onnx_node_name = "/model/layers.3/mlp/down_proj/MatMul_quant_output_scale_mul"} : (tensor<?x?x1024xf32>, tensor<f32>) -> tensor<?x?x1024xf32>
    %894:4 = "onnx.Custom"(%878#3, %893, %27) {domain_name = "com.microsoft", epsilon = 9.99999997E-7 : f32, function_name = "SkipSimplifiedLayerNormalization", onnx_node_name = "/model/layers.4/input_layernorm/SkipLayerNorm"} : (tensor<?x?x1024xf32>, tensor<?x?x1024xf32>, tensor<1024xf32>) -> (tensor<?x?x1024xf32>, none, none, tensor<?x?x1024xf32>)
    %y_45, %y_scale_46, %y_zero_point_47 = "onnx.DynamicQuantizeLinear"(%894#0) {onnx_node_name = "/model/layers.4/input_layernorm/output_0_QuantizeLinear"} : (tensor<?x?x1024xf32>) -> (tensor<?x?x1024xui8>, tensor<f32>, tensor<ui8>)
    %895 = "onnx.MatMulInteger"(%y_45, %213, %y_zero_point_47, %212) {onnx_node_name = "/model/layers.4/attn/q_proj/MatMul_quant"} : (tensor<?x?x1024xui8>, tensor<1024x2048xi8>, tensor<ui8>, tensor<i8>) -> tensor<?x?x2048xi32>
    %896 = "onnx.Cast"(%895) {onnx_node_name = "/model/layers.4/attn/q_proj/MatMul/output_0_output_quantized_cast", saturate = 1 : si64, to = f32} : (tensor<?x?x2048xi32>) -> tensor<?x?x2048xf32>
    %897 = "onnx.Mul"(%y_scale_46, %211) {onnx_node_name = "/model/layers.4/attn/q_proj/MatMul_quant_scales_mul"} : (tensor<f32>, tensor<f32>) -> tensor<f32>
    %898 = "onnx.Mul"(%896, %897) {onnx_node_name = "/model/layers.4/attn/q_proj/MatMul_quant_output_scale_mul"} : (tensor<?x?x2048xf32>, tensor<f32>) -> tensor<?x?x2048xf32>
    %899 = "onnx.MatMulInteger"(%y_45, %216, %y_zero_point_47, %215) {onnx_node_name = "/model/layers.4/attn/k_proj/MatMul_quant"} : (tensor<?x?x1024xui8>, tensor<1024x1024xi8>, tensor<ui8>, tensor<i8>) -> tensor<?x?x1024xi32>
    %900 = "onnx.Cast"(%899) {onnx_node_name = "/model/layers.4/attn/k_proj/MatMul/output_0_output_quantized_cast", saturate = 1 : si64, to = f32} : (tensor<?x?x1024xi32>) -> tensor<?x?x1024xf32>
    %901 = "onnx.Mul"(%y_scale_46, %214) {onnx_node_name = "/model/layers.4/attn/k_proj/MatMul_quant_scales_mul"} : (tensor<f32>, tensor<f32>) -> tensor<f32>
    %902 = "onnx.Mul"(%900, %901) {onnx_node_name = "/model/layers.4/attn/k_proj/MatMul_quant_output_scale_mul"} : (tensor<?x?x1024xf32>, tensor<f32>) -> tensor<?x?x1024xf32>
    %903 = "onnx.MatMulInteger"(%y_45, %219, %y_zero_point_47, %218) {onnx_node_name = "/model/layers.4/attn/v_proj/MatMul_quant"} : (tensor<?x?x1024xui8>, tensor<1024x1024xi8>, tensor<ui8>, tensor<i8>) -> tensor<?x?x1024xi32>
    %904 = "onnx.Cast"(%903) {onnx_node_name = "/model/layers.4/attn/v_proj/MatMul/output_0_output_quantized_cast", saturate = 1 : si64, to = f32} : (tensor<?x?x1024xi32>) -> tensor<?x?x1024xf32>
    %905 = "onnx.Mul"(%y_scale_46, %217) {onnx_node_name = "/model/layers.4/attn/v_proj/MatMul_quant_scales_mul"} : (tensor<f32>, tensor<f32>) -> tensor<f32>
    %906 = "onnx.Mul"(%904, %905) {onnx_node_name = "/model/layers.4/attn/v_proj/MatMul_quant_output_scale_mul"} : (tensor<?x?x1024xf32>, tensor<f32>) -> tensor<?x?x1024xf32>
    %907 = "onnx.Reshape"(%898, %6) {allowzero = 0 : si64, onnx_node_name = "/model/layers.4/attn/q_norm/Reshape_1"} : (tensor<?x?x2048xf32>, tensor<3xi64>) -> tensor<?x?x128xf32>
    %908 = "onnx.Reshape"(%902, %6) {allowzero = 0 : si64, onnx_node_name = "/model/layers.4/attn/k_norm/Reshape_1"} : (tensor<?x?x1024xf32>, tensor<3xi64>) -> tensor<?x?x128xf32>
    %909 = "onnx.Custom"(%907, %28) {axis = -1 : si64, domain_name = "", epsilon = 9.99999997E-7 : f32, function_name = "SimplifiedLayerNormalization", onnx_node_name = "/model/layers.4/attn/q_norm/SimplifiedLayerNormalization", stash_type = 1 : si64} : (tensor<?x?x128xf32>, tensor<128xf32>) -> tensor<?x?x128xf32>
    %910 = "onnx.Custom"(%908, %29) {axis = -1 : si64, domain_name = "", epsilon = 9.99999997E-7 : f32, function_name = "SimplifiedLayerNormalization", onnx_node_name = "/model/layers.4/attn/k_norm/SimplifiedLayerNormalization", stash_type = 1 : si64} : (tensor<?x?x128xf32>, tensor<128xf32>) -> tensor<?x?x128xf32>
    %911 = "onnx.Reshape"(%909, %5) {allowzero = 0 : si64, onnx_node_name = "/model/layers.4/attn/q_norm/Reshape_2"} : (tensor<?x?x128xf32>, tensor<3xi64>) -> tensor<?x?x2048xf32>
    %912 = "onnx.Reshape"(%910, %4) {allowzero = 0 : si64, onnx_node_name = "/model/layers.4/attn/k_norm/Reshape_2"} : (tensor<?x?x128xf32>, tensor<3xi64>) -> tensor<?x?x1024xf32>
    %913 = "onnx.Custom"(%911, %740, %12, %13) {domain_name = "com.microsoft", function_name = "RotaryEmbedding", interleaved = 0 : si64, num_heads = 0 : si64, onnx_node_name = "/model/layers.4/attn/q_rotary/RotaryEmbedding", rotary_embedding_dim = 0 : si64} : (tensor<?x?x2048xf32>, tensor<?x?xi64>, tensor<40960x64xf32>, tensor<40960x64xf32>) -> tensor<?x?x2048xf32>
    %914 = "onnx.Custom"(%912, %740, %12, %13) {domain_name = "com.microsoft", function_name = "RotaryEmbedding", interleaved = 0 : si64, num_heads = 0 : si64, onnx_node_name = "/model/layers.4/attn/k_rotary/RotaryEmbedding", rotary_embedding_dim = 0 : si64} : (tensor<?x?x1024xf32>, tensor<?x?xi64>, tensor<40960x64xf32>, tensor<40960x64xf32>) -> tensor<?x?x1024xf32>
    %915:3 = "onnx.Custom"(%913, %914, %906, %arg11, %arg12, %737, %723, %3, %3) {do_rotary = 0 : si64, domain_name = "com.microsoft", function_name = "GroupQueryAttention", kv_num_heads = 8 : si64, num_heads = 16 : si64, onnx_node_name = "/model/layers.4/attn/GroupQueryAttention", rotary_interleaved = 0 : si64, scale = 0.0883883461 : f32, softcap = 0.000000e+00 : f32} : (tensor<?x?x2048xf32>, tensor<?x?x1024xf32>, tensor<?x?x1024xf32>, tensor<?x8x?x128xf32>, tensor<?x8x?x128xf32>, tensor<?x1xi32>, tensor<i32>, none, none) -> (tensor<?x?x2048xf32>, tensor<?x8x?x128xf32>, tensor<?x8x?x128xf32>)
    %y_48, %y_scale_49, %y_zero_point_50 = "onnx.DynamicQuantizeLinear"(%915#0) {onnx_node_name = "/model/layers.4/attn/GroupQueryAttention/output_0_QuantizeLinear"} : (tensor<?x?x2048xf32>) -> (tensor<?x?x2048xui8>, tensor<f32>, tensor<ui8>)
    %916 = "onnx.MatMulInteger"(%y_48, %222, %y_zero_point_50, %221) {onnx_node_name = "/model/layers.4/attn/o_proj/MatMul_quant"} : (tensor<?x?x2048xui8>, tensor<2048x1024xi8>, tensor<ui8>, tensor<i8>) -> tensor<?x?x1024xi32>
    %917 = "onnx.Cast"(%916) {onnx_node_name = "/model/layers.4/attn/o_proj/MatMul/output_0_output_quantized_cast", saturate = 1 : si64, to = f32} : (tensor<?x?x1024xi32>) -> tensor<?x?x1024xf32>
    %918 = "onnx.Mul"(%y_scale_49, %220) {onnx_node_name = "/model/layers.4/attn/o_proj/MatMul_quant_scales_mul"} : (tensor<f32>, tensor<f32>) -> tensor<f32>
    %919 = "onnx.Mul"(%917, %918) {onnx_node_name = "/model/layers.4/attn/o_proj/MatMul_quant_output_scale_mul"} : (tensor<?x?x1024xf32>, tensor<f32>) -> tensor<?x?x1024xf32>
    %920:4 = "onnx.Custom"(%894#3, %919, %30) {domain_name = "com.microsoft", epsilon = 9.99999997E-7 : f32, function_name = "SkipSimplifiedLayerNormalization", onnx_node_name = "/model/layers.4/post_attention_layernorm/SkipLayerNorm"} : (tensor<?x?x1024xf32>, tensor<?x?x1024xf32>, tensor<1024xf32>) -> (tensor<?x?x1024xf32>, none, none, tensor<?x?x1024xf32>)
    %y_51, %y_scale_52, %y_zero_point_53 = "onnx.DynamicQuantizeLinear"(%920#0) {onnx_node_name = "/model/layers.4/post_attention_layernorm/output_0_QuantizeLinear"} : (tensor<?x?x1024xf32>) -> (tensor<?x?x1024xui8>, tensor<f32>, tensor<ui8>)
    %921 = "onnx.MatMulInteger"(%y_51, %225, %y_zero_point_53, %224) {onnx_node_name = "/model/layers.4/mlp/gate_proj/MatMul_quant"} : (tensor<?x?x1024xui8>, tensor<1024x3072xi8>, tensor<ui8>, tensor<i8>) -> tensor<?x?x3072xi32>
    %922 = "onnx.Cast"(%921) {onnx_node_name = "/model/layers.4/mlp/gate_proj/MatMul/output_0_output_quantized_cast", saturate = 1 : si64, to = f32} : (tensor<?x?x3072xi32>) -> tensor<?x?x3072xf32>
    %923 = "onnx.Mul"(%y_scale_52, %223) {onnx_node_name = "/model/layers.4/mlp/gate_proj/MatMul_quant_scales_mul"} : (tensor<f32>, tensor<f32>) -> tensor<f32>
    %924 = "onnx.Mul"(%922, %923) {onnx_node_name = "/model/layers.4/mlp/gate_proj/MatMul_quant_output_scale_mul"} : (tensor<?x?x3072xf32>, tensor<f32>) -> tensor<?x?x3072xf32>
    %925 = "onnx.MatMulInteger"(%y_51, %228, %y_zero_point_53, %227) {onnx_node_name = "/model/layers.4/mlp/up_proj/MatMul_quant"} : (tensor<?x?x1024xui8>, tensor<1024x3072xi8>, tensor<ui8>, tensor<i8>) -> tensor<?x?x3072xi32>
    %926 = "onnx.Cast"(%925) {onnx_node_name = "/model/layers.4/mlp/up_proj/MatMul/output_0_output_quantized_cast", saturate = 1 : si64, to = f32} : (tensor<?x?x3072xi32>) -> tensor<?x?x3072xf32>
    %927 = "onnx.Mul"(%y_scale_52, %226) {onnx_node_name = "/model/layers.4/mlp/up_proj/MatMul_quant_scales_mul"} : (tensor<f32>, tensor<f32>) -> tensor<f32>
    %928 = "onnx.Mul"(%926, %927) {onnx_node_name = "/model/layers.4/mlp/up_proj/MatMul_quant_output_scale_mul"} : (tensor<?x?x3072xf32>, tensor<f32>) -> tensor<?x?x3072xf32>
    %929 = "onnx.Sigmoid"(%924) {onnx_node_name = "/model/layers.4/mlp/act_fn/Sigmoid"} : (tensor<?x?x3072xf32>) -> tensor<?x?x3072xf32>
    %930 = "onnx.Mul"(%924, %929) {onnx_node_name = "/model/layers.4/mlp/act_fn/Mul"} : (tensor<?x?x3072xf32>, tensor<?x?x3072xf32>) -> tensor<?x?x3072xf32>
    %931 = "onnx.Mul"(%930, %928) {onnx_node_name = "/model/layers.4/mlp/Mul"} : (tensor<?x?x3072xf32>, tensor<?x?x3072xf32>) -> tensor<?x?x3072xf32>
    %y_54, %y_scale_55, %y_zero_point_56 = "onnx.DynamicQuantizeLinear"(%931) {onnx_node_name = "/model/layers.4/mlp/Mul/output_0_QuantizeLinear"} : (tensor<?x?x3072xf32>) -> (tensor<?x?x3072xui8>, tensor<f32>, tensor<ui8>)
    %932 = "onnx.MatMulInteger"(%y_54, %231, %y_zero_point_56, %230) {onnx_node_name = "/model/layers.4/mlp/down_proj/MatMul_quant"} : (tensor<?x?x3072xui8>, tensor<3072x1024xi8>, tensor<ui8>, tensor<i8>) -> tensor<?x?x1024xi32>
    %933 = "onnx.Cast"(%932) {onnx_node_name = "/model/layers.4/mlp/down_proj/MatMul/output_0_output_quantized_cast", saturate = 1 : si64, to = f32} : (tensor<?x?x1024xi32>) -> tensor<?x?x1024xf32>
    %934 = "onnx.Mul"(%y_scale_55, %229) {onnx_node_name = "/model/layers.4/mlp/down_proj/MatMul_quant_scales_mul"} : (tensor<f32>, tensor<f32>) -> tensor<f32>
    %935 = "onnx.Mul"(%933, %934) {onnx_node_name = "/model/layers.4/mlp/down_proj/MatMul_quant_output_scale_mul"} : (tensor<?x?x1024xf32>, tensor<f32>) -> tensor<?x?x1024xf32>
    %936:4 = "onnx.Custom"(%920#3, %935, %31) {domain_name = "com.microsoft", epsilon = 9.99999997E-7 : f32, function_name = "SkipSimplifiedLayerNormalization", onnx_node_name = "/model/layers.5/input_layernorm/SkipLayerNorm"} : (tensor<?x?x1024xf32>, tensor<?x?x1024xf32>, tensor<1024xf32>) -> (tensor<?x?x1024xf32>, none, none, tensor<?x?x1024xf32>)
    %y_57, %y_scale_58, %y_zero_point_59 = "onnx.DynamicQuantizeLinear"(%936#0) {onnx_node_name = "/model/layers.5/input_layernorm/output_0_QuantizeLinear"} : (tensor<?x?x1024xf32>) -> (tensor<?x?x1024xui8>, tensor<f32>, tensor<ui8>)
    %937 = "onnx.MatMulInteger"(%y_57, %234, %y_zero_point_59, %233) {onnx_node_name = "/model/layers.5/attn/q_proj/MatMul_quant"} : (tensor<?x?x1024xui8>, tensor<1024x2048xi8>, tensor<ui8>, tensor<i8>) -> tensor<?x?x2048xi32>
    %938 = "onnx.Cast"(%937) {onnx_node_name = "/model/layers.5/attn/q_proj/MatMul/output_0_output_quantized_cast", saturate = 1 : si64, to = f32} : (tensor<?x?x2048xi32>) -> tensor<?x?x2048xf32>
    %939 = "onnx.Mul"(%y_scale_58, %232) {onnx_node_name = "/model/layers.5/attn/q_proj/MatMul_quant_scales_mul"} : (tensor<f32>, tensor<f32>) -> tensor<f32>
    %940 = "onnx.Mul"(%938, %939) {onnx_node_name = "/model/layers.5/attn/q_proj/MatMul_quant_output_scale_mul"} : (tensor<?x?x2048xf32>, tensor<f32>) -> tensor<?x?x2048xf32>
    %941 = "onnx.MatMulInteger"(%y_57, %237, %y_zero_point_59, %236) {onnx_node_name = "/model/layers.5/attn/k_proj/MatMul_quant"} : (tensor<?x?x1024xui8>, tensor<1024x1024xi8>, tensor<ui8>, tensor<i8>) -> tensor<?x?x1024xi32>
    %942 = "onnx.Cast"(%941) {onnx_node_name = "/model/layers.5/attn/k_proj/MatMul/output_0_output_quantized_cast", saturate = 1 : si64, to = f32} : (tensor<?x?x1024xi32>) -> tensor<?x?x1024xf32>
    %943 = "onnx.Mul"(%y_scale_58, %235) {onnx_node_name = "/model/layers.5/attn/k_proj/MatMul_quant_scales_mul"} : (tensor<f32>, tensor<f32>) -> tensor<f32>
    %944 = "onnx.Mul"(%942, %943) {onnx_node_name = "/model/layers.5/attn/k_proj/MatMul_quant_output_scale_mul"} : (tensor<?x?x1024xf32>, tensor<f32>) -> tensor<?x?x1024xf32>
    %945 = "onnx.MatMulInteger"(%y_57, %240, %y_zero_point_59, %239) {onnx_node_name = "/model/layers.5/attn/v_proj/MatMul_quant"} : (tensor<?x?x1024xui8>, tensor<1024x1024xi8>, tensor<ui8>, tensor<i8>) -> tensor<?x?x1024xi32>
    %946 = "onnx.Cast"(%945) {onnx_node_name = "/model/layers.5/attn/v_proj/MatMul/output_0_output_quantized_cast", saturate = 1 : si64, to = f32} : (tensor<?x?x1024xi32>) -> tensor<?x?x1024xf32>
    %947 = "onnx.Mul"(%y_scale_58, %238) {onnx_node_name = "/model/layers.5/attn/v_proj/MatMul_quant_scales_mul"} : (tensor<f32>, tensor<f32>) -> tensor<f32>
    %948 = "onnx.Mul"(%946, %947) {onnx_node_name = "/model/layers.5/attn/v_proj/MatMul_quant_output_scale_mul"} : (tensor<?x?x1024xf32>, tensor<f32>) -> tensor<?x?x1024xf32>
    %949 = "onnx.Reshape"(%940, %6) {allowzero = 0 : si64, onnx_node_name = "/model/layers.5/attn/q_norm/Reshape_1"} : (tensor<?x?x2048xf32>, tensor<3xi64>) -> tensor<?x?x128xf32>
    %950 = "onnx.Reshape"(%944, %6) {allowzero = 0 : si64, onnx_node_name = "/model/layers.5/attn/k_norm/Reshape_1"} : (tensor<?x?x1024xf32>, tensor<3xi64>) -> tensor<?x?x128xf32>
    %951 = "onnx.Custom"(%949, %32) {axis = -1 : si64, domain_name = "", epsilon = 9.99999997E-7 : f32, function_name = "SimplifiedLayerNormalization", onnx_node_name = "/model/layers.5/attn/q_norm/SimplifiedLayerNormalization", stash_type = 1 : si64} : (tensor<?x?x128xf32>, tensor<128xf32>) -> tensor<?x?x128xf32>
    %952 = "onnx.Custom"(%950, %33) {axis = -1 : si64, domain_name = "", epsilon = 9.99999997E-7 : f32, function_name = "SimplifiedLayerNormalization", onnx_node_name = "/model/layers.5/attn/k_norm/SimplifiedLayerNormalization", stash_type = 1 : si64} : (tensor<?x?x128xf32>, tensor<128xf32>) -> tensor<?x?x128xf32>
    %953 = "onnx.Reshape"(%951, %5) {allowzero = 0 : si64, onnx_node_name = "/model/layers.5/attn/q_norm/Reshape_2"} : (tensor<?x?x128xf32>, tensor<3xi64>) -> tensor<?x?x2048xf32>
    %954 = "onnx.Reshape"(%952, %4) {allowzero = 0 : si64, onnx_node_name = "/model/layers.5/attn/k_norm/Reshape_2"} : (tensor<?x?x128xf32>, tensor<3xi64>) -> tensor<?x?x1024xf32>
    %955 = "onnx.Custom"(%953, %740, %12, %13) {domain_name = "com.microsoft", function_name = "RotaryEmbedding", interleaved = 0 : si64, num_heads = 0 : si64, onnx_node_name = "/model/layers.5/attn/q_rotary/RotaryEmbedding", rotary_embedding_dim = 0 : si64} : (tensor<?x?x2048xf32>, tensor<?x?xi64>, tensor<40960x64xf32>, tensor<40960x64xf32>) -> tensor<?x?x2048xf32>
    %956 = "onnx.Custom"(%954, %740, %12, %13) {domain_name = "com.microsoft", function_name = "RotaryEmbedding", interleaved = 0 : si64, num_heads = 0 : si64, onnx_node_name = "/model/layers.5/attn/k_rotary/RotaryEmbedding", rotary_embedding_dim = 0 : si64} : (tensor<?x?x1024xf32>, tensor<?x?xi64>, tensor<40960x64xf32>, tensor<40960x64xf32>) -> tensor<?x?x1024xf32>
    %957:3 = "onnx.Custom"(%955, %956, %948, %arg13, %arg14, %737, %723, %3, %3) {do_rotary = 0 : si64, domain_name = "com.microsoft", function_name = "GroupQueryAttention", kv_num_heads = 8 : si64, num_heads = 16 : si64, onnx_node_name = "/model/layers.5/attn/GroupQueryAttention", rotary_interleaved = 0 : si64, scale = 0.0883883461 : f32, softcap = 0.000000e+00 : f32} : (tensor<?x?x2048xf32>, tensor<?x?x1024xf32>, tensor<?x?x1024xf32>, tensor<?x8x?x128xf32>, tensor<?x8x?x128xf32>, tensor<?x1xi32>, tensor<i32>, none, none) -> (tensor<?x?x2048xf32>, tensor<?x8x?x128xf32>, tensor<?x8x?x128xf32>)
    %y_60, %y_scale_61, %y_zero_point_62 = "onnx.DynamicQuantizeLinear"(%957#0) {onnx_node_name = "/model/layers.5/attn/GroupQueryAttention/output_0_QuantizeLinear"} : (tensor<?x?x2048xf32>) -> (tensor<?x?x2048xui8>, tensor<f32>, tensor<ui8>)
    %958 = "onnx.MatMulInteger"(%y_60, %243, %y_zero_point_62, %242) {onnx_node_name = "/model/layers.5/attn/o_proj/MatMul_quant"} : (tensor<?x?x2048xui8>, tensor<2048x1024xi8>, tensor<ui8>, tensor<i8>) -> tensor<?x?x1024xi32>
    %959 = "onnx.Cast"(%958) {onnx_node_name = "/model/layers.5/attn/o_proj/MatMul/output_0_output_quantized_cast", saturate = 1 : si64, to = f32} : (tensor<?x?x1024xi32>) -> tensor<?x?x1024xf32>
    %960 = "onnx.Mul"(%y_scale_61, %241) {onnx_node_name = "/model/layers.5/attn/o_proj/MatMul_quant_scales_mul"} : (tensor<f32>, tensor<f32>) -> tensor<f32>
    %961 = "onnx.Mul"(%959, %960) {onnx_node_name = "/model/layers.5/attn/o_proj/MatMul_quant_output_scale_mul"} : (tensor<?x?x1024xf32>, tensor<f32>) -> tensor<?x?x1024xf32>
    %962:4 = "onnx.Custom"(%936#3, %961, %34) {domain_name = "com.microsoft", epsilon = 9.99999997E-7 : f32, function_name = "SkipSimplifiedLayerNormalization", onnx_node_name = "/model/layers.5/post_attention_layernorm/SkipLayerNorm"} : (tensor<?x?x1024xf32>, tensor<?x?x1024xf32>, tensor<1024xf32>) -> (tensor<?x?x1024xf32>, none, none, tensor<?x?x1024xf32>)
    %y_63, %y_scale_64, %y_zero_point_65 = "onnx.DynamicQuantizeLinear"(%962#0) {onnx_node_name = "/model/layers.5/post_attention_layernorm/output_0_QuantizeLinear"} : (tensor<?x?x1024xf32>) -> (tensor<?x?x1024xui8>, tensor<f32>, tensor<ui8>)
    %963 = "onnx.MatMulInteger"(%y_63, %246, %y_zero_point_65, %245) {onnx_node_name = "/model/layers.5/mlp/gate_proj/MatMul_quant"} : (tensor<?x?x1024xui8>, tensor<1024x3072xi8>, tensor<ui8>, tensor<i8>) -> tensor<?x?x3072xi32>
    %964 = "onnx.Cast"(%963) {onnx_node_name = "/model/layers.5/mlp/gate_proj/MatMul/output_0_output_quantized_cast", saturate = 1 : si64, to = f32} : (tensor<?x?x3072xi32>) -> tensor<?x?x3072xf32>
    %965 = "onnx.Mul"(%y_scale_64, %244) {onnx_node_name = "/model/layers.5/mlp/gate_proj/MatMul_quant_scales_mul"} : (tensor<f32>, tensor<f32>) -> tensor<f32>
    %966 = "onnx.Mul"(%964, %965) {onnx_node_name = "/model/layers.5/mlp/gate_proj/MatMul_quant_output_scale_mul"} : (tensor<?x?x3072xf32>, tensor<f32>) -> tensor<?x?x3072xf32>
    %967 = "onnx.MatMulInteger"(%y_63, %249, %y_zero_point_65, %248) {onnx_node_name = "/model/layers.5/mlp/up_proj/MatMul_quant"} : (tensor<?x?x1024xui8>, tensor<1024x3072xi8>, tensor<ui8>, tensor<i8>) -> tensor<?x?x3072xi32>
    %968 = "onnx.Cast"(%967) {onnx_node_name = "/model/layers.5/mlp/up_proj/MatMul/output_0_output_quantized_cast", saturate = 1 : si64, to = f32} : (tensor<?x?x3072xi32>) -> tensor<?x?x3072xf32>
    %969 = "onnx.Mul"(%y_scale_64, %247) {onnx_node_name = "/model/layers.5/mlp/up_proj/MatMul_quant_scales_mul"} : (tensor<f32>, tensor<f32>) -> tensor<f32>
    %970 = "onnx.Mul"(%968, %969) {onnx_node_name = "/model/layers.5/mlp/up_proj/MatMul_quant_output_scale_mul"} : (tensor<?x?x3072xf32>, tensor<f32>) -> tensor<?x?x3072xf32>
    %971 = "onnx.Sigmoid"(%966) {onnx_node_name = "/model/layers.5/mlp/act_fn/Sigmoid"} : (tensor<?x?x3072xf32>) -> tensor<?x?x3072xf32>
    %972 = "onnx.Mul"(%966, %971) {onnx_node_name = "/model/layers.5/mlp/act_fn/Mul"} : (tensor<?x?x3072xf32>, tensor<?x?x3072xf32>) -> tensor<?x?x3072xf32>
    %973 = "onnx.Mul"(%972, %970) {onnx_node_name = "/model/layers.5/mlp/Mul"} : (tensor<?x?x3072xf32>, tensor<?x?x3072xf32>) -> tensor<?x?x3072xf32>
    %y_66, %y_scale_67, %y_zero_point_68 = "onnx.DynamicQuantizeLinear"(%973) {onnx_node_name = "/model/layers.5/mlp/Mul/output_0_QuantizeLinear"} : (tensor<?x?x3072xf32>) -> (tensor<?x?x3072xui8>, tensor<f32>, tensor<ui8>)
    %974 = "onnx.MatMulInteger"(%y_66, %252, %y_zero_point_68, %251) {onnx_node_name = "/model/layers.5/mlp/down_proj/MatMul_quant"} : (tensor<?x?x3072xui8>, tensor<3072x1024xi8>, tensor<ui8>, tensor<i8>) -> tensor<?x?x1024xi32>
    %975 = "onnx.Cast"(%974) {onnx_node_name = "/model/layers.5/mlp/down_proj/MatMul/output_0_output_quantized_cast", saturate = 1 : si64, to = f32} : (tensor<?x?x1024xi32>) -> tensor<?x?x1024xf32>
    %976 = "onnx.Mul"(%y_scale_67, %250) {onnx_node_name = "/model/layers.5/mlp/down_proj/MatMul_quant_scales_mul"} : (tensor<f32>, tensor<f32>) -> tensor<f32>
    %977 = "onnx.Mul"(%975, %976) {onnx_node_name = "/model/layers.5/mlp/down_proj/MatMul_quant_output_scale_mul"} : (tensor<?x?x1024xf32>, tensor<f32>) -> tensor<?x?x1024xf32>
    %978:4 = "onnx.Custom"(%962#3, %977, %35) {domain_name = "com.microsoft", epsilon = 9.99999997E-7 : f32, function_name = "SkipSimplifiedLayerNormalization", onnx_node_name = "/model/layers.6/input_layernorm/SkipLayerNorm"} : (tensor<?x?x1024xf32>, tensor<?x?x1024xf32>, tensor<1024xf32>) -> (tensor<?x?x1024xf32>, none, none, tensor<?x?x1024xf32>)
    %y_69, %y_scale_70, %y_zero_point_71 = "onnx.DynamicQuantizeLinear"(%978#0) {onnx_node_name = "/model/layers.6/input_layernorm/output_0_QuantizeLinear"} : (tensor<?x?x1024xf32>) -> (tensor<?x?x1024xui8>, tensor<f32>, tensor<ui8>)
    %979 = "onnx.MatMulInteger"(%y_69, %255, %y_zero_point_71, %254) {onnx_node_name = "/model/layers.6/attn/q_proj/MatMul_quant"} : (tensor<?x?x1024xui8>, tensor<1024x2048xi8>, tensor<ui8>, tensor<i8>) -> tensor<?x?x2048xi32>
    %980 = "onnx.Cast"(%979) {onnx_node_name = "/model/layers.6/attn/q_proj/MatMul/output_0_output_quantized_cast", saturate = 1 : si64, to = f32} : (tensor<?x?x2048xi32>) -> tensor<?x?x2048xf32>
    %981 = "onnx.Mul"(%y_scale_70, %253) {onnx_node_name = "/model/layers.6/attn/q_proj/MatMul_quant_scales_mul"} : (tensor<f32>, tensor<f32>) -> tensor<f32>
    %982 = "onnx.Mul"(%980, %981) {onnx_node_name = "/model/layers.6/attn/q_proj/MatMul_quant_output_scale_mul"} : (tensor<?x?x2048xf32>, tensor<f32>) -> tensor<?x?x2048xf32>
    %983 = "onnx.MatMulInteger"(%y_69, %258, %y_zero_point_71, %257) {onnx_node_name = "/model/layers.6/attn/k_proj/MatMul_quant"} : (tensor<?x?x1024xui8>, tensor<1024x1024xi8>, tensor<ui8>, tensor<i8>) -> tensor<?x?x1024xi32>
    %984 = "onnx.Cast"(%983) {onnx_node_name = "/model/layers.6/attn/k_proj/MatMul/output_0_output_quantized_cast", saturate = 1 : si64, to = f32} : (tensor<?x?x1024xi32>) -> tensor<?x?x1024xf32>
    %985 = "onnx.Mul"(%y_scale_70, %256) {onnx_node_name = "/model/layers.6/attn/k_proj/MatMul_quant_scales_mul"} : (tensor<f32>, tensor<f32>) -> tensor<f32>
    %986 = "onnx.Mul"(%984, %985) {onnx_node_name = "/model/layers.6/attn/k_proj/MatMul_quant_output_scale_mul"} : (tensor<?x?x1024xf32>, tensor<f32>) -> tensor<?x?x1024xf32>
    %987 = "onnx.MatMulInteger"(%y_69, %261, %y_zero_point_71, %260) {onnx_node_name = "/model/layers.6/attn/v_proj/MatMul_quant"} : (tensor<?x?x1024xui8>, tensor<1024x1024xi8>, tensor<ui8>, tensor<i8>) -> tensor<?x?x1024xi32>
    %988 = "onnx.Cast"(%987) {onnx_node_name = "/model/layers.6/attn/v_proj/MatMul/output_0_output_quantized_cast", saturate = 1 : si64, to = f32} : (tensor<?x?x1024xi32>) -> tensor<?x?x1024xf32>
    %989 = "onnx.Mul"(%y_scale_70, %259) {onnx_node_name = "/model/layers.6/attn/v_proj/MatMul_quant_scales_mul"} : (tensor<f32>, tensor<f32>) -> tensor<f32>
    %990 = "onnx.Mul"(%988, %989) {onnx_node_name = "/model/layers.6/attn/v_proj/MatMul_quant_output_scale_mul"} : (tensor<?x?x1024xf32>, tensor<f32>) -> tensor<?x?x1024xf32>
    %991 = "onnx.Reshape"(%982, %6) {allowzero = 0 : si64, onnx_node_name = "/model/layers.6/attn/q_norm/Reshape_1"} : (tensor<?x?x2048xf32>, tensor<3xi64>) -> tensor<?x?x128xf32>
    %992 = "onnx.Reshape"(%986, %6) {allowzero = 0 : si64, onnx_node_name = "/model/layers.6/attn/k_norm/Reshape_1"} : (tensor<?x?x1024xf32>, tensor<3xi64>) -> tensor<?x?x128xf32>
    %993 = "onnx.Custom"(%991, %36) {axis = -1 : si64, domain_name = "", epsilon = 9.99999997E-7 : f32, function_name = "SimplifiedLayerNormalization", onnx_node_name = "/model/layers.6/attn/q_norm/SimplifiedLayerNormalization", stash_type = 1 : si64} : (tensor<?x?x128xf32>, tensor<128xf32>) -> tensor<?x?x128xf32>
    %994 = "onnx.Custom"(%992, %37) {axis = -1 : si64, domain_name = "", epsilon = 9.99999997E-7 : f32, function_name = "SimplifiedLayerNormalization", onnx_node_name = "/model/layers.6/attn/k_norm/SimplifiedLayerNormalization", stash_type = 1 : si64} : (tensor<?x?x128xf32>, tensor<128xf32>) -> tensor<?x?x128xf32>
    %995 = "onnx.Reshape"(%993, %5) {allowzero = 0 : si64, onnx_node_name = "/model/layers.6/attn/q_norm/Reshape_2"} : (tensor<?x?x128xf32>, tensor<3xi64>) -> tensor<?x?x2048xf32>
    %996 = "onnx.Reshape"(%994, %4) {allowzero = 0 : si64, onnx_node_name = "/model/layers.6/attn/k_norm/Reshape_2"} : (tensor<?x?x128xf32>, tensor<3xi64>) -> tensor<?x?x1024xf32>
    %997 = "onnx.Custom"(%995, %740, %12, %13) {domain_name = "com.microsoft", function_name = "RotaryEmbedding", interleaved = 0 : si64, num_heads = 0 : si64, onnx_node_name = "/model/layers.6/attn/q_rotary/RotaryEmbedding", rotary_embedding_dim = 0 : si64} : (tensor<?x?x2048xf32>, tensor<?x?xi64>, tensor<40960x64xf32>, tensor<40960x64xf32>) -> tensor<?x?x2048xf32>
    %998 = "onnx.Custom"(%996, %740, %12, %13) {domain_name = "com.microsoft", function_name = "RotaryEmbedding", interleaved = 0 : si64, num_heads = 0 : si64, onnx_node_name = "/model/layers.6/attn/k_rotary/RotaryEmbedding", rotary_embedding_dim = 0 : si64} : (tensor<?x?x1024xf32>, tensor<?x?xi64>, tensor<40960x64xf32>, tensor<40960x64xf32>) -> tensor<?x?x1024xf32>
    %999:3 = "onnx.Custom"(%997, %998, %990, %arg15, %arg16, %737, %723, %3, %3) {do_rotary = 0 : si64, domain_name = "com.microsoft", function_name = "GroupQueryAttention", kv_num_heads = 8 : si64, num_heads = 16 : si64, onnx_node_name = "/model/layers.6/attn/GroupQueryAttention", rotary_interleaved = 0 : si64, scale = 0.0883883461 : f32, softcap = 0.000000e+00 : f32} : (tensor<?x?x2048xf32>, tensor<?x?x1024xf32>, tensor<?x?x1024xf32>, tensor<?x8x?x128xf32>, tensor<?x8x?x128xf32>, tensor<?x1xi32>, tensor<i32>, none, none) -> (tensor<?x?x2048xf32>, tensor<?x8x?x128xf32>, tensor<?x8x?x128xf32>)
    %y_72, %y_scale_73, %y_zero_point_74 = "onnx.DynamicQuantizeLinear"(%999#0) {onnx_node_name = "/model/layers.6/attn/GroupQueryAttention/output_0_QuantizeLinear"} : (tensor<?x?x2048xf32>) -> (tensor<?x?x2048xui8>, tensor<f32>, tensor<ui8>)
    %1000 = "onnx.MatMulInteger"(%y_72, %264, %y_zero_point_74, %263) {onnx_node_name = "/model/layers.6/attn/o_proj/MatMul_quant"} : (tensor<?x?x2048xui8>, tensor<2048x1024xi8>, tensor<ui8>, tensor<i8>) -> tensor<?x?x1024xi32>
    %1001 = "onnx.Cast"(%1000) {onnx_node_name = "/model/layers.6/attn/o_proj/MatMul/output_0_output_quantized_cast", saturate = 1 : si64, to = f32} : (tensor<?x?x1024xi32>) -> tensor<?x?x1024xf32>
    %1002 = "onnx.Mul"(%y_scale_73, %262) {onnx_node_name = "/model/layers.6/attn/o_proj/MatMul_quant_scales_mul"} : (tensor<f32>, tensor<f32>) -> tensor<f32>
    %1003 = "onnx.Mul"(%1001, %1002) {onnx_node_name = "/model/layers.6/attn/o_proj/MatMul_quant_output_scale_mul"} : (tensor<?x?x1024xf32>, tensor<f32>) -> tensor<?x?x1024xf32>
    %1004:4 = "onnx.Custom"(%978#3, %1003, %38) {domain_name = "com.microsoft", epsilon = 9.99999997E-7 : f32, function_name = "SkipSimplifiedLayerNormalization", onnx_node_name = "/model/layers.6/post_attention_layernorm/SkipLayerNorm"} : (tensor<?x?x1024xf32>, tensor<?x?x1024xf32>, tensor<1024xf32>) -> (tensor<?x?x1024xf32>, none, none, tensor<?x?x1024xf32>)
    %y_75, %y_scale_76, %y_zero_point_77 = "onnx.DynamicQuantizeLinear"(%1004#0) {onnx_node_name = "/model/layers.6/post_attention_layernorm/output_0_QuantizeLinear"} : (tensor<?x?x1024xf32>) -> (tensor<?x?x1024xui8>, tensor<f32>, tensor<ui8>)
    %1005 = "onnx.MatMulInteger"(%y_75, %267, %y_zero_point_77, %266) {onnx_node_name = "/model/layers.6/mlp/gate_proj/MatMul_quant"} : (tensor<?x?x1024xui8>, tensor<1024x3072xi8>, tensor<ui8>, tensor<i8>) -> tensor<?x?x3072xi32>
    %1006 = "onnx.Cast"(%1005) {onnx_node_name = "/model/layers.6/mlp/gate_proj/MatMul/output_0_output_quantized_cast", saturate = 1 : si64, to = f32} : (tensor<?x?x3072xi32>) -> tensor<?x?x3072xf32>
    %1007 = "onnx.Mul"(%y_scale_76, %265) {onnx_node_name = "/model/layers.6/mlp/gate_proj/MatMul_quant_scales_mul"} : (tensor<f32>, tensor<f32>) -> tensor<f32>
    %1008 = "onnx.Mul"(%1006, %1007) {onnx_node_name = "/model/layers.6/mlp/gate_proj/MatMul_quant_output_scale_mul"} : (tensor<?x?x3072xf32>, tensor<f32>) -> tensor<?x?x3072xf32>
    %1009 = "onnx.MatMulInteger"(%y_75, %270, %y_zero_point_77, %269) {onnx_node_name = "/model/layers.6/mlp/up_proj/MatMul_quant"} : (tensor<?x?x1024xui8>, tensor<1024x3072xi8>, tensor<ui8>, tensor<i8>) -> tensor<?x?x3072xi32>
    %1010 = "onnx.Cast"(%1009) {onnx_node_name = "/model/layers.6/mlp/up_proj/MatMul/output_0_output_quantized_cast", saturate = 1 : si64, to = f32} : (tensor<?x?x3072xi32>) -> tensor<?x?x3072xf32>
    %1011 = "onnx.Mul"(%y_scale_76, %268) {onnx_node_name = "/model/layers.6/mlp/up_proj/MatMul_quant_scales_mul"} : (tensor<f32>, tensor<f32>) -> tensor<f32>
    %1012 = "onnx.Mul"(%1010, %1011) {onnx_node_name = "/model/layers.6/mlp/up_proj/MatMul_quant_output_scale_mul"} : (tensor<?x?x3072xf32>, tensor<f32>) -> tensor<?x?x3072xf32>
    %1013 = "onnx.Sigmoid"(%1008) {onnx_node_name = "/model/layers.6/mlp/act_fn/Sigmoid"} : (tensor<?x?x3072xf32>) -> tensor<?x?x3072xf32>
    %1014 = "onnx.Mul"(%1008, %1013) {onnx_node_name = "/model/layers.6/mlp/act_fn/Mul"} : (tensor<?x?x3072xf32>, tensor<?x?x3072xf32>) -> tensor<?x?x3072xf32>
    %1015 = "onnx.Mul"(%1014, %1012) {onnx_node_name = "/model/layers.6/mlp/Mul"} : (tensor<?x?x3072xf32>, tensor<?x?x3072xf32>) -> tensor<?x?x3072xf32>
    %y_78, %y_scale_79, %y_zero_point_80 = "onnx.DynamicQuantizeLinear"(%1015) {onnx_node_name = "/model/layers.6/mlp/Mul/output_0_QuantizeLinear"} : (tensor<?x?x3072xf32>) -> (tensor<?x?x3072xui8>, tensor<f32>, tensor<ui8>)
    %1016 = "onnx.MatMulInteger"(%y_78, %273, %y_zero_point_80, %272) {onnx_node_name = "/model/layers.6/mlp/down_proj/MatMul_quant"} : (tensor<?x?x3072xui8>, tensor<3072x1024xi8>, tensor<ui8>, tensor<i8>) -> tensor<?x?x1024xi32>
    %1017 = "onnx.Cast"(%1016) {onnx_node_name = "/model/layers.6/mlp/down_proj/MatMul/output_0_output_quantized_cast", saturate = 1 : si64, to = f32} : (tensor<?x?x1024xi32>) -> tensor<?x?x1024xf32>
    %1018 = "onnx.Mul"(%y_scale_79, %271) {onnx_node_name = "/model/layers.6/mlp/down_proj/MatMul_quant_scales_mul"} : (tensor<f32>, tensor<f32>) -> tensor<f32>
    %1019 = "onnx.Mul"(%1017, %1018) {onnx_node_name = "/model/layers.6/mlp/down_proj/MatMul_quant_output_scale_mul"} : (tensor<?x?x1024xf32>, tensor<f32>) -> tensor<?x?x1024xf32>
    %1020:4 = "onnx.Custom"(%1004#3, %1019, %39) {domain_name = "com.microsoft", epsilon = 9.99999997E-7 : f32, function_name = "SkipSimplifiedLayerNormalization", onnx_node_name = "/model/layers.7/input_layernorm/SkipLayerNorm"} : (tensor<?x?x1024xf32>, tensor<?x?x1024xf32>, tensor<1024xf32>) -> (tensor<?x?x1024xf32>, none, none, tensor<?x?x1024xf32>)
    %y_81, %y_scale_82, %y_zero_point_83 = "onnx.DynamicQuantizeLinear"(%1020#0) {onnx_node_name = "/model/layers.7/input_layernorm/output_0_QuantizeLinear"} : (tensor<?x?x1024xf32>) -> (tensor<?x?x1024xui8>, tensor<f32>, tensor<ui8>)
    %1021 = "onnx.MatMulInteger"(%y_81, %276, %y_zero_point_83, %275) {onnx_node_name = "/model/layers.7/attn/q_proj/MatMul_quant"} : (tensor<?x?x1024xui8>, tensor<1024x2048xi8>, tensor<ui8>, tensor<i8>) -> tensor<?x?x2048xi32>
    %1022 = "onnx.Cast"(%1021) {onnx_node_name = "/model/layers.7/attn/q_proj/MatMul/output_0_output_quantized_cast", saturate = 1 : si64, to = f32} : (tensor<?x?x2048xi32>) -> tensor<?x?x2048xf32>
    %1023 = "onnx.Mul"(%y_scale_82, %274) {onnx_node_name = "/model/layers.7/attn/q_proj/MatMul_quant_scales_mul"} : (tensor<f32>, tensor<f32>) -> tensor<f32>
    %1024 = "onnx.Mul"(%1022, %1023) {onnx_node_name = "/model/layers.7/attn/q_proj/MatMul_quant_output_scale_mul"} : (tensor<?x?x2048xf32>, tensor<f32>) -> tensor<?x?x2048xf32>
    %1025 = "onnx.MatMulInteger"(%y_81, %279, %y_zero_point_83, %278) {onnx_node_name = "/model/layers.7/attn/k_proj/MatMul_quant"} : (tensor<?x?x1024xui8>, tensor<1024x1024xi8>, tensor<ui8>, tensor<i8>) -> tensor<?x?x1024xi32>
    %1026 = "onnx.Cast"(%1025) {onnx_node_name = "/model/layers.7/attn/k_proj/MatMul/output_0_output_quantized_cast", saturate = 1 : si64, to = f32} : (tensor<?x?x1024xi32>) -> tensor<?x?x1024xf32>
    %1027 = "onnx.Mul"(%y_scale_82, %277) {onnx_node_name = "/model/layers.7/attn/k_proj/MatMul_quant_scales_mul"} : (tensor<f32>, tensor<f32>) -> tensor<f32>
    %1028 = "onnx.Mul"(%1026, %1027) {onnx_node_name = "/model/layers.7/attn/k_proj/MatMul_quant_output_scale_mul"} : (tensor<?x?x1024xf32>, tensor<f32>) -> tensor<?x?x1024xf32>
    %1029 = "onnx.MatMulInteger"(%y_81, %282, %y_zero_point_83, %281) {onnx_node_name = "/model/layers.7/attn/v_proj/MatMul_quant"} : (tensor<?x?x1024xui8>, tensor<1024x1024xi8>, tensor<ui8>, tensor<i8>) -> tensor<?x?x1024xi32>
    %1030 = "onnx.Cast"(%1029) {onnx_node_name = "/model/layers.7/attn/v_proj/MatMul/output_0_output_quantized_cast", saturate = 1 : si64, to = f32} : (tensor<?x?x1024xi32>) -> tensor<?x?x1024xf32>
    %1031 = "onnx.Mul"(%y_scale_82, %280) {onnx_node_name = "/model/layers.7/attn/v_proj/MatMul_quant_scales_mul"} : (tensor<f32>, tensor<f32>) -> tensor<f32>
    %1032 = "onnx.Mul"(%1030, %1031) {onnx_node_name = "/model/layers.7/attn/v_proj/MatMul_quant_output_scale_mul"} : (tensor<?x?x1024xf32>, tensor<f32>) -> tensor<?x?x1024xf32>
    %1033 = "onnx.Reshape"(%1024, %6) {allowzero = 0 : si64, onnx_node_name = "/model/layers.7/attn/q_norm/Reshape_1"} : (tensor<?x?x2048xf32>, tensor<3xi64>) -> tensor<?x?x128xf32>
    %1034 = "onnx.Reshape"(%1028, %6) {allowzero = 0 : si64, onnx_node_name = "/model/layers.7/attn/k_norm/Reshape_1"} : (tensor<?x?x1024xf32>, tensor<3xi64>) -> tensor<?x?x128xf32>
    %1035 = "onnx.Custom"(%1033, %40) {axis = -1 : si64, domain_name = "", epsilon = 9.99999997E-7 : f32, function_name = "SimplifiedLayerNormalization", onnx_node_name = "/model/layers.7/attn/q_norm/SimplifiedLayerNormalization", stash_type = 1 : si64} : (tensor<?x?x128xf32>, tensor<128xf32>) -> tensor<?x?x128xf32>
    %1036 = "onnx.Custom"(%1034, %41) {axis = -1 : si64, domain_name = "", epsilon = 9.99999997E-7 : f32, function_name = "SimplifiedLayerNormalization", onnx_node_name = "/model/layers.7/attn/k_norm/SimplifiedLayerNormalization", stash_type = 1 : si64} : (tensor<?x?x128xf32>, tensor<128xf32>) -> tensor<?x?x128xf32>
    %1037 = "onnx.Reshape"(%1035, %5) {allowzero = 0 : si64, onnx_node_name = "/model/layers.7/attn/q_norm/Reshape_2"} : (tensor<?x?x128xf32>, tensor<3xi64>) -> tensor<?x?x2048xf32>
    %1038 = "onnx.Reshape"(%1036, %4) {allowzero = 0 : si64, onnx_node_name = "/model/layers.7/attn/k_norm/Reshape_2"} : (tensor<?x?x128xf32>, tensor<3xi64>) -> tensor<?x?x1024xf32>
    %1039 = "onnx.Custom"(%1037, %740, %12, %13) {domain_name = "com.microsoft", function_name = "RotaryEmbedding", interleaved = 0 : si64, num_heads = 0 : si64, onnx_node_name = "/model/layers.7/attn/q_rotary/RotaryEmbedding", rotary_embedding_dim = 0 : si64} : (tensor<?x?x2048xf32>, tensor<?x?xi64>, tensor<40960x64xf32>, tensor<40960x64xf32>) -> tensor<?x?x2048xf32>
    %1040 = "onnx.Custom"(%1038, %740, %12, %13) {domain_name = "com.microsoft", function_name = "RotaryEmbedding", interleaved = 0 : si64, num_heads = 0 : si64, onnx_node_name = "/model/layers.7/attn/k_rotary/RotaryEmbedding", rotary_embedding_dim = 0 : si64} : (tensor<?x?x1024xf32>, tensor<?x?xi64>, tensor<40960x64xf32>, tensor<40960x64xf32>) -> tensor<?x?x1024xf32>
    %1041:3 = "onnx.Custom"(%1039, %1040, %1032, %arg17, %arg18, %737, %723, %3, %3) {do_rotary = 0 : si64, domain_name = "com.microsoft", function_name = "GroupQueryAttention", kv_num_heads = 8 : si64, num_heads = 16 : si64, onnx_node_name = "/model/layers.7/attn/GroupQueryAttention", rotary_interleaved = 0 : si64, scale = 0.0883883461 : f32, softcap = 0.000000e+00 : f32} : (tensor<?x?x2048xf32>, tensor<?x?x1024xf32>, tensor<?x?x1024xf32>, tensor<?x8x?x128xf32>, tensor<?x8x?x128xf32>, tensor<?x1xi32>, tensor<i32>, none, none) -> (tensor<?x?x2048xf32>, tensor<?x8x?x128xf32>, tensor<?x8x?x128xf32>)
    %y_84, %y_scale_85, %y_zero_point_86 = "onnx.DynamicQuantizeLinear"(%1041#0) {onnx_node_name = "/model/layers.7/attn/GroupQueryAttention/output_0_QuantizeLinear"} : (tensor<?x?x2048xf32>) -> (tensor<?x?x2048xui8>, tensor<f32>, tensor<ui8>)
    %1042 = "onnx.MatMulInteger"(%y_84, %285, %y_zero_point_86, %284) {onnx_node_name = "/model/layers.7/attn/o_proj/MatMul_quant"} : (tensor<?x?x2048xui8>, tensor<2048x1024xi8>, tensor<ui8>, tensor<i8>) -> tensor<?x?x1024xi32>
    %1043 = "onnx.Cast"(%1042) {onnx_node_name = "/model/layers.7/attn/o_proj/MatMul/output_0_output_quantized_cast", saturate = 1 : si64, to = f32} : (tensor<?x?x1024xi32>) -> tensor<?x?x1024xf32>
    %1044 = "onnx.Mul"(%y_scale_85, %283) {onnx_node_name = "/model/layers.7/attn/o_proj/MatMul_quant_scales_mul"} : (tensor<f32>, tensor<f32>) -> tensor<f32>
    %1045 = "onnx.Mul"(%1043, %1044) {onnx_node_name = "/model/layers.7/attn/o_proj/MatMul_quant_output_scale_mul"} : (tensor<?x?x1024xf32>, tensor<f32>) -> tensor<?x?x1024xf32>
    %1046:4 = "onnx.Custom"(%1020#3, %1045, %42) {domain_name = "com.microsoft", epsilon = 9.99999997E-7 : f32, function_name = "SkipSimplifiedLayerNormalization", onnx_node_name = "/model/layers.7/post_attention_layernorm/SkipLayerNorm"} : (tensor<?x?x1024xf32>, tensor<?x?x1024xf32>, tensor<1024xf32>) -> (tensor<?x?x1024xf32>, none, none, tensor<?x?x1024xf32>)
    %y_87, %y_scale_88, %y_zero_point_89 = "onnx.DynamicQuantizeLinear"(%1046#0) {onnx_node_name = "/model/layers.7/post_attention_layernorm/output_0_QuantizeLinear"} : (tensor<?x?x1024xf32>) -> (tensor<?x?x1024xui8>, tensor<f32>, tensor<ui8>)
    %1047 = "onnx.MatMulInteger"(%y_87, %288, %y_zero_point_89, %287) {onnx_node_name = "/model/layers.7/mlp/gate_proj/MatMul_quant"} : (tensor<?x?x1024xui8>, tensor<1024x3072xi8>, tensor<ui8>, tensor<i8>) -> tensor<?x?x3072xi32>
    %1048 = "onnx.Cast"(%1047) {onnx_node_name = "/model/layers.7/mlp/gate_proj/MatMul/output_0_output_quantized_cast", saturate = 1 : si64, to = f32} : (tensor<?x?x3072xi32>) -> tensor<?x?x3072xf32>
    %1049 = "onnx.Mul"(%y_scale_88, %286) {onnx_node_name = "/model/layers.7/mlp/gate_proj/MatMul_quant_scales_mul"} : (tensor<f32>, tensor<f32>) -> tensor<f32>
    %1050 = "onnx.Mul"(%1048, %1049) {onnx_node_name = "/model/layers.7/mlp/gate_proj/MatMul_quant_output_scale_mul"} : (tensor<?x?x3072xf32>, tensor<f32>) -> tensor<?x?x3072xf32>
    %1051 = "onnx.MatMulInteger"(%y_87, %291, %y_zero_point_89, %290) {onnx_node_name = "/model/layers.7/mlp/up_proj/MatMul_quant"} : (tensor<?x?x1024xui8>, tensor<1024x3072xi8>, tensor<ui8>, tensor<i8>) -> tensor<?x?x3072xi32>
    %1052 = "onnx.Cast"(%1051) {onnx_node_name = "/model/layers.7/mlp/up_proj/MatMul/output_0_output_quantized_cast", saturate = 1 : si64, to = f32} : (tensor<?x?x3072xi32>) -> tensor<?x?x3072xf32>
    %1053 = "onnx.Mul"(%y_scale_88, %289) {onnx_node_name = "/model/layers.7/mlp/up_proj/MatMul_quant_scales_mul"} : (tensor<f32>, tensor<f32>) -> tensor<f32>
    %1054 = "onnx.Mul"(%1052, %1053) {onnx_node_name = "/model/layers.7/mlp/up_proj/MatMul_quant_output_scale_mul"} : (tensor<?x?x3072xf32>, tensor<f32>) -> tensor<?x?x3072xf32>
    %1055 = "onnx.Sigmoid"(%1050) {onnx_node_name = "/model/layers.7/mlp/act_fn/Sigmoid"} : (tensor<?x?x3072xf32>) -> tensor<?x?x3072xf32>
    %1056 = "onnx.Mul"(%1050, %1055) {onnx_node_name = "/model/layers.7/mlp/act_fn/Mul"} : (tensor<?x?x3072xf32>, tensor<?x?x3072xf32>) -> tensor<?x?x3072xf32>
    %1057 = "onnx.Mul"(%1056, %1054) {onnx_node_name = "/model/layers.7/mlp/Mul"} : (tensor<?x?x3072xf32>, tensor<?x?x3072xf32>) -> tensor<?x?x3072xf32>
    %y_90, %y_scale_91, %y_zero_point_92 = "onnx.DynamicQuantizeLinear"(%1057) {onnx_node_name = "/model/layers.7/mlp/Mul/output_0_QuantizeLinear"} : (tensor<?x?x3072xf32>) -> (tensor<?x?x3072xui8>, tensor<f32>, tensor<ui8>)
    %1058 = "onnx.MatMulInteger"(%y_90, %294, %y_zero_point_92, %293) {onnx_node_name = "/model/layers.7/mlp/down_proj/MatMul_quant"} : (tensor<?x?x3072xui8>, tensor<3072x1024xi8>, tensor<ui8>, tensor<i8>) -> tensor<?x?x1024xi32>
    %1059 = "onnx.Cast"(%1058) {onnx_node_name = "/model/layers.7/mlp/down_proj/MatMul/output_0_output_quantized_cast", saturate = 1 : si64, to = f32} : (tensor<?x?x1024xi32>) -> tensor<?x?x1024xf32>
    %1060 = "onnx.Mul"(%y_scale_91, %292) {onnx_node_name = "/model/layers.7/mlp/down_proj/MatMul_quant_scales_mul"} : (tensor<f32>, tensor<f32>) -> tensor<f32>
    %1061 = "onnx.Mul"(%1059, %1060) {onnx_node_name = "/model/layers.7/mlp/down_proj/MatMul_quant_output_scale_mul"} : (tensor<?x?x1024xf32>, tensor<f32>) -> tensor<?x?x1024xf32>
    %1062:4 = "onnx.Custom"(%1046#3, %1061, %43) {domain_name = "com.microsoft", epsilon = 9.99999997E-7 : f32, function_name = "SkipSimplifiedLayerNormalization", onnx_node_name = "/model/layers.8/input_layernorm/SkipLayerNorm"} : (tensor<?x?x1024xf32>, tensor<?x?x1024xf32>, tensor<1024xf32>) -> (tensor<?x?x1024xf32>, none, none, tensor<?x?x1024xf32>)
    %y_93, %y_scale_94, %y_zero_point_95 = "onnx.DynamicQuantizeLinear"(%1062#0) {onnx_node_name = "/model/layers.8/input_layernorm/output_0_QuantizeLinear"} : (tensor<?x?x1024xf32>) -> (tensor<?x?x1024xui8>, tensor<f32>, tensor<ui8>)
    %1063 = "onnx.MatMulInteger"(%y_93, %297, %y_zero_point_95, %296) {onnx_node_name = "/model/layers.8/attn/q_proj/MatMul_quant"} : (tensor<?x?x1024xui8>, tensor<1024x2048xi8>, tensor<ui8>, tensor<i8>) -> tensor<?x?x2048xi32>
    %1064 = "onnx.Cast"(%1063) {onnx_node_name = "/model/layers.8/attn/q_proj/MatMul/output_0_output_quantized_cast", saturate = 1 : si64, to = f32} : (tensor<?x?x2048xi32>) -> tensor<?x?x2048xf32>
    %1065 = "onnx.Mul"(%y_scale_94, %295) {onnx_node_name = "/model/layers.8/attn/q_proj/MatMul_quant_scales_mul"} : (tensor<f32>, tensor<f32>) -> tensor<f32>
    %1066 = "onnx.Mul"(%1064, %1065) {onnx_node_name = "/model/layers.8/attn/q_proj/MatMul_quant_output_scale_mul"} : (tensor<?x?x2048xf32>, tensor<f32>) -> tensor<?x?x2048xf32>
    %1067 = "onnx.MatMulInteger"(%y_93, %300, %y_zero_point_95, %299) {onnx_node_name = "/model/layers.8/attn/k_proj/MatMul_quant"} : (tensor<?x?x1024xui8>, tensor<1024x1024xi8>, tensor<ui8>, tensor<i8>) -> tensor<?x?x1024xi32>
    %1068 = "onnx.Cast"(%1067) {onnx_node_name = "/model/layers.8/attn/k_proj/MatMul/output_0_output_quantized_cast", saturate = 1 : si64, to = f32} : (tensor<?x?x1024xi32>) -> tensor<?x?x1024xf32>
    %1069 = "onnx.Mul"(%y_scale_94, %298) {onnx_node_name = "/model/layers.8/attn/k_proj/MatMul_quant_scales_mul"} : (tensor<f32>, tensor<f32>) -> tensor<f32>
    %1070 = "onnx.Mul"(%1068, %1069) {onnx_node_name = "/model/layers.8/attn/k_proj/MatMul_quant_output_scale_mul"} : (tensor<?x?x1024xf32>, tensor<f32>) -> tensor<?x?x1024xf32>
    %1071 = "onnx.MatMulInteger"(%y_93, %303, %y_zero_point_95, %302) {onnx_node_name = "/model/layers.8/attn/v_proj/MatMul_quant"} : (tensor<?x?x1024xui8>, tensor<1024x1024xi8>, tensor<ui8>, tensor<i8>) -> tensor<?x?x1024xi32>
    %1072 = "onnx.Cast"(%1071) {onnx_node_name = "/model/layers.8/attn/v_proj/MatMul/output_0_output_quantized_cast", saturate = 1 : si64, to = f32} : (tensor<?x?x1024xi32>) -> tensor<?x?x1024xf32>
    %1073 = "onnx.Mul"(%y_scale_94, %301) {onnx_node_name = "/model/layers.8/attn/v_proj/MatMul_quant_scales_mul"} : (tensor<f32>, tensor<f32>) -> tensor<f32>
    %1074 = "onnx.Mul"(%1072, %1073) {onnx_node_name = "/model/layers.8/attn/v_proj/MatMul_quant_output_scale_mul"} : (tensor<?x?x1024xf32>, tensor<f32>) -> tensor<?x?x1024xf32>
    %1075 = "onnx.Reshape"(%1066, %6) {allowzero = 0 : si64, onnx_node_name = "/model/layers.8/attn/q_norm/Reshape_1"} : (tensor<?x?x2048xf32>, tensor<3xi64>) -> tensor<?x?x128xf32>
    %1076 = "onnx.Reshape"(%1070, %6) {allowzero = 0 : si64, onnx_node_name = "/model/layers.8/attn/k_norm/Reshape_1"} : (tensor<?x?x1024xf32>, tensor<3xi64>) -> tensor<?x?x128xf32>
    %1077 = "onnx.Custom"(%1075, %44) {axis = -1 : si64, domain_name = "", epsilon = 9.99999997E-7 : f32, function_name = "SimplifiedLayerNormalization", onnx_node_name = "/model/layers.8/attn/q_norm/SimplifiedLayerNormalization", stash_type = 1 : si64} : (tensor<?x?x128xf32>, tensor<128xf32>) -> tensor<?x?x128xf32>
    %1078 = "onnx.Custom"(%1076, %45) {axis = -1 : si64, domain_name = "", epsilon = 9.99999997E-7 : f32, function_name = "SimplifiedLayerNormalization", onnx_node_name = "/model/layers.8/attn/k_norm/SimplifiedLayerNormalization", stash_type = 1 : si64} : (tensor<?x?x128xf32>, tensor<128xf32>) -> tensor<?x?x128xf32>
    %1079 = "onnx.Reshape"(%1077, %5) {allowzero = 0 : si64, onnx_node_name = "/model/layers.8/attn/q_norm/Reshape_2"} : (tensor<?x?x128xf32>, tensor<3xi64>) -> tensor<?x?x2048xf32>
    %1080 = "onnx.Reshape"(%1078, %4) {allowzero = 0 : si64, onnx_node_name = "/model/layers.8/attn/k_norm/Reshape_2"} : (tensor<?x?x128xf32>, tensor<3xi64>) -> tensor<?x?x1024xf32>
    %1081 = "onnx.Custom"(%1079, %740, %12, %13) {domain_name = "com.microsoft", function_name = "RotaryEmbedding", interleaved = 0 : si64, num_heads = 0 : si64, onnx_node_name = "/model/layers.8/attn/q_rotary/RotaryEmbedding", rotary_embedding_dim = 0 : si64} : (tensor<?x?x2048xf32>, tensor<?x?xi64>, tensor<40960x64xf32>, tensor<40960x64xf32>) -> tensor<?x?x2048xf32>
    %1082 = "onnx.Custom"(%1080, %740, %12, %13) {domain_name = "com.microsoft", function_name = "RotaryEmbedding", interleaved = 0 : si64, num_heads = 0 : si64, onnx_node_name = "/model/layers.8/attn/k_rotary/RotaryEmbedding", rotary_embedding_dim = 0 : si64} : (tensor<?x?x1024xf32>, tensor<?x?xi64>, tensor<40960x64xf32>, tensor<40960x64xf32>) -> tensor<?x?x1024xf32>
    %1083:3 = "onnx.Custom"(%1081, %1082, %1074, %arg19, %arg20, %737, %723, %3, %3) {do_rotary = 0 : si64, domain_name = "com.microsoft", function_name = "GroupQueryAttention", kv_num_heads = 8 : si64, num_heads = 16 : si64, onnx_node_name = "/model/layers.8/attn/GroupQueryAttention", rotary_interleaved = 0 : si64, scale = 0.0883883461 : f32, softcap = 0.000000e+00 : f32} : (tensor<?x?x2048xf32>, tensor<?x?x1024xf32>, tensor<?x?x1024xf32>, tensor<?x8x?x128xf32>, tensor<?x8x?x128xf32>, tensor<?x1xi32>, tensor<i32>, none, none) -> (tensor<?x?x2048xf32>, tensor<?x8x?x128xf32>, tensor<?x8x?x128xf32>)
    %y_96, %y_scale_97, %y_zero_point_98 = "onnx.DynamicQuantizeLinear"(%1083#0) {onnx_node_name = "/model/layers.8/attn/GroupQueryAttention/output_0_QuantizeLinear"} : (tensor<?x?x2048xf32>) -> (tensor<?x?x2048xui8>, tensor<f32>, tensor<ui8>)
    %1084 = "onnx.MatMulInteger"(%y_96, %306, %y_zero_point_98, %305) {onnx_node_name = "/model/layers.8/attn/o_proj/MatMul_quant"} : (tensor<?x?x2048xui8>, tensor<2048x1024xi8>, tensor<ui8>, tensor<i8>) -> tensor<?x?x1024xi32>
    %1085 = "onnx.Cast"(%1084) {onnx_node_name = "/model/layers.8/attn/o_proj/MatMul/output_0_output_quantized_cast", saturate = 1 : si64, to = f32} : (tensor<?x?x1024xi32>) -> tensor<?x?x1024xf32>
    %1086 = "onnx.Mul"(%y_scale_97, %304) {onnx_node_name = "/model/layers.8/attn/o_proj/MatMul_quant_scales_mul"} : (tensor<f32>, tensor<f32>) -> tensor<f32>
    %1087 = "onnx.Mul"(%1085, %1086) {onnx_node_name = "/model/layers.8/attn/o_proj/MatMul_quant_output_scale_mul"} : (tensor<?x?x1024xf32>, tensor<f32>) -> tensor<?x?x1024xf32>
    %1088:4 = "onnx.Custom"(%1062#3, %1087, %46) {domain_name = "com.microsoft", epsilon = 9.99999997E-7 : f32, function_name = "SkipSimplifiedLayerNormalization", onnx_node_name = "/model/layers.8/post_attention_layernorm/SkipLayerNorm"} : (tensor<?x?x1024xf32>, tensor<?x?x1024xf32>, tensor<1024xf32>) -> (tensor<?x?x1024xf32>, none, none, tensor<?x?x1024xf32>)
    %y_99, %y_scale_100, %y_zero_point_101 = "onnx.DynamicQuantizeLinear"(%1088#0) {onnx_node_name = "/model/layers.8/post_attention_layernorm/output_0_QuantizeLinear"} : (tensor<?x?x1024xf32>) -> (tensor<?x?x1024xui8>, tensor<f32>, tensor<ui8>)
    %1089 = "onnx.MatMulInteger"(%y_99, %309, %y_zero_point_101, %308) {onnx_node_name = "/model/layers.8/mlp/gate_proj/MatMul_quant"} : (tensor<?x?x1024xui8>, tensor<1024x3072xi8>, tensor<ui8>, tensor<i8>) -> tensor<?x?x3072xi32>
    %1090 = "onnx.Cast"(%1089) {onnx_node_name = "/model/layers.8/mlp/gate_proj/MatMul/output_0_output_quantized_cast", saturate = 1 : si64, to = f32} : (tensor<?x?x3072xi32>) -> tensor<?x?x3072xf32>
    %1091 = "onnx.Mul"(%y_scale_100, %307) {onnx_node_name = "/model/layers.8/mlp/gate_proj/MatMul_quant_scales_mul"} : (tensor<f32>, tensor<f32>) -> tensor<f32>
    %1092 = "onnx.Mul"(%1090, %1091) {onnx_node_name = "/model/layers.8/mlp/gate_proj/MatMul_quant_output_scale_mul"} : (tensor<?x?x3072xf32>, tensor<f32>) -> tensor<?x?x3072xf32>
    %1093 = "onnx.MatMulInteger"(%y_99, %312, %y_zero_point_101, %311) {onnx_node_name = "/model/layers.8/mlp/up_proj/MatMul_quant"} : (tensor<?x?x1024xui8>, tensor<1024x3072xi8>, tensor<ui8>, tensor<i8>) -> tensor<?x?x3072xi32>
    %1094 = "onnx.Cast"(%1093) {onnx_node_name = "/model/layers.8/mlp/up_proj/MatMul/output_0_output_quantized_cast", saturate = 1 : si64, to = f32} : (tensor<?x?x3072xi32>) -> tensor<?x?x3072xf32>
    %1095 = "onnx.Mul"(%y_scale_100, %310) {onnx_node_name = "/model/layers.8/mlp/up_proj/MatMul_quant_scales_mul"} : (tensor<f32>, tensor<f32>) -> tensor<f32>
    %1096 = "onnx.Mul"(%1094, %1095) {onnx_node_name = "/model/layers.8/mlp/up_proj/MatMul_quant_output_scale_mul"} : (tensor<?x?x3072xf32>, tensor<f32>) -> tensor<?x?x3072xf32>
…
    %1709 = "onnx.Reshape"(%1707, %5) {allowzero = 0 : si64, onnx_node_name = "/model/layers.23/attn/q_norm/Reshape_2"} : (tensor<?x?x128xf32>, tensor<3xi64>) -> tensor<?x?x2048xf32>
    %1710 = "onnx.Reshape"(%1708, %4) {allowzero = 0 : si64, onnx_node_name = "/model/layers.23/attn/k_norm/Reshape_2"} : (tensor<?x?x128xf32>, tensor<3xi64>) -> tensor<?x?x1024xf32>
    %1711 = "onnx.Custom"(%1709, %740, %12, %13) {domain_name = "com.microsoft", function_name = "RotaryEmbedding", interleaved = 0 : si64, num_heads = 0 : si64, onnx_node_name = "/model/layers.23/attn/q_rotary/RotaryEmbedding", rotary_embedding_dim = 0 : si64} : (tensor<?x?x2048xf32>, tensor<?x?xi64>, tensor<40960x64xf32>, tensor<40960x64xf32>) -> tensor<?x?x2048xf32>
    %1712 = "onnx.Custom"(%1710, %740, %12, %13) {domain_name = "com.microsoft", function_name = "RotaryEmbedding", interleaved = 0 : si64, num_heads = 0 : si64, onnx_node_name = "/model/layers.23/attn/k_rotary/RotaryEmbedding", rotary_embedding_dim = 0 : si64} : (tensor<?x?x1024xf32>, tensor<?x?xi64>, tensor<40960x64xf32>, tensor<40960x64xf32>) -> tensor<?x?x1024xf32>
    %1713:3 = "onnx.Custom"(%1711, %1712, %1704, %arg49, %arg50, %737, %723, %3, %3) {do_rotary = 0 : si64, domain_name = "com.microsoft", function_name = "GroupQueryAttention", kv_num_heads = 8 : si64, num_heads = 16 : si64, onnx_node_name = "/model/layers.23/attn/GroupQueryAttention", rotary_interleaved = 0 : si64, scale = 0.0883883461 : f32, softcap = 0.000000e+00 : f32} : (tensor<?x?x2048xf32>, tensor<?x?x1024xf32>, tensor<?x?x1024xf32>, tensor<?x8x?x128xf32>, tensor<?x8x?x128xf32>, tensor<?x1xi32>, tensor<i32>, none, none) -> (tensor<?x?x2048xf32>, tensor<?x8x?x128xf32>, tensor<?x8x?x128xf32>)
    %y_276, %y_scale_277, %y_zero_point_278 = "onnx.DynamicQuantizeLinear"(%1713#0) {onnx_node_name = "/model/layers.23/attn/GroupQueryAttention/output_0_QuantizeLinear"} : (tensor<?x?x2048xf32>) -> (tensor<?x?x2048xui8>, tensor<f32>, tensor<ui8>)
    %1714 = "onnx.MatMulInteger"(%y_276, %621, %y_zero_point_278, %620) {onnx_node_name = "/model/layers.23/attn/o_proj/MatMul_quant"} : (tensor<?x?x2048xui8>, tensor<2048x1024xi8>, tensor<ui8>, tensor<i8>) -> tensor<?x?x1024xi32>
    %1715 = "onnx.Cast"(%1714) {onnx_node_name = "/model/layers.23/attn/o_proj/MatMul/output_0_output_quantized_cast", saturate = 1 : si64, to = f32} : (tensor<?x?x1024xi32>) -> tensor<?x?x1024xf32>
    %1716 = "onnx.Mul"(%y_scale_277, %619) {onnx_node_name = "/model/layers.23/attn/o_proj/MatMul_quant_scales_mul"} : (tensor<f32>, tensor<f32>) -> tensor<f32>
    %1717 = "onnx.Mul"(%1715, %1716) {onnx_node_name = "/model/layers.23/attn/o_proj/MatMul_quant_output_scale_mul"} : (tensor<?x?x1024xf32>, tensor<f32>) -> tensor<?x?x1024xf32>
    %1718:4 = "onnx.Custom"(%1692#3, %1717, %106) {domain_name = "com.microsoft", epsilon = 9.99999997E-7 : f32, function_name = "SkipSimplifiedLayerNormalization", onnx_node_name = "/model/layers.23/post_attention_layernorm/SkipLayerNorm"} : (tensor<?x?x1024xf32>, tensor<?x?x1024xf32>, tensor<1024xf32>) -> (tensor<?x?x1024xf32>, none, none, tensor<?x?x1024xf32>)
    %y_279, %y_scale_280, %y_zero_point_281 = "onnx.DynamicQuantizeLinear"(%1718#0) {onnx_node_name = "/model/layers.23/post_attention_layernorm/output_0_QuantizeLinear"} : (tensor<?x?x1024xf32>) -> (tensor<?x?x1024xui8>, tensor<f32>, tensor<ui8>)
    %1719 = "onnx.MatMulInteger"(%y_279, %624, %y_zero_point_281, %623) {onnx_node_name = "/model/layers.23/mlp/gate_proj/MatMul_quant"} : (tensor<?x?x1024xui8>, tensor<1024x3072xi8>, tensor<ui8>, tensor<i8>) -> tensor<?x?x3072xi32>
    %1720 = "onnx.Cast"(%1719) {onnx_node_name = "/model/layers.23/mlp/gate_proj/MatMul/output_0_output_quantized_cast", saturate = 1 : si64, to = f32} : (tensor<?x?x3072xi32>) -> tensor<?x?x3072xf32>
    %1721 = "onnx.Mul"(%y_scale_280, %622) {onnx_node_name = "/model/layers.23/mlp/gate_proj/MatMul_quant_scales_mul"} : (tensor<f32>, tensor<f32>) -> tensor<f32>
    %1722 = "onnx.Mul"(%1720, %1721) {onnx_node_name = "/model/layers.23/mlp/gate_proj/MatMul_quant_output_scale_mul"} : (tensor<?x?x3072xf32>, tensor<f32>) -> tensor<?x?x3072xf32>
    %1723 = "onnx.MatMulInteger"(%y_279, %627, %y_zero_point_281, %626) {onnx_node_name = "/model/layers.23/mlp/up_proj/MatMul_quant"} : (tensor<?x?x1024xui8>, tensor<1024x3072xi8>, tensor<ui8>, tensor<i8>) -> tensor<?x?x3072xi32>
    %1724 = "onnx.Cast"(%1723) {onnx_node_name = "/model/layers.23/mlp/up_proj/MatMul/output_0_output_quantized_cast", saturate = 1 : si64, to = f32} : (tensor<?x?x3072xi32>) -> tensor<?x?x3072xf32>
    %1725 = "onnx.Mul"(%y_scale_280, %625) {onnx_node_name = "/model/layers.23/mlp/up_proj/MatMul_quant_scales_mul"} : (tensor<f32>, tensor<f32>) -> tensor<f32>
    %1726 = "onnx.Mul"(%1724, %1725) {onnx_node_name = "/model/layers.23/mlp/up_proj/MatMul_quant_output_scale_mul"} : (tensor<?x?x3072xf32>, tensor<f32>) -> tensor<?x?x3072xf32>
    %1727 = "onnx.Sigmoid"(%1722) {onnx_node_name = "/model/layers.23/mlp/act_fn/Sigmoid"} : (tensor<?x?x3072xf32>) -> tensor<?x?x3072xf32>
    %1728 = "onnx.Mul"(%1722, %1727) {onnx_node_name = "/model/layers.23/mlp/act_fn/Mul"} : (tensor<?x?x3072xf32>, tensor<?x?x3072xf32>) -> tensor<?x?x3072xf32>
    %1729 = "onnx.Mul"(%1728, %1726) {onnx_node_name = "/model/layers.23/mlp/Mul"} : (tensor<?x?x3072xf32>, tensor<?x?x3072xf32>) -> tensor<?x?x3072xf32>
    %y_282, %y_scale_283, %y_zero_point_284 = "onnx.DynamicQuantizeLinear"(%1729) {onnx_node_name = "/model/layers.23/mlp/Mul/output_0_QuantizeLinear"} : (tensor<?x?x3072xf32>) -> (tensor<?x?x3072xui8>, tensor<f32>, tensor<ui8>)
    %1730 = "onnx.MatMulInteger"(%y_282, %630, %y_zero_point_284, %629) {onnx_node_name = "/model/layers.23/mlp/down_proj/MatMul_quant"} : (tensor<?x?x3072xui8>, tensor<3072x1024xi8>, tensor<ui8>, tensor<i8>) -> tensor<?x?x1024xi32>
    %1731 = "onnx.Cast"(%1730) {onnx_node_name = "/model/layers.23/mlp/down_proj/MatMul/output_0_output_quantized_cast", saturate = 1 : si64, to = f32} : (tensor<?x?x1024xi32>) -> tensor<?x?x1024xf32>
    %1732 = "onnx.Mul"(%y_scale_283, %628) {onnx_node_name = "/model/layers.23/mlp/down_proj/MatMul_quant_scales_mul"} : (tensor<f32>, tensor<f32>) -> tensor<f32>
    %1733 = "onnx.Mul"(%1731, %1732) {onnx_node_name = "/model/layers.23/mlp/down_proj/MatMul_quant_output_scale_mul"} : (tensor<?x?x1024xf32>, tensor<f32>) -> tensor<?x?x1024xf32>
    %1734:4 = "onnx.Custom"(%1718#3, %1733, %107) {domain_name = "com.microsoft", epsilon = 9.99999997E-7 : f32, function_name = "SkipSimplifiedLayerNormalization", onnx_node_name = "/model/layers.24/input_layernorm/SkipLayerNorm"} : (tensor<?x?x1024xf32>, tensor<?x?x1024xf32>, tensor<1024xf32>) -> (tensor<?x?x1024xf32>, none, none, tensor<?x?x1024xf32>)
    %y_285, %y_scale_286, %y_zero_point_287 = "onnx.DynamicQuantizeLinear"(%1734#0) {onnx_node_name = "/model/layers.24/input_layernorm/output_0_QuantizeLinear"} : (tensor<?x?x1024xf32>) -> (tensor<?x?x1024xui8>, tensor<f32>, tensor<ui8>)
    %1735 = "onnx.MatMulInteger"(%y_285, %633, %y_zero_point_287, %632) {onnx_node_name = "/model/layers.24/attn/q_proj/MatMul_quant"} : (tensor<?x?x1024xui8>, tensor<1024x2048xi8>, tensor<ui8>, tensor<i8>) -> tensor<?x?x2048xi32>
    %1736 = "onnx.Cast"(%1735) {onnx_node_name = "/model/layers.24/attn/q_proj/MatMul/output_0_output_quantized_cast", saturate = 1 : si64, to = f32} : (tensor<?x?x2048xi32>) -> tensor<?x?x2048xf32>
    %1737 = "onnx.Mul"(%y_scale_286, %631) {onnx_node_name = "/model/layers.24/attn/q_proj/MatMul_quant_scales_mul"} : (tensor<f32>, tensor<f32>) -> tensor<f32>
    %1738 = "onnx.Mul"(%1736, %1737) {onnx_node_name = "/model/layers.24/attn/q_proj/MatMul_quant_output_scale_mul"} : (tensor<?x?x2048xf32>, tensor<f32>) -> tensor<?x?x2048xf32>
    %1739 = "onnx.MatMulInteger"(%y_285, %636, %y_zero_point_287, %635) {onnx_node_name = "/model/layers.24/attn/k_proj/MatMul_quant"} : (tensor<?x?x1024xui8>, tensor<1024x1024xi8>, tensor<ui8>, tensor<i8>) -> tensor<?x?x1024xi32>
    %1740 = "onnx.Cast"(%1739) {onnx_node_name = "/model/layers.24/attn/k_proj/MatMul/output_0_output_quantized_cast", saturate = 1 : si64, to = f32} : (tensor<?x?x1024xi32>) -> tensor<?x?x1024xf32>
    %1741 = "onnx.Mul"(%y_scale_286, %634) {onnx_node_name = "/model/layers.24/attn/k_proj/MatMul_quant_scales_mul"} : (tensor<f32>, tensor<f32>) -> tensor<f32>
    %1742 = "onnx.Mul"(%1740, %1741) {onnx_node_name = "/model/layers.24/attn/k_proj/MatMul_quant_output_scale_mul"} : (tensor<?x?x1024xf32>, tensor<f32>) -> tensor<?x?x1024xf32>
    %1743 = "onnx.MatMulInteger"(%y_285, %639, %y_zero_point_287, %638) {onnx_node_name = "/model/layers.24/attn/v_proj/MatMul_quant"} : (tensor<?x?x1024xui8>, tensor<1024x1024xi8>, tensor<ui8>, tensor<i8>) -> tensor<?x?x1024xi32>
    %1744 = "onnx.Cast"(%1743) {onnx_node_name = "/model/layers.24/attn/v_proj/MatMul/output_0_output_quantized_cast", saturate = 1 : si64, to = f32} : (tensor<?x?x1024xi32>) -> tensor<?x?x1024xf32>
    %1745 = "onnx.Mul"(%y_scale_286, %637) {onnx_node_name = "/model/layers.24/attn/v_proj/MatMul_quant_scales_mul"} : (tensor<f32>, tensor<f32>) -> tensor<f32>
    %1746 = "onnx.Mul"(%1744, %1745) {onnx_node_name = "/model/layers.24/attn/v_proj/MatMul_quant_output_scale_mul"} : (tensor<?x?x1024xf32>, tensor<f32>) -> tensor<?x?x1024xf32>
    %1747 = "onnx.Reshape"(%1738, %6) {allowzero = 0 : si64, onnx_node_name = "/model/layers.24/attn/q_norm/Reshape_1"} : (tensor<?x?x2048xf32>, tensor<3xi64>) -> tensor<?x?x128xf32>
    %1748 = "onnx.Reshape"(%1742, %6) {allowzero = 0 : si64, onnx_node_name = "/model/layers.24/attn/k_norm/Reshape_1"} : (tensor<?x?x1024xf32>, tensor<3xi64>) -> tensor<?x?x128xf32>
    %1749 = "onnx.Custom"(%1747, %108) {axis = -1 : si64, domain_name = "", epsilon = 9.99999997E-7 : f32, function_name = "SimplifiedLayerNormalization", onnx_node_name = "/model/layers.24/attn/q_norm/SimplifiedLayerNormalization", stash_type = 1 : si64} : (tensor<?x?x128xf32>, tensor<128xf32>) -> tensor<?x?x128xf32>
    %1750 = "onnx.Custom"(%1748, %109) {axis = -1 : si64, domain_name = "", epsilon = 9.99999997E-7 : f32, function_name = "SimplifiedLayerNormalization", onnx_node_name = "/model/layers.24/attn/k_norm/SimplifiedLayerNormalization", stash_type = 1 : si64} : (tensor<?x?x128xf32>, tensor<128xf32>) -> tensor<?x?x128xf32>
    %1751 = "onnx.Reshape"(%1749, %5) {allowzero = 0 : si64, onnx_node_name = "/model/layers.24/attn/q_norm/Reshape_2"} : (tensor<?x?x128xf32>, tensor<3xi64>) -> tensor<?x?x2048xf32>
    %1752 = "onnx.Reshape"(%1750, %4) {allowzero = 0 : si64, onnx_node_name = "/model/layers.24/attn/k_norm/Reshape_2"} : (tensor<?x?x128xf32>, tensor<3xi64>) -> tensor<?x?x1024xf32>
    %1753 = "onnx.Custom"(%1751, %740, %12, %13) {domain_name = "com.microsoft", function_name = "RotaryEmbedding", interleaved = 0 : si64, num_heads = 0 : si64, onnx_node_name = "/model/layers.24/attn/q_rotary/RotaryEmbedding", rotary_embedding_dim = 0 : si64} : (tensor<?x?x2048xf32>, tensor<?x?xi64>, tensor<40960x64xf32>, tensor<40960x64xf32>) -> tensor<?x?x2048xf32>
    %1754 = "onnx.Custom"(%1752, %740, %12, %13) {domain_name = "com.microsoft", function_name = "RotaryEmbedding", interleaved = 0 : si64, num_heads = 0 : si64, onnx_node_name = "/model/layers.24/attn/k_rotary/RotaryEmbedding", rotary_embedding_dim = 0 : si64} : (tensor<?x?x1024xf32>, tensor<?x?xi64>, tensor<40960x64xf32>, tensor<40960x64xf32>) -> tensor<?x?x1024xf32>
    %1755:3 = "onnx.Custom"(%1753, %1754, %1746, %arg51, %arg52, %737, %723, %3, %3) {do_rotary = 0 : si64, domain_name = "com.microsoft", function_name = "GroupQueryAttention", kv_num_heads = 8 : si64, num_heads = 16 : si64, onnx_node_name = "/model/layers.24/attn/GroupQueryAttention", rotary_interleaved = 0 : si64, scale = 0.0883883461 : f32, softcap = 0.000000e+00 : f32} : (tensor<?x?x2048xf32>, tensor<?x?x1024xf32>, tensor<?x?x1024xf32>, tensor<?x8x?x128xf32>, tensor<?x8x?x128xf32>, tensor<?x1xi32>, tensor<i32>, none, none) -> (tensor<?x?x2048xf32>, tensor<?x8x?x128xf32>, tensor<?x8x?x128xf32>)
    %y_288, %y_scale_289, %y_zero_point_290 = "onnx.DynamicQuantizeLinear"(%1755#0) {onnx_node_name = "/model/layers.24/attn/GroupQueryAttention/output_0_QuantizeLinear"} : (tensor<?x?x2048xf32>) -> (tensor<?x?x2048xui8>, tensor<f32>, tensor<ui8>)
    %1756 = "onnx.MatMulInteger"(%y_288, %642, %y_zero_point_290, %641) {onnx_node_name = "/model/layers.24/attn/o_proj/MatMul_quant"} : (tensor<?x?x2048xui8>, tensor<2048x1024xi8>, tensor<ui8>, tensor<i8>) -> tensor<?x?x1024xi32>
    %1757 = "onnx.Cast"(%1756) {onnx_node_name = "/model/layers.24/attn/o_proj/MatMul/output_0_output_quantized_cast", saturate = 1 : si64, to = f32} : (tensor<?x?x1024xi32>) -> tensor<?x?x1024xf32>
    %1758 = "onnx.Mul"(%y_scale_289, %640) {onnx_node_name = "/model/layers.24/attn/o_proj/MatMul_quant_scales_mul"} : (tensor<f32>, tensor<f32>) -> tensor<f32>
    %1759 = "onnx.Mul"(%1757, %1758) {onnx_node_name = "/model/layers.24/attn/o_proj/MatMul_quant_output_scale_mul"} : (tensor<?x?x1024xf32>, tensor<f32>) -> tensor<?x?x1024xf32>
    %1760:4 = "onnx.Custom"(%1734#3, %1759, %110) {domain_name = "com.microsoft", epsilon = 9.99999997E-7 : f32, function_name = "SkipSimplifiedLayerNormalization", onnx_node_name = "/model/layers.24/post_attention_layernorm/SkipLayerNorm"} : (tensor<?x?x1024xf32>, tensor<?x?x1024xf32>, tensor<1024xf32>) -> (tensor<?x?x1024xf32>, none, none, tensor<?x?x1024xf32>)
    %y_291, %y_scale_292, %y_zero_point_293 = "onnx.DynamicQuantizeLinear"(%1760#0) {onnx_node_name = "/model/layers.24/post_attention_layernorm/output_0_QuantizeLinear"} : (tensor<?x?x1024xf32>) -> (tensor<?x?x1024xui8>, tensor<f32>, tensor<ui8>)
    %1761 = "onnx.MatMulInteger"(%y_291, %645, %y_zero_point_293, %644) {onnx_node_name = "/model/layers.24/mlp/gate_proj/MatMul_quant"} : (tensor<?x?x1024xui8>, tensor<1024x3072xi8>, tensor<ui8>, tensor<i8>) -> tensor<?x?x3072xi32>
    %1762 = "onnx.Cast"(%1761) {onnx_node_name = "/model/layers.24/mlp/gate_proj/MatMul/output_0_output_quantized_cast", saturate = 1 : si64, to = f32} : (tensor<?x?x3072xi32>) -> tensor<?x?x3072xf32>
    %1763 = "onnx.Mul"(%y_scale_292, %643) {onnx_node_name = "/model/layers.24/mlp/gate_proj/MatMul_quant_scales_mul"} : (tensor<f32>, tensor<f32>) -> tensor<f32>
    %1764 = "onnx.Mul"(%1762, %1763) {onnx_node_name = "/model/layers.24/mlp/gate_proj/MatMul_quant_output_scale_mul"} : (tensor<?x?x3072xf32>, tensor<f32>) -> tensor<?x?x3072xf32>
    %1765 = "onnx.MatMulInteger"(%y_291, %648, %y_zero_point_293, %647) {onnx_node_name = "/model/layers.24/mlp/up_proj/MatMul_quant"} : (tensor<?x?x1024xui8>, tensor<1024x3072xi8>, tensor<ui8>, tensor<i8>) -> tensor<?x?x3072xi32>
    %1766 = "onnx.Cast"(%1765) {onnx_node_name = "/model/layers.24/mlp/up_proj/MatMul/output_0_output_quantized_cast", saturate = 1 : si64, to = f32} : (tensor<?x?x3072xi32>) -> tensor<?x?x3072xf32>
    %1767 = "onnx.Mul"(%y_scale_292, %646) {onnx_node_name = "/model/layers.24/mlp/up_proj/MatMul_quant_scales_mul"} : (tensor<f32>, tensor<f32>) -> tensor<f32>
    %1768 = "onnx.Mul"(%1766, %1767) {onnx_node_name = "/model/layers.24/mlp/up_proj/MatMul_quant_output_scale_mul"} : (tensor<?x?x3072xf32>, tensor<f32>) -> tensor<?x?x3072xf32>
    %1769 = "onnx.Sigmoid"(%1764) {onnx_node_name = "/model/layers.24/mlp/act_fn/Sigmoid"} : (tensor<?x?x3072xf32>) -> tensor<?x?x3072xf32>
    %1770 = "onnx.Mul"(%1764, %1769) {onnx_node_name = "/model/layers.24/mlp/act_fn/Mul"} : (tensor<?x?x3072xf32>, tensor<?x?x3072xf32>) -> tensor<?x?x3072xf32>
    %1771 = "onnx.Mul"(%1770, %1768) {onnx_node_name = "/model/layers.24/mlp/Mul"} : (tensor<?x?x3072xf32>, tensor<?x?x3072xf32>) -> tensor<?x?x3072xf32>
    %y_294, %y_scale_295, %y_zero_point_296 = "onnx.DynamicQuantizeLinear"(%1771) {onnx_node_name = "/model/layers.24/mlp/Mul/output_0_QuantizeLinear"} : (tensor<?x?x3072xf32>) -> (tensor<?x?x3072xui8>, tensor<f32>, tensor<ui8>)
    %1772 = "onnx.MatMulInteger"(%y_294, %651, %y_zero_point_296, %650) {onnx_node_name = "/model/layers.24/mlp/down_proj/MatMul_quant"} : (tensor<?x?x3072xui8>, tensor<3072x1024xi8>, tensor<ui8>, tensor<i8>) -> tensor<?x?x1024xi32>
    %1773 = "onnx.Cast"(%1772) {onnx_node_name = "/model/layers.24/mlp/down_proj/MatMul/output_0_output_quantized_cast", saturate = 1 : si64, to = f32} : (tensor<?x?x1024xi32>) -> tensor<?x?x1024xf32>
    %1774 = "onnx.Mul"(%y_scale_295, %649) {onnx_node_name = "/model/layers.24/mlp/down_proj/MatMul_quant_scales_mul"} : (tensor<f32>, tensor<f32>) -> tensor<f32>
    %1775 = "onnx.Mul"(%1773, %1774) {onnx_node_name = "/model/layers.24/mlp/down_proj/MatMul_quant_output_scale_mul"} : (tensor<?x?x1024xf32>, tensor<f32>) -> tensor<?x?x1024xf32>
    %1776:4 = "onnx.Custom"(%1760#3, %1775, %111) {domain_name = "com.microsoft", epsilon = 9.99999997E-7 : f32, function_name = "SkipSimplifiedLayerNormalization", onnx_node_name = "/model/layers.25/input_layernorm/SkipLayerNorm"} : (tensor<?x?x1024xf32>, tensor<?x?x1024xf32>, tensor<1024xf32>) -> (tensor<?x?x1024xf32>, none, none, tensor<?x?x1024xf32>)
    %y_297, %y_scale_298, %y_zero_point_299 = "onnx.DynamicQuantizeLinear"(%1776#0) {onnx_node_name = "/model/layers.25/input_layernorm/output_0_QuantizeLinear"} : (tensor<?x?x1024xf32>) -> (tensor<?x?x1024xui8>, tensor<f32>, tensor<ui8>)
    %1777 = "onnx.MatMulInteger"(%y_297, %654, %y_zero_point_299, %653) {onnx_node_name = "/model/layers.25/attn/q_proj/MatMul_quant"} : (tensor<?x?x1024xui8>, tensor<1024x2048xi8>, tensor<ui8>, tensor<i8>) -> tensor<?x?x2048xi32>
    %1778 = "onnx.Cast"(%1777) {onnx_node_name = "/model/layers.25/attn/q_proj/MatMul/output_0_output_quantized_cast", saturate = 1 : si64, to = f32} : (tensor<?x?x2048xi32>) -> tensor<?x?x2048xf32>
    %1779 = "onnx.Mul"(%y_scale_298, %652) {onnx_node_name = "/model/layers.25/attn/q_proj/MatMul_quant_scales_mul"} : (tensor<f32>, tensor<f32>) -> tensor<f32>
    %1780 = "onnx.Mul"(%1778, %1779) {onnx_node_name = "/model/layers.25/attn/q_proj/MatMul_quant_output_scale_mul"} : (tensor<?x?x2048xf32>, tensor<f32>) -> tensor<?x?x2048xf32>
    %1781 = "onnx.MatMulInteger"(%y_297, %657, %y_zero_point_299, %656) {onnx_node_name = "/model/layers.25/attn/k_proj/MatMul_quant"} : (tensor<?x?x1024xui8>, tensor<1024x1024xi8>, tensor<ui8>, tensor<i8>) -> tensor<?x?x1024xi32>
    %1782 = "onnx.Cast"(%1781) {onnx_node_name = "/model/layers.25/attn/k_proj/MatMul/output_0_output_quantized_cast", saturate = 1 : si64, to = f32} : (tensor<?x?x1024xi32>) -> tensor<?x?x1024xf32>
    %1783 = "onnx.Mul"(%y_scale_298, %655) {onnx_node_name = "/model/layers.25/attn/k_proj/MatMul_quant_scales_mul"} : (tensor<f32>, tensor<f32>) -> tensor<f32>
    %1784 = "onnx.Mul"(%1782, %1783) {onnx_node_name = "/model/layers.25/attn/k_proj/MatMul_quant_output_scale_mul"} : (tensor<?x?x1024xf32>, tensor<f32>) -> tensor<?x?x1024xf32>
    %1785 = "onnx.MatMulInteger"(%y_297, %660, %y_zero_point_299, %659) {onnx_node_name = "/model/layers.25/attn/v_proj/MatMul_quant"} : (tensor<?x?x1024xui8>, tensor<1024x1024xi8>, tensor<ui8>, tensor<i8>) -> tensor<?x?x1024xi32>
    %1786 = "onnx.Cast"(%1785) {onnx_node_name = "/model/layers.25/attn/v_proj/MatMul/output_0_output_quantized_cast", saturate = 1 : si64, to = f32} : (tensor<?x?x1024xi32>) -> tensor<?x?x1024xf32>
    %1787 = "onnx.Mul"(%y_scale_298, %658) {onnx_node_name = "/model/layers.25/attn/v_proj/MatMul_quant_scales_mul"} : (tensor<f32>, tensor<f32>) -> tensor<f32>
    %1788 = "onnx.Mul"(%1786, %1787) {onnx_node_name = "/model/layers.25/attn/v_proj/MatMul_quant_output_scale_mul"} : (tensor<?x?x1024xf32>, tensor<f32>) -> tensor<?x?x1024xf32>
    %1789 = "onnx.Reshape"(%1780, %6) {allowzero = 0 : si64, onnx_node_name = "/model/layers.25/attn/q_norm/Reshape_1"} : (tensor<?x?x2048xf32>, tensor<3xi64>) -> tensor<?x?x128xf32>
    %1790 = "onnx.Reshape"(%1784, %6) {allowzero = 0 : si64, onnx_node_name = "/model/layers.25/attn/k_norm/Reshape_1"} : (tensor<?x?x1024xf32>, tensor<3xi64>) -> tensor<?x?x128xf32>
    %1791 = "onnx.Custom"(%1789, %112) {axis = -1 : si64, domain_name = "", epsilon = 9.99999997E-7 : f32, function_name = "SimplifiedLayerNormalization", onnx_node_name = "/model/layers.25/attn/q_norm/SimplifiedLayerNormalization", stash_type = 1 : si64} : (tensor<?x?x128xf32>, tensor<128xf32>) -> tensor<?x?x128xf32>
    %1792 = "onnx.Custom"(%1790, %113) {axis = -1 : si64, domain_name = "", epsilon = 9.99999997E-7 : f32, function_name = "SimplifiedLayerNormalization", onnx_node_name = "/model/layers.25/attn/k_norm/SimplifiedLayerNormalization", stash_type = 1 : si64} : (tensor<?x?x128xf32>, tensor<128xf32>) -> tensor<?x?x128xf32>
    %1793 = "onnx.Reshape"(%1791, %5) {allowzero = 0 : si64, onnx_node_name = "/model/layers.25/attn/q_norm/Reshape_2"} : (tensor<?x?x128xf32>, tensor<3xi64>) -> tensor<?x?x2048xf32>
    %1794 = "onnx.Reshape"(%1792, %4) {allowzero = 0 : si64, onnx_node_name = "/model/layers.25/attn/k_norm/Reshape_2"} : (tensor<?x?x128xf32>, tensor<3xi64>) -> tensor<?x?x1024xf32>
    %1795 = "onnx.Custom"(%1793, %740, %12, %13) {domain_name = "com.microsoft", function_name = "RotaryEmbedding", interleaved = 0 : si64, num_heads = 0 : si64, onnx_node_name = "/model/layers.25/attn/q_rotary/RotaryEmbedding", rotary_embedding_dim = 0 : si64} : (tensor<?x?x2048xf32>, tensor<?x?xi64>, tensor<40960x64xf32>, tensor<40960x64xf32>) -> tensor<?x?x2048xf32>
    %1796 = "onnx.Custom"(%1794, %740, %12, %13) {domain_name = "com.microsoft", function_name = "RotaryEmbedding", interleaved = 0 : si64, num_heads = 0 : si64, onnx_node_name = "/model/layers.25/attn/k_rotary/RotaryEmbedding", rotary_embedding_dim = 0 : si64} : (tensor<?x?x1024xf32>, tensor<?x?xi64>, tensor<40960x64xf32>, tensor<40960x64xf32>) -> tensor<?x?x1024xf32>
    %1797:3 = "onnx.Custom"(%1795, %1796, %1788, %arg53, %arg54, %737, %723, %3, %3) {do_rotary = 0 : si64, domain_name = "com.microsoft", function_name = "GroupQueryAttention", kv_num_heads = 8 : si64, num_heads = 16 : si64, onnx_node_name = "/model/layers.25/attn/GroupQueryAttention", rotary_interleaved = 0 : si64, scale = 0.0883883461 : f32, softcap = 0.000000e+00 : f32} : (tensor<?x?x2048xf32>, tensor<?x?x1024xf32>, tensor<?x?x1024xf32>, tensor<?x8x?x128xf32>, tensor<?x8x?x128xf32>, tensor<?x1xi32>, tensor<i32>, none, none) -> (tensor<?x?x2048xf32>, tensor<?x8x?x128xf32>, tensor<?x8x?x128xf32>)
    %y_300, %y_scale_301, %y_zero_point_302 = "onnx.DynamicQuantizeLinear"(%1797#0) {onnx_node_name = "/model/layers.25/attn/GroupQueryAttention/output_0_QuantizeLinear"} : (tensor<?x?x2048xf32>) -> (tensor<?x?x2048xui8>, tensor<f32>, tensor<ui8>)
    %1798 = "onnx.MatMulInteger"(%y_300, %663, %y_zero_point_302, %662) {onnx_node_name = "/model/layers.25/attn/o_proj/MatMul_quant"} : (tensor<?x?x2048xui8>, tensor<2048x1024xi8>, tensor<ui8>, tensor<i8>) -> tensor<?x?x1024xi32>
    %1799 = "onnx.Cast"(%1798) {onnx_node_name = "/model/layers.25/attn/o_proj/MatMul/output_0_output_quantized_cast", saturate = 1 : si64, to = f32} : (tensor<?x?x1024xi32>) -> tensor<?x?x1024xf32>
    %1800 = "onnx.Mul"(%y_scale_301, %661) {onnx_node_name = "/model/layers.25/attn/o_proj/MatMul_quant_scales_mul"} : (tensor<f32>, tensor<f32>) -> tensor<f32>
    %1801 = "onnx.Mul"(%1799, %1800) {onnx_node_name = "/model/layers.25/attn/o_proj/MatMul_quant_output_scale_mul"} : (tensor<?x?x1024xf32>, tensor<f32>) -> tensor<?x?x1024xf32>
    %1802:4 = "onnx.Custom"(%1776#3, %1801, %114) {domain_name = "com.microsoft", epsilon = 9.99999997E-7 : f32, function_name = "SkipSimplifiedLayerNormalization", onnx_node_name = "/model/layers.25/post_attention_layernorm/SkipLayerNorm"} : (tensor<?x?x1024xf32>, tensor<?x?x1024xf32>, tensor<1024xf32>) -> (tensor<?x?x1024xf32>, none, none, tensor<?x?x1024xf32>)
    %y_303, %y_scale_304, %y_zero_point_305 = "onnx.DynamicQuantizeLinear"(%1802#0) {onnx_node_name = "/model/layers.25/post_attention_layernorm/output_0_QuantizeLinear"} : (tensor<?x?x1024xf32>) -> (tensor<?x?x1024xui8>, tensor<f32>, tensor<ui8>)
    %1803 = "onnx.MatMulInteger"(%y_303, %666, %y_zero_point_305, %665) {onnx_node_name = "/model/layers.25/mlp/gate_proj/MatMul_quant"} : (tensor<?x?x1024xui8>, tensor<1024x3072xi8>, tensor<ui8>, tensor<i8>) -> tensor<?x?x3072xi32>
    %1804 = "onnx.Cast"(%1803) {onnx_node_name = "/model/layers.25/mlp/gate_proj/MatMul/output_0_output_quantized_cast", saturate = 1 : si64, to = f32} : (tensor<?x?x3072xi32>) -> tensor<?x?x3072xf32>
    %1805 = "onnx.Mul"(%y_scale_304, %664) {onnx_node_name = "/model/layers.25/mlp/gate_proj/MatMul_quant_scales_mul"} : (tensor<f32>, tensor<f32>) -> tensor<f32>
    %1806 = "onnx.Mul"(%1804, %1805) {onnx_node_name = "/model/layers.25/mlp/gate_proj/MatMul_quant_output_scale_mul"} : (tensor<?x?x3072xf32>, tensor<f32>) -> tensor<?x?x3072xf32>
    %1807 = "onnx.MatMulInteger"(%y_303, %669, %y_zero_point_305, %668) {onnx_node_name = "/model/layers.25/mlp/up_proj/MatMul_quant"} : (tensor<?x?x1024xui8>, tensor<1024x3072xi8>, tensor<ui8>, tensor<i8>) -> tensor<?x?x3072xi32>
    %1808 = "onnx.Cast"(%1807) {onnx_node_name = "/model/layers.25/mlp/up_proj/MatMul/output_0_output_quantized_cast", saturate = 1 : si64, to = f32} : (tensor<?x?x3072xi32>) -> tensor<?x?x3072xf32>
    %1809 = "onnx.Mul"(%y_scale_304, %667) {onnx_node_name = "/model/layers.25/mlp/up_proj/MatMul_quant_scales_mul"} : (tensor<f32>, tensor<f32>) -> tensor<f32>
    %1810 = "onnx.Mul"(%1808, %1809) {onnx_node_name = "/model/layers.25/mlp/up_proj/MatMul_quant_output_scale_mul"} : (tensor<?x?x3072xf32>, tensor<f32>) -> tensor<?x?x3072xf32>
    %1811 = "onnx.Sigmoid"(%1806) {onnx_node_name = "/model/layers.25/mlp/act_fn/Sigmoid"} : (tensor<?x?x3072xf32>) -> tensor<?x?x3072xf32>
    %1812 = "onnx.Mul"(%1806, %1811) {onnx_node_name = "/model/layers.25/mlp/act_fn/Mul"} : (tensor<?x?x3072xf32>, tensor<?x?x3072xf32>) -> tensor<?x?x3072xf32>
    %1813 = "onnx.Mul"(%1812, %1810) {onnx_node_name = "/model/layers.25/mlp/Mul"} : (tensor<?x?x3072xf32>, tensor<?x?x3072xf32>) -> tensor<?x?x3072xf32>
    %y_306, %y_scale_307, %y_zero_point_308 = "onnx.DynamicQuantizeLinear"(%1813) {onnx_node_name = "/model/layers.25/mlp/Mul/output_0_QuantizeLinear"} : (tensor<?x?x3072xf32>) -> (tensor<?x?x3072xui8>, tensor<f32>, tensor<ui8>)
    %1814 = "onnx.MatMulInteger"(%y_306, %672, %y_zero_point_308, %671) {onnx_node_name = "/model/layers.25/mlp/down_proj/MatMul_quant"} : (tensor<?x?x3072xui8>, tensor<3072x1024xi8>, tensor<ui8>, tensor<i8>) -> tensor<?x?x1024xi32>
    %1815 = "onnx.Cast"(%1814) {onnx_node_name = "/model/layers.25/mlp/down_proj/MatMul/output_0_output_quantized_cast", saturate = 1 : si64, to = f32} : (tensor<?x?x1024xi32>) -> tensor<?x?x1024xf32>
    %1816 = "onnx.Mul"(%y_scale_307, %670) {onnx_node_name = "/model/layers.25/mlp/down_proj/MatMul_quant_scales_mul"} : (tensor<f32>, tensor<f32>) -> tensor<f32>
    %1817 = "onnx.Mul"(%1815, %1816) {onnx_node_name = "/model/layers.25/mlp/down_proj/MatMul_quant_output_scale_mul"} : (tensor<?x?x1024xf32>, tensor<f32>) -> tensor<?x?x1024xf32>
    %1818:4 = "onnx.Custom"(%1802#3, %1817, %115) {domain_name = "com.microsoft", epsilon = 9.99999997E-7 : f32, function_name = "SkipSimplifiedLayerNormalization", onnx_node_name = "/model/layers.26/input_layernorm/SkipLayerNorm"} : (tensor<?x?x1024xf32>, tensor<?x?x1024xf32>, tensor<1024xf32>) -> (tensor<?x?x1024xf32>, none, none, tensor<?x?x1024xf32>)
    %y_309, %y_scale_310, %y_zero_point_311 = "onnx.DynamicQuantizeLinear"(%1818#0) {onnx_node_name = "/model/layers.26/input_layernorm/output_0_QuantizeLinear"} : (tensor<?x?x1024xf32>) -> (tensor<?x?x1024xui8>, tensor<f32>, tensor<ui8>)
    %1819 = "onnx.MatMulInteger"(%y_309, %675, %y_zero_point_311, %674) {onnx_node_name = "/model/layers.26/attn/q_proj/MatMul_quant"} : (tensor<?x?x1024xui8>, tensor<1024x2048xi8>, tensor<ui8>, tensor<i8>) -> tensor<?x?x2048xi32>
    %1820 = "onnx.Cast"(%1819) {onnx_node_name = "/model/layers.26/attn/q_proj/MatMul/output_0_output_quantized_cast", saturate = 1 : si64, to = f32} : (tensor<?x?x2048xi32>) -> tensor<?x?x2048xf32>
    %1821 = "onnx.Mul"(%y_scale_310, %673) {onnx_node_name = "/model/layers.26/attn/q_proj/MatMul_quant_scales_mul"} : (tensor<f32>, tensor<f32>) -> tensor<f32>
    %1822 = "onnx.Mul"(%1820, %1821) {onnx_node_name = "/model/layers.26/attn/q_proj/MatMul_quant_output_scale_mul"} : (tensor<?x?x2048xf32>, tensor<f32>) -> tensor<?x?x2048xf32>
    %1823 = "onnx.MatMulInteger"(%y_309, %678, %y_zero_point_311, %677) {onnx_node_name = "/model/layers.26/attn/k_proj/MatMul_quant"} : (tensor<?x?x1024xui8>, tensor<1024x1024xi8>, tensor<ui8>, tensor<i8>) -> tensor<?x?x1024xi32>
    %1824 = "onnx.Cast"(%1823) {onnx_node_name = "/model/layers.26/attn/k_proj/MatMul/output_0_output_quantized_cast", saturate = 1 : si64, to = f32} : (tensor<?x?x1024xi32>) -> tensor<?x?x1024xf32>
    %1825 = "onnx.Mul"(%y_scale_310, %676) {onnx_node_name = "/model/layers.26/attn/k_proj/MatMul_quant_scales_mul"} : (tensor<f32>, tensor<f32>) -> tensor<f32>
    %1826 = "onnx.Mul"(%1824, %1825) {onnx_node_name = "/model/layers.26/attn/k_proj/MatMul_quant_output_scale_mul"} : (tensor<?x?x1024xf32>, tensor<f32>) -> tensor<?x?x1024xf32>
    %1827 = "onnx.MatMulInteger"(%y_309, %681, %y_zero_point_311, %680) {onnx_node_name = "/model/layers.26/attn/v_proj/MatMul_quant"} : (tensor<?x?x1024xui8>, tensor<1024x1024xi8>, tensor<ui8>, tensor<i8>) -> tensor<?x?x1024xi32>
    %1828 = "onnx.Cast"(%1827) {onnx_node_name = "/model/layers.26/attn/v_proj/MatMul/output_0_output_quantized_cast", saturate = 1 : si64, to = f32} : (tensor<?x?x1024xi32>) -> tensor<?x?x1024xf32>
    %1829 = "onnx.Mul"(%y_scale_310, %679) {onnx_node_name = "/model/layers.26/attn/v_proj/MatMul_quant_scales_mul"} : (tensor<f32>, tensor<f32>) -> tensor<f32>
    %1830 = "onnx.Mul"(%1828, %1829) {onnx_node_name = "/model/layers.26/attn/v_proj/MatMul_quant_output_scale_mul"} : (tensor<?x?x1024xf32>, tensor<f32>) -> tensor<?x?x1024xf32>
    %1831 = "onnx.Reshape"(%1822, %6) {allowzero = 0 : si64, onnx_node_name = "/model/layers.26/attn/q_norm/Reshape_1"} : (tensor<?x?x2048xf32>, tensor<3xi64>) -> tensor<?x?x128xf32>
    %1832 = "onnx.Reshape"(%1826, %6) {allowzero = 0 : si64, onnx_node_name = "/model/layers.26/attn/k_norm/Reshape_1"} : (tensor<?x?x1024xf32>, tensor<3xi64>) -> tensor<?x?x128xf32>
    %1833 = "onnx.Custom"(%1831, %116) {axis = -1 : si64, domain_name = "", epsilon = 9.99999997E-7 : f32, function_name = "SimplifiedLayerNormalization", onnx_node_name = "/model/layers.26/attn/q_norm/SimplifiedLayerNormalization", stash_type = 1 : si64} : (tensor<?x?x128xf32>, tensor<128xf32>) -> tensor<?x?x128xf32>
    %1834 = "onnx.Custom"(%1832, %117) {axis = -1 : si64, domain_name = "", epsilon = 9.99999997E-7 : f32, function_name = "SimplifiedLayerNormalization", onnx_node_name = "/model/layers.26/attn/k_norm/SimplifiedLayerNormalization", stash_type = 1 : si64} : (tensor<?x?x128xf32>, tensor<128xf32>) -> tensor<?x?x128xf32>
    %1835 = "onnx.Reshape"(%1833, %5) {allowzero = 0 : si64, onnx_node_name = "/model/layers.26/attn/q_norm/Reshape_2"} : (tensor<?x?x128xf32>, tensor<3xi64>) -> tensor<?x?x2048xf32>
    %1836 = "onnx.Reshape"(%1834, %4) {allowzero = 0 : si64, onnx_node_name = "/model/layers.26/attn/k_norm/Reshape_2"} : (tensor<?x?x128xf32>, tensor<3xi64>) -> tensor<?x?x1024xf32>
    %1837 = "onnx.Custom"(%1835, %740, %12, %13) {domain_name = "com.microsoft", function_name = "RotaryEmbedding", interleaved = 0 : si64, num_heads = 0 : si64, onnx_node_name = "/model/layers.26/attn/q_rotary/RotaryEmbedding", rotary_embedding_dim = 0 : si64} : (tensor<?x?x2048xf32>, tensor<?x?xi64>, tensor<40960x64xf32>, tensor<40960x64xf32>) -> tensor<?x?x2048xf32>
    %1838 = "onnx.Custom"(%1836, %740, %12, %13) {domain_name = "com.microsoft", function_name = "RotaryEmbedding", interleaved = 0 : si64, num_heads = 0 : si64, onnx_node_name = "/model/layers.26/attn/k_rotary/RotaryEmbedding", rotary_embedding_dim = 0 : si64} : (tensor<?x?x1024xf32>, tensor<?x?xi64>, tensor<40960x64xf32>, tensor<40960x64xf32>) -> tensor<?x?x1024xf32>
    %1839:3 = "onnx.Custom"(%1837, %1838, %1830, %arg55, %arg56, %737, %723, %3, %3) {do_rotary = 0 : si64, domain_name = "com.microsoft", function_name = "GroupQueryAttention", kv_num_heads = 8 : si64, num_heads = 16 : si64, onnx_node_name = "/model/layers.26/attn/GroupQueryAttention", rotary_interleaved = 0 : si64, scale = 0.0883883461 : f32, softcap = 0.000000e+00 : f32} : (tensor<?x?x2048xf32>, tensor<?x?x1024xf32>, tensor<?x?x1024xf32>, tensor<?x8x?x128xf32>, tensor<?x8x?x128xf32>, tensor<?x1xi32>, tensor<i32>, none, none) -> (tensor<?x?x2048xf32>, tensor<?x8x?x128xf32>, tensor<?x8x?x128xf32>)
    %y_312, %y_scale_313, %y_zero_point_314 = "onnx.DynamicQuantizeLinear"(%1839#0) {onnx_node_name = "/model/layers.26/attn/GroupQueryAttention/output_0_QuantizeLinear"} : (tensor<?x?x2048xf32>) -> (tensor<?x?x2048xui8>, tensor<f32>, tensor<ui8>)
    %1840 = "onnx.MatMulInteger"(%y_312, %684, %y_zero_point_314, %683) {onnx_node_name = "/model/layers.26/attn/o_proj/MatMul_quant"} : (tensor<?x?x2048xui8>, tensor<2048x1024xi8>, tensor<ui8>, tensor<i8>) -> tensor<?x?x1024xi32>
    %1841 = "onnx.Cast"(%1840) {onnx_node_name = "/model/layers.26/attn/o_proj/MatMul/output_0_output_quantized_cast", saturate = 1 : si64, to = f32} : (tensor<?x?x1024xi32>) -> tensor<?x?x1024xf32>
    %1842 = "onnx.Mul"(%y_scale_313, %682) {onnx_node_name = "/model/layers.26/attn/o_proj/MatMul_quant_scales_mul"} : (tensor<f32>, tensor<f32>) -> tensor<f32>
    %1843 = "onnx.Mul"(%1841, %1842) {onnx_node_name = "/model/layers.26/attn/o_proj/MatMul_quant_output_scale_mul"} : (tensor<?x?x1024xf32>, tensor<f32>) -> tensor<?x?x1024xf32>
    %1844:4 = "onnx.Custom"(%1818#3, %1843, %118) {domain_name = "com.microsoft", epsilon = 9.99999997E-7 : f32, function_name = "SkipSimplifiedLayerNormalization", onnx_node_name = "/model/layers.26/post_attention_layernorm/SkipLayerNorm"} : (tensor<?x?x1024xf32>, tensor<?x?x1024xf32>, tensor<1024xf32>) -> (tensor<?x?x1024xf32>, none, none, tensor<?x?x1024xf32>)
    %y_315, %y_scale_316, %y_zero_point_317 = "onnx.DynamicQuantizeLinear"(%1844#0) {onnx_node_name = "/model/layers.26/post_attention_layernorm/output_0_QuantizeLinear"} : (tensor<?x?x1024xf32>) -> (tensor<?x?x1024xui8>, tensor<f32>, tensor<ui8>)
    %1845 = "onnx.MatMulInteger"(%y_315, %687, %y_zero_point_317, %686) {onnx_node_name = "/model/layers.26/mlp/gate_proj/MatMul_quant"} : (tensor<?x?x1024xui8>, tensor<1024x3072xi8>, tensor<ui8>, tensor<i8>) -> tensor<?x?x3072xi32>
    %1846 = "onnx.Cast"(%1845) {onnx_node_name = "/model/layers.26/mlp/gate_proj/MatMul/output_0_output_quantized_cast", saturate = 1 : si64, to = f32} : (tensor<?x?x3072xi32>) -> tensor<?x?x3072xf32>
    %1847 = "onnx.Mul"(%y_scale_316, %685) {onnx_node_name = "/model/layers.26/mlp/gate_proj/MatMul_quant_scales_mul"} : (tensor<f32>, tensor<f32>) -> tensor<f32>
    %1848 = "onnx.Mul"(%1846, %1847) {onnx_node_name = "/model/layers.26/mlp/gate_proj/MatMul_quant_output_scale_mul"} : (tensor<?x?x3072xf32>, tensor<f32>) -> tensor<?x?x3072xf32>
    %1849 = "onnx.MatMulInteger"(%y_315, %690, %y_zero_point_317, %689) {onnx_node_name = "/model/layers.26/mlp/up_proj/MatMul_quant"} : (tensor<?x?x1024xui8>, tensor<1024x3072xi8>, tensor<ui8>, tensor<i8>) -> tensor<?x?x3072xi32>
    %1850 = "onnx.Cast"(%1849) {onnx_node_name = "/model/layers.26/mlp/up_proj/MatMul/output_0_output_quantized_cast", saturate = 1 : si64, to = f32} : (tensor<?x?x3072xi32>) -> tensor<?x?x3072xf32>
    %1851 = "onnx.Mul"(%y_scale_316, %688) {onnx_node_name = "/model/layers.26/mlp/up_proj/MatMul_quant_scales_mul"} : (tensor<f32>, tensor<f32>) -> tensor<f32>
    %1852 = "onnx.Mul"(%1850, %1851) {onnx_node_name = "/model/layers.26/mlp/up_proj/MatMul_quant_output_scale_mul"} : (tensor<?x?x3072xf32>, tensor<f32>) -> tensor<?x?x3072xf32>
    %1853 = "onnx.Sigmoid"(%1848) {onnx_node_name = "/model/layers.26/mlp/act_fn/Sigmoid"} : (tensor<?x?x3072xf32>) -> tensor<?x?x3072xf32>
    %1854 = "onnx.Mul"(%1848, %1853) {onnx_node_name = "/model/layers.26/mlp/act_fn/Mul"} : (tensor<?x?x3072xf32>, tensor<?x?x3072xf32>) -> tensor<?x?x3072xf32>
    %1855 = "onnx.Mul"(%1854, %1852) {onnx_node_name = "/model/layers.26/mlp/Mul"} : (tensor<?x?x3072xf32>, tensor<?x?x3072xf32>) -> tensor<?x?x3072xf32>
    %y_318, %y_scale_319, %y_zero_point_320 = "onnx.DynamicQuantizeLinear"(%1855) {onnx_node_name = "/model/layers.26/mlp/Mul/output_0_QuantizeLinear"} : (tensor<?x?x3072xf32>) -> (tensor<?x?x3072xui8>, tensor<f32>, tensor<ui8>)
    %1856 = "onnx.MatMulInteger"(%y_318, %693, %y_zero_point_320, %692) {onnx_node_name = "/model/layers.26/mlp/down_proj/MatMul_quant"} : (tensor<?x?x3072xui8>, tensor<3072x1024xi8>, tensor<ui8>, tensor<i8>) -> tensor<?x?x1024xi32>
    %1857 = "onnx.Cast"(%1856) {onnx_node_name = "/model/layers.26/mlp/down_proj/MatMul/output_0_output_quantized_cast", saturate = 1 : si64, to = f32} : (tensor<?x?x1024xi32>) -> tensor<?x?x1024xf32>
    %1858 = "onnx.Mul"(%y_scale_319, %691) {onnx_node_name = "/model/layers.26/mlp/down_proj/MatMul_quant_scales_mul"} : (tensor<f32>, tensor<f32>) -> tensor<f32>
    %1859 = "onnx.Mul"(%1857, %1858) {onnx_node_name = "/model/layers.26/mlp/down_proj/MatMul_quant_output_scale_mul"} : (tensor<?x?x1024xf32>, tensor<f32>) -> tensor<?x?x1024xf32>
    %1860:4 = "onnx.Custom"(%1844#3, %1859, %119) {domain_name = "com.microsoft", epsilon = 9.99999997E-7 : f32, function_name = "SkipSimplifiedLayerNormalization", onnx_node_name = "/model/layers.27/input_layernorm/SkipLayerNorm"} : (tensor<?x?x1024xf32>, tensor<?x?x1024xf32>, tensor<1024xf32>) -> (tensor<?x?x1024xf32>, none, none, tensor<?x?x1024xf32>)
    %y_321, %y_scale_322, %y_zero_point_323 = "onnx.DynamicQuantizeLinear"(%1860#0) {onnx_node_name = "/model/layers.27/input_layernorm/output_0_QuantizeLinear"} : (tensor<?x?x1024xf32>) -> (tensor<?x?x1024xui8>, tensor<f32>, tensor<ui8>)
    %1861 = "onnx.MatMulInteger"(%y_321, %696, %y_zero_point_323, %695) {onnx_node_name = "/model/layers.27/attn/q_proj/MatMul_quant"} : (tensor<?x?x1024xui8>, tensor<1024x2048xi8>, tensor<ui8>, tensor<i8>) -> tensor<?x?x2048xi32>
    %1862 = "onnx.Cast"(%1861) {onnx_node_name = "/model/layers.27/attn/q_proj/MatMul/output_0_output_quantized_cast", saturate = 1 : si64, to = f32} : (tensor<?x?x2048xi32>) -> tensor<?x?x2048xf32>
    %1863 = "onnx.Mul"(%y_scale_322, %694) {onnx_node_name = "/model/layers.27/attn/q_proj/MatMul_quant_scales_mul"} : (tensor<f32>, tensor<f32>) -> tensor<f32>
    %1864 = "onnx.Mul"(%1862, %1863) {onnx_node_name = "/model/layers.27/attn/q_proj/MatMul_quant_output_scale_mul"} : (tensor<?x?x2048xf32>, tensor<f32>) -> tensor<?x?x2048xf32>
    %1865 = "onnx.MatMulInteger"(%y_321, %699, %y_zero_point_323, %698) {onnx_node_name = "/model/layers.27/attn/k_proj/MatMul_quant"} : (tensor<?x?x1024xui8>, tensor<1024x1024xi8>, tensor<ui8>, tensor<i8>) -> tensor<?x?x1024xi32>
    %1866 = "onnx.Cast"(%1865) {onnx_node_name = "/model/layers.27/attn/k_proj/MatMul/output_0_output_quantized_cast", saturate = 1 : si64, to = f32} : (tensor<?x?x1024xi32>) -> tensor<?x?x1024xf32>
    %1867 = "onnx.Mul"(%y_scale_322, %697) {onnx_node_name = "/model/layers.27/attn/k_proj/MatMul_quant_scales_mul"} : (tensor<f32>, tensor<f32>) -> tensor<f32>
    %1868 = "onnx.Mul"(%1866, %1867) {onnx_node_name = "/model/layers.27/attn/k_proj/MatMul_quant_output_scale_mul"} : (tensor<?x?x1024xf32>, tensor<f32>) -> tensor<?x?x1024xf32>
    %1869 = "onnx.MatMulInteger"(%y_321, %702, %y_zero_point_323, %701) {onnx_node_name = "/model/layers.27/attn/v_proj/MatMul_quant"} : (tensor<?x?x1024xui8>, tensor<1024x1024xi8>, tensor<ui8>, tensor<i8>) -> tensor<?x?x1024xi32>
    %1870 = "onnx.Cast"(%1869) {onnx_node_name = "/model/layers.27/attn/v_proj/MatMul/output_0_output_quantized_cast", saturate = 1 : si64, to = f32} : (tensor<?x?x1024xi32>) -> tensor<?x?x1024xf32>
    %1871 = "onnx.Mul"(%y_scale_322, %700) {onnx_node_name = "/model/layers.27/attn/v_proj/MatMul_quant_scales_mul"} : (tensor<f32>, tensor<f32>) -> tensor<f32>
    %1872 = "onnx.Mul"(%1870, %1871) {onnx_node_name = "/model/layers.27/attn/v_proj/MatMul_quant_output_scale_mul"} : (tensor<?x?x1024xf32>, tensor<f32>) -> tensor<?x?x1024xf32>
    %1873 = "onnx.Reshape"(%1864, %6) {allowzero = 0 : si64, onnx_node_name = "/model/layers.27/attn/q_norm/Reshape_1"} : (tensor<?x?x2048xf32>, tensor<3xi64>) -> tensor<?x?x128xf32>
    %1874 = "onnx.Reshape"(%1868, %6) {allowzero = 0 : si64, onnx_node_name = "/model/layers.27/attn/k_norm/Reshape_1"} : (tensor<?x?x1024xf32>, tensor<3xi64>) -> tensor<?x?x128xf32>
    %1875 = "onnx.Custom"(%1873, %120) {axis = -1 : si64, domain_name = "", epsilon = 9.99999997E-7 : f32, function_name = "SimplifiedLayerNormalization", onnx_node_name = "/model/layers.27/attn/q_norm/SimplifiedLayerNormalization", stash_type = 1 : si64} : (tensor<?x?x128xf32>, tensor<128xf32>) -> tensor<?x?x128xf32>
    %1876 = "onnx.Custom"(%1874, %121) {axis = -1 : si64, domain_name = "", epsilon = 9.99999997E-7 : f32, function_name = "SimplifiedLayerNormalization", onnx_node_name = "/model/layers.27/attn/k_norm/SimplifiedLayerNormalization", stash_type = 1 : si64} : (tensor<?x?x128xf32>, tensor<128xf32>) -> tensor<?x?x128xf32>
    %1877 = "onnx.Reshape"(%1875, %5) {allowzero = 0 : si64, onnx_node_name = "/model/layers.27/attn/q_norm/Reshape_2"} : (tensor<?x?x128xf32>, tensor<3xi64>) -> tensor<?x?x2048xf32>
    %1878 = "onnx.Reshape"(%1876, %4) {allowzero = 0 : si64, onnx_node_name = "/model/layers.27/attn/k_norm/Reshape_2"} : (tensor<?x?x128xf32>, tensor<3xi64>) -> tensor<?x?x1024xf32>
    %1879 = "onnx.Custom"(%1877, %740, %12, %13) {domain_name = "com.microsoft", function_name = "RotaryEmbedding", interleaved = 0 : si64, num_heads = 0 : si64, onnx_node_name = "/model/layers.27/attn/q_rotary/RotaryEmbedding", rotary_embedding_dim = 0 : si64} : (tensor<?x?x2048xf32>, tensor<?x?xi64>, tensor<40960x64xf32>, tensor<40960x64xf32>) -> tensor<?x?x2048xf32>
    %1880 = "onnx.Custom"(%1878, %740, %12, %13) {domain_name = "com.microsoft", function_name = "RotaryEmbedding", interleaved = 0 : si64, num_heads = 0 : si64, onnx_node_name = "/model/layers.27/attn/k_rotary/RotaryEmbedding", rotary_embedding_dim = 0 : si64} : (tensor<?x?x1024xf32>, tensor<?x?xi64>, tensor<40960x64xf32>, tensor<40960x64xf32>) -> tensor<?x?x1024xf32>
    %1881:3 = "onnx.Custom"(%1879, %1880, %1872, %arg57, %arg58, %737, %723, %3, %3) {do_rotary = 0 : si64, domain_name = "com.microsoft", function_name = "GroupQueryAttention", kv_num_heads = 8 : si64, num_heads = 16 : si64, onnx_node_name = "/model/layers.27/attn/GroupQueryAttention", rotary_interleaved = 0 : si64, scale = 0.0883883461 : f32, softcap = 0.000000e+00 : f32} : (tensor<?x?x2048xf32>, tensor<?x?x1024xf32>, tensor<?x?x1024xf32>, tensor<?x8x?x128xf32>, tensor<?x8x?x128xf32>, tensor<?x1xi32>, tensor<i32>, none, none) -> (tensor<?x?x2048xf32>, tensor<?x8x?x128xf32>, tensor<?x8x?x128xf32>)
    %y_324, %y_scale_325, %y_zero_point_326 = "onnx.DynamicQuantizeLinear"(%1881#0) {onnx_node_name = "/model/layers.27/attn/GroupQueryAttention/output_0_QuantizeLinear"} : (tensor<?x?x2048xf32>) -> (tensor<?x?x2048xui8>, tensor<f32>, tensor<ui8>)
    %1882 = "onnx.MatMulInteger"(%y_324, %705, %y_zero_point_326, %704) {onnx_node_name = "/model/layers.27/attn/o_proj/MatMul_quant"} : (tensor<?x?x2048xui8>, tensor<2048x1024xi8>, tensor<ui8>, tensor<i8>) -> tensor<?x?x1024xi32>
    %1883 = "onnx.Cast"(%1882) {onnx_node_name = "/model/layers.27/attn/o_proj/MatMul/output_0_output_quantized_cast", saturate = 1 : si64, to = f32} : (tensor<?x?x1024xi32>) -> tensor<?x?x1024xf32>
    %1884 = "onnx.Mul"(%y_scale_325, %703) {onnx_node_name = "/model/layers.27/attn/o_proj/MatMul_quant_scales_mul"} : (tensor<f32>, tensor<f32>) -> tensor<f32>
    %1885 = "onnx.Mul"(%1883, %1884) {onnx_node_name = "/model/layers.27/attn/o_proj/MatMul_quant_output_scale_mul"} : (tensor<?x?x1024xf32>, tensor<f32>) -> tensor<?x?x1024xf32>
    %1886:4 = "onnx.Custom"(%1860#3, %1885, %122) {domain_name = "com.microsoft", epsilon = 9.99999997E-7 : f32, function_name = "SkipSimplifiedLayerNormalization", onnx_node_name = "/model/layers.27/post_attention_layernorm/SkipLayerNorm"} : (tensor<?x?x1024xf32>, tensor<?x?x1024xf32>, tensor<1024xf32>) -> (tensor<?x?x1024xf32>, none, none, tensor<?x?x1024xf32>)
    %y_327, %y_scale_328, %y_zero_point_329 = "onnx.DynamicQuantizeLinear"(%1886#0) {onnx_node_name = "/model/layers.27/post_attention_layernorm/output_0_QuantizeLinear"} : (tensor<?x?x1024xf32>) -> (tensor<?x?x1024xui8>, tensor<f32>, tensor<ui8>)
    %1887 = "onnx.MatMulInteger"(%y_327, %708, %y_zero_point_329, %707) {onnx_node_name = "/model/layers.27/mlp/gate_proj/MatMul_quant"} : (tensor<?x?x1024xui8>, tensor<1024x3072xi8>, tensor<ui8>, tensor<i8>) -> tensor<?x?x3072xi32>
    %1888 = "onnx.Cast"(%1887) {onnx_node_name = "/model/layers.27/mlp/gate_proj/MatMul/output_0_output_quantized_cast", saturate = 1 : si64, to = f32} : (tensor<?x?x3072xi32>) -> tensor<?x?x3072xf32>
    %1889 = "onnx.Mul"(%y_scale_328, %706) {onnx_node_name = "/model/layers.27/mlp/gate_proj/MatMul_quant_scales_mul"} : (tensor<f32>, tensor<f32>) -> tensor<f32>
    %1890 = "onnx.Mul"(%1888, %1889) {onnx_node_name = "/model/layers.27/mlp/gate_proj/MatMul_quant_output_scale_mul"} : (tensor<?x?x3072xf32>, tensor<f32>) -> tensor<?x?x3072xf32>
    %1891 = "onnx.MatMulInteger"(%y_327, %711, %y_zero_point_329, %710) {onnx_node_name = "/model/layers.27/mlp/up_proj/MatMul_quant"} : (tensor<?x?x1024xui8>, tensor<1024x3072xi8>, tensor<ui8>, tensor<i8>) -> tensor<?x?x3072xi32>
    %1892 = "onnx.Cast"(%1891) {onnx_node_name = "/model/layers.27/mlp/up_proj/MatMul/output_0_output_quantized_cast", saturate = 1 : si64, to = f32} : (tensor<?x?x3072xi32>) -> tensor<?x?x3072xf32>
    %1893 = "onnx.Mul"(%y_scale_328, %709) {onnx_node_name = "/model/layers.27/mlp/up_proj/MatMul_quant_scales_mul"} : (tensor<f32>, tensor<f32>) -> tensor<f32>
    %1894 = "onnx.Mul"(%1892, %1893) {onnx_node_name = "/model/layers.27/mlp/up_proj/MatMul_quant_output_scale_mul"} : (tensor<?x?x3072xf32>, tensor<f32>) -> tensor<?x?x3072xf32>
    %1895 = "onnx.Sigmoid"(%1890) {onnx_node_name = "/model/layers.27/mlp/act_fn/Sigmoid"} : (tensor<?x?x3072xf32>) -> tensor<?x?x3072xf32>
    %1896 = "onnx.Mul"(%1890, %1895) {onnx_node_name = "/model/layers.27/mlp/act_fn/Mul"} : (tensor<?x?x3072xf32>, tensor<?x?x3072xf32>) -> tensor<?x?x3072xf32>
    %1897 = "onnx.Mul"(%1896, %1894) {onnx_node_name = "/model/layers.27/mlp/Mul"} : (tensor<?x?x3072xf32>, tensor<?x?x3072xf32>) -> tensor<?x?x3072xf32>
    %y_330, %y_scale_331, %y_zero_point_332 = "onnx.DynamicQuantizeLinear"(%1897) {onnx_node_name = "/model/layers.27/mlp/Mul/output_0_QuantizeLinear"} : (tensor<?x?x3072xf32>) -> (tensor<?x?x3072xui8>, tensor<f32>, tensor<ui8>)
    %1898 = "onnx.MatMulInteger"(%y_330, %714, %y_zero_point_332, %713) {onnx_node_name = "/model/layers.27/mlp/down_proj/MatMul_quant"} : (tensor<?x?x3072xui8>, tensor<3072x1024xi8>, tensor<ui8>, tensor<i8>) -> tensor<?x?x1024xi32>
    %1899 = "onnx.Cast"(%1898) {onnx_node_name = "/model/layers.27/mlp/down_proj/MatMul/output_0_output_quantized_cast", saturate = 1 : si64, to = f32} : (tensor<?x?x1024xi32>) -> tensor<?x?x1024xf32>
    %1900 = "onnx.Mul"(%y_scale_331, %712) {onnx_node_name = "/model/layers.27/mlp/down_proj/MatMul_quant_scales_mul"} : (tensor<f32>, tensor<f32>) -> tensor<f32>
    %1901 = "onnx.Mul"(%1899, %1900) {onnx_node_name = "/model/layers.27/mlp/down_proj/MatMul_quant_output_scale_mul"} : (tensor<?x?x1024xf32>, tensor<f32>) -> tensor<?x?x1024xf32>
    %1902 = "onnx.Custom"(%1886#3, %1901, %123) {domain_name = "com.microsoft", epsilon = 9.99999997E-7 : f32, function_name = "SkipSimplifiedLayerNormalization", onnx_node_name = "/model/layers.28/final_norm_layernorm/SkipLayerNorm"} : (tensor<?x?x1024xf32>, tensor<?x?x1024xf32>, tensor<1024xf32>) -> tensor<?x?x1024xf32>
    %1903 = "onnx.DequantizeLinear"(%2, %124, %125) {axis = 1 : si64, onnx_node_name = "model.embed_tokens.weight_transposed_DequantizeLinear"} : (tensor<1024x151936xui8>, tensor<f32>, tensor<ui8>) -> tensor<1024x151936xf32>
    %1904 = "onnx.MatMul"(%1902, %1903) {onnx_node_name = "/lm_head/MatMul"} : (tensor<?x?x1024xf32>, tensor<1024x151936xf32>) -> tensor<?x?x151936xf32>
    return %1904, %747#1, %747#2, %789#1, %789#2, %831#1, %831#2, %873#1, %873#2, %915#1, %915#2, %957#1, %957#2, %999#1, %999#2, %1041#1, %1041#2, %1083#1, %1083#2, %1125#1, %1125#2, %1167#1, %1167#2, %1209#1, %1209#2, %1251#1, %1251#2, %1293#1, %1293#2, %1335#1, %1335#2, %1377#1, %1377#2, %1419#1, %1419#2, %1461#1, %1461#2, %1503#1, %1503#2, %1545#1, %1545#2, %1587#1, %1587#2, %1629#1, %1629#2, %1671#1, %1671#2, %1713#1, %1713#2, %1755#1, %1755#2, %1797#1, %1797#2, %1839#1, %1839#2, %1881#1, %1881#2 : tensor<?x?x151936xf32>, tensor<?x8x?x128xf32>, tensor<?x8x?x128xf32>, tensor<?x8x?x128xf32>, tensor<?x8x?x128xf32>, tensor<?x8x?x128xf32>, tensor<?x8x?x128xf32>, tensor<?x8x?x128xf32>, tensor<?x8x?x128xf32>, tensor<?x8x?x128xf32>, tensor<?x8x?x128xf32>, tensor<?x8x?x128xf32>, tensor<?x8x?x128xf32>, tensor<?x8x?x128xf32>, tensor<?x8x?x128xf32>, tensor<?x8x?x128xf32>, tensor<?x8x?x128xf32>, tensor<?x8x?x128xf32>, tensor<?x8x?x128xf32>, tensor<?x8x?x128xf32>, tensor<?x8x?x128xf32>, tensor<?x8x?x128xf32>, tensor<?x8x?x128xf32>, tensor<?x8x?x128xf32>, tensor<?x8x?x128xf32>, tensor<?x8x?x128xf32>, tensor<?x8x?x128xf32>, tensor<?x8x?x128xf32>, tensor<?x8x?x128xf32>, tensor<?x8x?x128xf32>, tensor<?x8x?x128xf32>, tensor<?x8x?x128xf32>, tensor<?x8x?x128xf32>, tensor<?x8x?x128xf32>, tensor<?x8x?x128xf32>, tensor<?x8x?x128xf32>, tensor<?x8x?x128xf32>, tensor<?x8x?x128xf32>, tensor<?x8x?x128xf32>, tensor<?x8x?x128xf32>, tensor<?x8x?x128xf32>, tensor<?x8x?x128xf32>, tensor<?x8x?x128xf32>, tensor<?x8x?x128xf32>, tensor<?x8x?x128xf32>, tensor<?x8x?x128xf32>, tensor<?x8x?x128xf32>, tensor<?x8x?x128xf32>, tensor<?x8x?x128xf32>, tensor<?x8x?x128xf32>, tensor<?x8x?x128xf32>, tensor<?x8x?x128xf32>, tensor<?x8x?x128xf32>, tensor<?x8x?x128xf32>, tensor<?x8x?x128xf32>, tensor<?x8x?x128xf32>, tensor<?x8x?x128xf32>
  }
  "onnx.EntryPoint"() {func = @main_graph} : () -> ()
}
